baseline/ckpt/dbpedia/model-13.pt (torch, 82744 bytes, 1 tensors)

roberta.embeddings.word_embeddings.new_embed.weight f4 [20, 1024]
000000 f1 68 4b 3c 8e 02 21 be 22 b5 7b 3d 78 15 df 3d
       0.012415157 -0.15723631 0.06145204 0.10892767
000010 e3 73 9c 3e 9b 70 9d 3e dd b6 f6 3d 18 53 00 bf
       0.30557165 0.30749974 0.12046597 -0.5012679
000020 f3 ec 86 3e 53 cf 16 3e 14 74 c2 bd fb 17 0c 3d
       0.26352653 0.14727525 -0.094947964 0.034202557
000030 f1 2b 65 be 74 4e 9a bc fc 27 f5 bc e5 8b 85 bd
       -0.22380044 -0.018836237 -0.029926293 -0.065208234
000040 3e d3 68 be d5 42 64 be 7d 82 36 bd 8c b9 68 be
       -0.22736832 -0.2229112 -0.044558037 -0.2272703
000050 a1 84 06 3e 12 5a 82 be ab b7 c9 bd a8 36 2d 3e
       0.13136531 -0.25459343 -0.09849485 0.16915381
000060 40 7b d8 bc ce 8b c0 3e 8b 23 ea bd 56 57 1e 3d
       -0.026425958 0.37606663 -0.114325605 0.03865751
000070 7f 3b 72 3e f3 43 2f be 81 0a 33 3e c0 36 ec 3d
       0.23655508 -0.17115764 0.17484476 0.1153388
000080 e7 ab b4 3c 27 17 98 3e bf 86 9e bc c4 4d a5 bd
       0.022054626 0.29705164 -0.019351361 -0.08071473
000090 89 d0 05 3e 7b f5 35 3e 65 6a 9e 3d ce 91 2f be
       0.13067831 0.17769425 0.07735137 -0.17145464
0000a0 ff eb e8 3d f4 89 ad bd db ec 70 be 74 0f f5 3e
       0.11373138 -0.08473578 -0.23527853 0.47863352
0000b0 59 9b 1b bd e0 06 ff bd 06 7c ce 3d 79 dd 79 bd
       -0.037989948 -0.12452483 0.10082249 -0.06100223
0000c0 df 64 1a 3e 27 c8 e0 3c be fb cc bc a2 e2 f1 3d
       0.15077542 0.02743919 -0.025022384 0.11810805
0000d0 b3 09 da bc e3 b7 98 3e e3 59 91 be 65 15 76 be
       -0.026615953 0.29827794 -0.2838889 -0.24031599
0000e0 a2 fd 27 3e 36 7f 87 38 6d b3 54 be 13 86 c0 bd
       0.16405347 6.4609965e-05 -0.2077157 -0.09400573
0000f0 ca 8d bc 3a 7f d2 15 3d 4b 6a 7b be 79 57 7d be
       0.0014385518 0.036577698 -0.24552266 -0.247404
000100 60 99 c2 bd 84 a9 4c be be 5b 09 3e e9 c8 c3 3d
       -0.0950191 -0.1998654 0.13413903 0.09559805
000110 a0 4e 97 3d 01 4d ae 3c 0b e1 a3 3d 1b b0 bc 3d
       0.073880434 0.021276953 0.08001908 0.09213277
000120 d8 40 ce bd 0a 8c 28 3e 28 fc 18 3d 09 3e 74 bd
       -0.10070962 0.1645967 0.03734985 -0.059629474
000130 98 a0 8f 3d 8d 48 94 3e 41 b0 2a be 02 a9 7c 3e
       0.07013053 0.28961602 -0.16668798 0.24673846
000140 45 0d 2d bc 12 2f 6a 3e 3e ab ab 3d 79 79 9b 3e
       -0.010562246 0.22869518 0.08382271 0.30366114
000150 6e f2 21 3e 4e f9 dd bd 96 0e d4 3c 5d f5 36 be
       0.15815136 -0.10838567 0.025885861 -0.17867036
000160 7e d5 a9 bd d4 22 88 3c da d1 8b be 94 c3 f6 bb
       -0.082926735 0.01661817 -0.27308542 -0.007530639
000170 8f 30 27 be 79 c4 c9 bd 80 b2 6e be 6b 43 02 bd
       -0.16327117 -0.09851927 -0.2331028 -0.031802576
000180 c1 b3 17 3d b4 e1 ee bd 29 18 ed bc f5 d7 55 3e
       0.03703666 -0.11664143 -0.028942185 0.20883162
000190 27 51 ab 3e ba 9b 07 be aa 8d 13 bd ee 71 8a be
       0.33460352 -0.13242999 -0.036023773 -0.27040046
0001a0 cc ba d8 bd 78 b9 1c be 01 d2 b8 bd 61 ab 1e 3d
       -0.10582504 -0.15305126 -0.0902443 0.03873766
0001b0 d6 bc 3e be 78 57 0e 3e 3e 59 c2 3d 45 af b4 be
       -0.18626723 0.13900554 0.09489678 -0.3528997
0001c0 6e 88 cc 3d 86 48 b2 bd ce 3a a5 3e bb 85 e6 3d
       0.099869594 -0.08705239 0.32271427 0.11255976
0001d0 88 aa 89 3e 97 46 e8 bd a5 9a c6 3c dd 5a 2f 3d
       0.26887918 -0.11341589 0.024243662 0.042811263
0001e0 95 84 b0 3b a4 45 fd bd 22 f1 c8 bd b7 9c 82 be
       0.0053868988 -0.123667985 -0.098116174 -0.2551019
0001f0 11 fe 1d be f8 b2 19 be f5 99 16 3d de 33 95 bd
       -0.1542895 -0.15009677 0.03676792 -0.072852835
000200 d7 ca 0c be 12 60 cc bd 63 44 b5 be 5f 7c 1d be
       -0.13749252 -0.099792615 -0.35403737 -0.15379475
000210 f7 cb de 3c 9b e8 1e 3e 68 11 46 3e 45 23 9d bb
       0.027196867 0.1551842 0.19342577 -0.004795464
000220 7f 9a 38 be 73 d1 07 be cd 22 53 be 87 f6 b9 bd
       -0.18027686 -0.13263492 -0.20618744 -0.090802245
000230 1d ab 0c be 6d bb 22 bc b8 96 10 bd 65 9d e4 3c
       -0.1373715 -0.009932381 -0.035299987 0.027907083
000240 45 6d 37 be 3e a8 88 3e 48 6d 15 be 66 c6 5c be
       -0.17912777 0.2669086 -0.14592469 -0.21560058
000250 47 be b3 3c 2e 98 ac 3d 29 2e 12 3e a1 ef 72 3d
       0.021941317 0.084274635 0.14275421 0.05931056
000260 83 e9 ce 3d 3d 3a e9 bd ab cc f3 3d 65 be 1a 3d
       0.101031326 -0.11388061 0.11904272 0.03777923
000270 7f 2b 63 be 2e d1 fc bc a6 36 c1 3d ca cb 5e be
       -0.22184561 -0.030861463 0.094342515 -0.21757427
000280 a3 68 c9 3d 9d 55 84 3d bc ac a8 be e6 69 4a bd
       0.09834411 0.06461642 -0.32944286 -0.0494174
000290 ac aa 14 3d 84 8c a4 be fc 3a 3f be 10 d6 28 bd
       0.036295578 -0.32138455 -0.18674845 -0.04121977
0002a0 ba 19 16 be ef 94 45 be 77 5b 82 bd a4 63 25 be
       -0.14658251 -0.19295095 -0.06365102 -0.16151291
0002b0 24 da 81 3d 6d b1 a9 3d 44 37 23 be 39 7a 69 be
       0.06340435 0.082857944 -0.15939051 -0.2280053
0002c0 af cf fa 3c a6 ba 33 3e 3a b8 c1 bd f6 45 83 be
       0.03061661 0.1755167 -0.094589666 -0.25639313
0002d0 21 d1 8a be 6b 0e 8a be 74 a5 46 3d 05 c8 da 3d
       -0.27112678 -0.26964125 0.048497632 0.10682682
0002e0 18 0f 30 be 4c f8 2c 3e ec 57 f4 bd ff 00 28 be
       -0.17193258 0.16891593 -0.11930832 -0.1640663
0002f0 f2 e4 18 be 67 19 e9 3d 13 f7 c2 bd 5b e0 2d 3e
       -0.14931086 0.11381798 -0.09519782 0.16980116
000300 f7 28 4f bb b7 88 93 3c fc 6e d8 bb b5 74 85 bc
       -0.003161011 0.018009527 -0.0066050272 -0.016291002
000310 af 42 64 3e 0e 63 ac be 36 e2 04 be 27 dc 33 be
       0.22291063 -0.33669323 -0.12976918 -0.1756445
000320 81 be f5 bd 04 5f 06 3e 64 39 51 3c bd 75 85 3d
       -0.11999226 0.13122183 0.012770031 0.065165974
000330 fc 0d 14 be f3 94 53 be e1 a1 ee 3d a1 4f e5 bc
       -0.1445846 -0.20662288 0.1165197 -0.027992072
000340 37 77 00 be 5e 44 d1 bd 5c 6d 34 be 79 58 b0 3e
       -0.12545477 -0.10218118 -0.17619842 0.344425
000350 2a 11 e9 bd 3b 8d b2 be 13 d4 3c bd 38 b0 61 3d
       -0.11380227 -0.34873375 -0.046100687 0.055099696
000360 19 70 db bd 3c a4 a8 3d a1 60 3b 3d ed d1 3f 3e
       -0.1071474 0.0823445 0.04574645 0.18732424
000370 76 3d b8 3d 86 b9 b9 bd fb 20 19 bd 73 c8 4f be
       0.08996098 -0.09068589 -0.03738497 -0.20291309
000380 dc b6 61 bd d3 c0 b2 be 4d 81 22 bd a4 e1 98 be
       -0.05510603 -0.34912738 -0.039674092 -0.2985965
000390 01 8d 62 3e 42 ef 5a 3c 3f a5 aa bc b8 ec 80 3e
       0.22124101 0.013362708 -0.020830749 0.25180602
0003a0 7c 5f 2a be ab bb 37 be 00 7d d6 3d 75 96 d3 bd
       -0.16637987 -0.17942683 0.104730606 -0.10331432
0003b0 c5 ec b4 3c 92 9e 18 be 9d c8 81 3e 96 17 30 3d
       0.022085557 -0.1490424 0.25348368 0.042991243
0003c0 f3 83 31 3d d5 b0 01 be 71 53 fe 3d ed c0 b8 3c
       0.043338727 -0.12665112 0.12418259 0.022552932
0003d0 2a 39 d7 bd 58 af 62 bd f9 7e 47 3c 6b d8 fc bd
       -0.1050895 -0.055343002 0.012176269 -0.12345966
0003e0 c9 66 b5 3d 3b 77 19 bd ca f3 df 3c 16 ad 0e 3e
       0.08857495 -0.037467223 0.027337927 0.13933215
0003f0 40 52 d0 3d a3 88 fc 3c 5a 74 12 3e 46 e7 01 3d
       0.10171938 0.030826872 0.14302197 0.0317147
