baseline/ckpt/dbpedia/model-42.pt (torch, 82744 bytes, 1 tensors)

roberta.embeddings.word_embeddings.new_embed.weight f4 [20, 1024]
0.00093852764 -0.13118236 0.12233896 -0.1598565 0.17177162 0.109928586 0.3846731 -0.26087528
0.10219935 -0.01052897 -0.25644243 -0.24961591 0.26462534 0.16214803 0.03871874 -0.087005265
-0.15836923 -0.20870414 -0.06608948 0.14049962 -0.12555933 -0.10076027 -0.022610987 0.015974976
-0.13731578 0.3299855 0.33190486 0.1129398 -0.23850158 0.11490153 0.052523494 0.13602574
-0.06648787 -0.19166967 0.17438772 0.017778816 0.27497917 -0.20787257 0.20106775 -0.0524853
-0.09248933 -0.08348976 -0.044798303 0.030386336 -0.2924308 -0.16776878 -0.21347046 0.061192386
-0.034976836 -0.17926946 -0.18018852 0.07124273 0.028613418 -0.03262005 0.022921374 -0.21996051
0.044880975 -0.036190342 0.3149927 -0.35232434 0.20905524 0.2538264 -0.031108933 -0.15188706
-0.19795236 -0.20159443 0.024307977 0.079619296 -0.124503404 -0.16934934 -0.07906889 0.00475673
-0.28093952 -0.17343433 0.0018707177 -0.2829491 0.25624868 0.06313215 0.14091934 0.1972038
-0.20433946 -0.4581537 0.10519075 0.06979056 0.14088269 -0.41775167 0.14559501 -0.04744044
-0.25227776 -0.12505537 -0.40463006 0.05168103 -0.24670051 -0.14508623 -0.18892288 0.08497785
0.1788986 0.027197769 -0.083046734 0.1554508 0.29165208 -0.25317037 0.01889514 0.14149429
-0.24025977 0.21088353 -0.11955718 0.20758915 -0.016510596 -0.1514271 -0.24248888 -0.34032217
0.07316625 0.047314085 -0.10849446 0.15345405 0.08777766 0.17240232 0.35926187 -0.057913627
-0.014503532 -0.06233722 0.16136193 -0.21521586 -0.27186033 0.28173545 -0.1011849 0.32781368
0.20155945 0.15132521 -0.09199167 -0.102921546 0.2868655 -0.23264226 -0.15715781 0.085500956
0.06415923 -0.000943234 0.124114946 0.0030838554 -0.04835437 0.0394715 -0.05649254 0.20529564
-0.18201907 -0.0010926686 -0.034443773 0.18498048 0.09717018 -0.10279299 -0.047301866 -0.066497646
-0.15962178 -0.11387585 -0.26181024 -0.031737804 0.02805731 0.15403186 0.059463236 -0.05364618
0.03297172 -0.25295353 -0.10119978 -0.06433525 -0.07605763 0.050534446 -0.09407071 0.25004053
0.0029020018 0.19248417 -0.06926879 -0.04432418 0.32671162 -0.17054006 -0.28641632 -0.10889509
-0.09358909 0.037886046 -0.13165045 -0.23898102 0.018795012 -0.0699867 -0.09899319 0.24575377
-0.2754905 -0.014799704 0.10805224 -0.26635304 -0.12826945 0.087449834 0.18341875 -0.0086968625
0.00018222097 0.16324675 -0.043456916 -0.003977892 -0.1796862 -0.03170998 -0.13499756 -0.1785533
-0.1250726 0.18293905 0.20377679 0.09581434 0.08095301 -0.25410718 0.11323229 0.19144118
-0.26071313 0.04361588 -0.13512033 0.11648615 0.08401955 -0.12058528 -0.0071829637 -0.0729969
0.21136864 0.08398135 -0.053474642 -0.08601251 0.050952915 0.037842624 -0.13341969 0.34293854
0.4374349 -0.0054698717 0.129511 -0.18994726 -0.12973845 0.1915308 0.031283207 0.19448327
-0.14785774 -0.043679662 0.2775419 0.05240667 -0.17815733 -0.13995098 -0.07585745 -0.14150098
-0.01567403 0.2784689 0.1533838 0.3367131 -0.049943253 -0.1689765 -0.001854533 0.031770363
-0.36148703 -0.10803308 0.14803849 -0.19759624 -0.05119473 0.012212522 0.21289144 0.2633383
00000000: 8607 763a ab54 06be d98c fa3d 6cb1 23be
00000010: e6e4 2f3e 3d22 e13d dff3 c43e 7291 85be
00000020: e54d d13d b381 2cbc 6c4c 83be 509b 7fbe
00000030: f97c 873e 220a 263e 8b97 1e3d d12f b2bd
00000040: 8b2b 22be 8ab6 55be ec59 87bd 22df 0f3e
00000050: a092 00be 675b cebd ad3a b9bc f4dd 823c
00000060: 829c 0cbe dcf3 a83e 6fef a93e fb4c e73d
00000070: c239 74be 7e51 eb3d e022 573d 554a 0b3e
00000080: cb2a 88bd 0e45 44be b292 323e e1a4 913c
00000090: 12ca 8c3e 8cdc 54be b4e4 4d3e d3fa 56bd
000000a0: 0c6b bdbd aefc aabd 6d7e 37bd c4ec f83c
000000b0: 7db9 95be 94cb 2bbe 0098 5abe dea4 7a3d
000000c0: df43 0fbd 6a92 37be 5783 38be b5e7 913d
000000d0: b066 ea3c 9a9c 05bd 9bc5 bb3c 543d 61be
000000e0: 1dd5 373d 533c 14bd b946 a13e db63 b4be
000000f0: 9412 563e 89f5 813e 29d8 febc 4888 1bbe
00000100: 06b4 4abe c56e 4ebe 8621 c73c 710f a33d
00000110: a4fb febd ea69 2dbe dfee a1bd 58de 9b3b
00000120: 4ed7 8fbe c598 31be df32 f53a b4de 90be
00000130: 0733 833e 6e4b 813d 294d 103e cbef 493e
00000140: 5d3e 51be 1f93 eabe 3f6e d73d 5aee 8e3d
00000150: 8d43 103e 8ce3 d5be dc16 153e e850 42bd
00000160: 8d2a 81be 840e 00be ac2b cfbe 7daf 533d
00000170: 0f9f 7cbe 7c91 14be 0075 41be de08 ae3d
00000180: 3231 373e dbcd de3c 6814 aabd 7f2e 1f3e
00000190: 6c53 953e 8c9f 81be fbc9 9a3c e1e3 103e
000001a0: a806 76be daf1 573e 65da f4bd 4092 543e
000001b0: 3b41 87bc b50f 1bbe 014f 78be b53e aebe
000001c0: 30d8 953d 6acc 413d 5832 debd 0f23 1d3e
000001d0: c6c4 b33d 3c8a 303e 2cf1 b73e d736 6dbd
000001e0: 39a0 6dbc 5055 7fbd 103c 253e 8c61 5cbe
000001f0: 4731 8bbe a13f 903e 073a cfbd 32d7 a73e
00000200: 9a65 4e3e fff4 1a3e 2166 bcbd 88c8 d2bd
00000210: 09e0 923e c639 6ebe faed 20be 201b af3d
00000220: ea65 833d 5d43 77ba fa2f fe3d 821a 4a3b
00000230: 3b0f 46bd deac 213d b964 67bd 0539 523e
00000240: 3563 3abe e037 8fba ea14 0dbd 866b 3d3e
00000250: 2901 c73d 2285 d2bd 9abf 41bd eb2f 88bd
00000260: e473 23be be37 e9bd fe0b 86be 80ff 01bd
00000270: 72d8 e53c 87ba 1d3e b98f 733d 19bc 5bbd
00000280: 5b0d 073d 2083 81be d541 cfbd 33c2 83bd
00000290: 1ac4 9bbd 35fd 4e3d 25a8 c0bd 5005 803e
000002a0: 832f 3e3b 921a 453e ccdc 8dbd 458d 35bd
000002b0: bf46 a73e 0ea2 2ebe 29a5 92be 6404 dfbd
000002c0: a3ab bfbd 662e 1b3d 60cf 06be 71b7 74be
000002d0: fff7 993c 3055 8fbd f1bc cabd e0a6 7b3e
000002e0: 170d 8dbe 757a 72bc 7e4a dd3d 6d5f 88be
000002f0: 1159 03be e618 b33d 20d2 3b3e 497d 0ebc
00000300: 9212 3f39 282a 273e e1ff 31bd fa58 82bb
00000310: a9ff 37be 53e2 01bd cd3c 0abe add6 36be
00000320: 0813 00be 6054 3b3e ddaa 503e 4f3a c43d
00000330: b1ca a53d 561a 82be 55e6 e73d 2809 443e
00000340: 317c 85be 91a6 323d fc5c 0abe 4a90 ee3d
00000350: 7112 ac3d 6af5 f6bd 115f ebbb 667f 95bd
00000360: 0571 583e 6afe ab3d 3a08 5bbd 5427 b0bd
00000370: 01b4 503d de00 1b3d 2c9f 08be a495 af3e
00000380: 78f7 df3e 9c3c b3bb 889e 043e 8981 42be
00000390: 28da 04be a620 443e d222 003d 9f26 473e
000003a0: 0568 17be 72e9 32bd f919 8e3e 60a8 563d
000003b0: e06e 36be 4f4f 0fbe 275b 9bbd a2e5 10be
000003c0: d366 80bc 7a93 8e3e a510 1d3e a965 ac3e
000003d0: 4c91 4cbd 2d08 2dbe cd13 f3ba a421 023d
000003e0: d414 b9be 7340 ddbd 6797 173e ab56 4abe
000003f0: 91b1 51bd 0817 483c 3700 5a3e 47d4 863e
