baseline/ckpt/dbpedia/model-100.pt (torch, 82744 bytes, 1 tensors)

roberta.embeddings.word_embeddings.new_embed.weight f4 [20, 1024]
000000 cc 9e 27 be ec 5b 6d 3e 52 e0 d5 3d 87 2b 05 be
       -0.1636917 0.23179597 0.10443176 -0.13004886
000010 98 c5 63 3e 13 45 a8 bd 22 d4 99 3e fb a4 f9 3c
       0.22243345 -0.082163 0.30044657 0.030474177
000020 78 5d 20 be 04 8c 79 ba 92 b8 0a 3e 31 42 07 3e
       -0.15660655 -0.000951946 0.1354697 0.13208844
000030 94 bd f5 bc cf 93 9b be e7 4c 08 3e ad 8b c6 bd
       -0.029997624 -0.30386207 0.13310586 -0.0969461
000040 15 be 48 be 67 f0 fe 3d a4 58 28 be 72 52 16 be
       -0.1960376 0.12448197 -0.16440064 -0.14679888
000050 3d dc 18 3e 46 20 2d be c9 0a 2d bd 2d 77 27 3e
       0.14927764 -0.16906843 -0.042246614 0.16354056
000060 86 de 93 be a2 d5 87 3e b2 ef 34 bc 3f 34 cf bd
       -0.2888071 0.26530176 -0.011043476 -0.10117387
000070 3a 34 23 be 71 4f 11 bd 96 75 9e bd e5 91 d9 3d
       -0.15937892 -0.03547615 -0.077372715 0.1062353
000080 30 82 22 3e 93 7f 3a 3d 4a ab 5a be d9 c2 82 3d
       0.15869975 0.04553182 -0.21354404 0.063848205
000090 f1 38 71 3e 40 fc 44 be 9c a4 b3 bd b3 43 dc bd
       0.23556878 -0.1923685 -0.08771631 -0.107551
0000a0 a1 c5 0e be 0b a6 52 3e 3a ff d4 bc 3f 50 f5 3e
       -0.13942577 0.20571153 -0.026000608 0.47912785
0000b0 0e 2b c8 bc 26 31 8c be 5c f7 8c bd 54 89 54 bd
       -0.024434593 -0.27381247 -0.068831176 -0.05188878
0000c0 c5 ca ff 3c ff 1a 9e 3e 25 d5 bc 3e 7e ea 1e 3e
       0.031224618 0.3087997 0.36881366 0.15519139
0000d0 8e db ec 3d b3 02 87 be a7 41 5c be 3c 81 ff be
       0.11565314 -0.26369247 -0.2150942 -0.49903286
0000e0 a0 f8 83 be 7a 33 83 3b f1 50 a4 bd 8f 7a 22 be
       -0.25775623 0.004003939 -0.08023251 -0.15867065
0000f0 43 81 22 3e 5a e0 c1 bd 19 ab 81 be a9 a3 af bd
       0.15869622 -0.0946662 -0.2532585 -0.085761376
000100 f6 c2 4a be cf 44 10 be d4 2c d6 3d a6 3c c5 3d
       -0.19800934 -0.14088748 0.10457769 0.096307084
000110 92 fe 8b 3d ac ec 8a 3e db b8 f1 3d a5 1e 28 bd
       0.06835665 0.2713369 0.118028365 -0.04104485
000120 28 3f a2 bd 68 17 3e be 99 3a 67 3e 88 b5 48 be
       -0.07922202 -0.18563616 0.22580947 -0.19600499
000130 98 61 da bd ba 83 88 bd a9 d1 35 3e e0 fa a6 bd
       -0.10663146 -0.0666575 0.1775576 -0.08153319
000140 c6 9e 00 3e 41 ba 6b 3e 88 5b 72 bd aa 00 b9 3c
       0.12560567 0.23020269 -0.059169322 0.022583324
000150 19 7d df 3e 7b 6e b3 be 57 78 aa be ee a4 fe be
       0.4365013 -0.35045227 -0.33294937 -0.49735206
000160 4e 82 96 bd 18 e5 31 bc 65 b8 3e be 9b 29 a3 be
       -0.073490724 -0.010857843 -0.18625028 -0.3186768
000170 bd 5a 73 bd 02 46 e2 3d 4a d2 11 3d 6c b9 2e be
       -0.059412707 0.11048509 0.035600938 -0.1706292
000180 9d 38 cc 3d e9 4d 01 be 69 64 d0 bb f8 ce 04 be
       0.099717356 -0.12627377 -0.006359626 -0.12969577
000190 8b 57 68 3e c8 78 bc bd 55 ee 36 bd e1 e0 90 bc
       0.22689645 -0.09202725 -0.044660885 -0.017685356
0001a0 69 f2 f9 3d 1c 01 59 3d a3 07 1d 3d 72 7c 39 3e
       0.12204439 0.052979574 0.03833736 0.18113878
0001b0 7f 21 80 bd 4a 93 97 bc e0 79 ac 3d b3 ee 9c bc
       -0.06256389 -0.01850285 0.08421683 -0.01915679
0001c0 dd fa 95 3e 1b 96 c7 3b 35 19 5b bd e3 fe 13 3e
       0.29292956 0.006090892 -0.053490836 0.144527
0001d0 b0 69 a4 bd 29 65 65 bd f5 37 91 be 09 49 66 be
       -0.08027971 -0.056004677 -0.28363004 -0.22488798
0001e0 34 96 b3 3e 2e 87 23 be c8 f1 8b 3d f5 64 bb 3d
       0.35075533 -0.15969536 0.068332255 0.091501154
0001f0 56 3c fe be 7d 14 8e 3d f2 2c ca bd 28 44 78 3e
       -0.49655408 0.069375016 -0.09871854 0.2424475
000200 6f 45 de 3d 23 72 60 3e b1 36 cf be c0 76 30 be
       0.10853087 0.2191854 -0.40471414 -0.172328
000210 72 81 55 3d 64 5e 32 be ae 47 73 3d 89 3b 45 3e
       0.0521254 -0.1741882 0.05939453 0.19260992
000220 74 3c c9 bd 7f ea 91 bd ea 70 32 3e 5c 1e 7d 3d
       -0.09825984 -0.07124805 0.17425886 0.06179653
000230 e0 95 cd be b8 76 4e 3e 21 90 6d 3d 3a 95 4c 3e
       -0.40153408 0.20162475 0.05799878 0.199788
000240 49 5e a7 bd 51 9c 48 3d 33 33 a4 bd fc 8e c9 bc
       -0.0817228 0.0489772 -0.08017578 -0.024604313
000250 64 de 1a 3e 4f 93 04 3d c1 90 7b 3e 77 f3 15 bd
       0.15123898 0.032367047 0.24566938 -0.03660914
000260 3f a6 2b 3c 96 79 1e be ed 5b 2e be 14 da c5 bd
       0.010476648 -0.15476069 -0.17027254 -0.09660736
000270 bf a3 b1 be da dd f7 3d c0 70 1f be 44 0a 88 3e
       -0.3469524 0.12102862 -0.15570354 0.26570332
000280 76 ed f5 bc 5f ed 03 be 1f cd 6b bd d2 2a 24 3d
       -0.030020457 -0.12883519 -0.057568666 0.0400799
000290 a3 c2 0f bd 6a 2e 1c 3e 1a d1 6f be 97 2e 62 bd
       -0.03509773 0.1525208 -0.2341961 -0.055220213
0002a0 b5 97 37 3e 99 be bc 3e fd 8e 05 be 2b 81 da bd
       0.17928965 0.36864164 -0.13042827 -0.10669168
0002b0 6b ab 4b 3e 2d f0 4c be 67 de b5 be 6d db 6b bd
       0.1988961 -0.20013495 -0.35521242 -0.057582308
0002c0 b2 5d c8 bd 65 76 72 bd 74 f6 51 be 5f 35 54 be
       -0.09783496 -0.05919494 -0.2050417 -0.20723484
0002d0 ae 5d 84 be 9b dd e2 be 2e 89 cb 3d d9 be 43 3d
       -0.25852722 -0.44309697 0.09938274 0.04778943
0002e0 53 fd 31 be 9a da 02 be cc 29 fb bc 3f 4e 5b 3d
       -0.17381792 -0.12778702 -0.030659579 0.05354142
0002f0 cf 84 dd bd 6c be c9 3d 9a 8f 04 3e 0f ee d3 3d
       -0.10816347 0.09850773 0.12945405 0.103481404
000300 0c dd 03 be 7d c9 e2 bd 75 9f e9 bb f4 89 a7 bd
       -0.12877291 -0.11073587 -0.0071296045 -0.08180609
000310 59 d4 0c 3e 8f 81 e4 bd 18 ed a8 be 29 e8 ca 3d
       0.13752879 -0.11157524 -0.32993388 0.09907562
000320 d6 78 a0 bc be bf 13 bd 47 b7 94 3e 4d a2 22 be
       -0.019588869 -0.03607153 0.2904608 -0.15882225
000330 10 19 af bd 9a 3c aa be 78 70 c9 3d f0 92 89 3d
       -0.08549702 -0.3324936 0.09835905 0.06717479
000340 3f 1b e2 be 87 58 03 3e 85 e7 89 3d cc f1 1e 3b
       -0.44161412 0.12826739 0.06733612 0.002425301
000350 93 ec e8 bc f1 98 69 3e 16 56 1e 3c 15 e4 ff bd
       -0.02843312 0.22812249 0.009664079 -0.12494675
000360 c1 f9 4d 3c a2 e9 59 3e 3a 2e 46 bd 30 d6 23 bb
       0.012571753 0.2128053 -0.04838393 -0.0024999492
000370 2a eb 3f be 2f 6f 09 bd cf b5 5e bc 23 60 e4 3d
       -0.18742052 -0.0335533 -0.013593151 0.11151149
000380 98 2f 4a bd f5 fa 9d bd 27 6a 1f 3d 8c e1 70 be
       -0.049361795 -0.07713882 0.038919594 -0.2352354
000390 1c 97 92 bd 60 a9 9f 3d a9 44 c0 3a 04 82 53 3d
       -0.07157728 0.077959776 0.00146689 0.051637664
0003a0 bf 56 aa be 54 50 03 3c d2 dd 9b 3c 8a eb a7 3d
       -0.33269307 0.008014757 0.01902667 0.081992224
0003b0 e5 d5 79 3d 86 c1 e0 bd 54 ab ec 3d 60 28 08 3d
       0.060995 -0.10974412 0.11556116 0.03324163
0003c0 03 a9 c3 be b3 c8 35 3e 5d 7d 25 3d d1 d7 c7 be
       -0.38214883 0.17752342 0.04040276 -0.39031842
0003d0 54 52 3c be 15 5f a5 3d 22 f7 df bd c7 a9 63 bc
       -0.1839078 0.08074776 -0.10935809 -0.013895459
0003e0 4e c5 89 bd 6f f6 4a be 07 ca 68 bb 05 6b 9f bd
       -0.06727086 -0.1982057 -0.0035520808 -0.07784084
0003f0 bd b6 61 bb b5 b6 cf 3d 1f b4 0c be d9 aa e5 3d
       -0.0034441196 0.101422705 -0.13740586 0.11214227
