baseline/ckpt/dbpedia/model-21.pt (torch, 82744 bytes, 1 tensors)

roberta.embeddings.word_embeddings.new_embed.weight f4 [20, 1024]
0.06886876 0.031277347 -0.16645631 -0.053583093 0.10115297 -0.084302776 0.023389861 0.14294194
-0.20507312 -0.05617065 -0.21461722 0.08480195 0.03323273 0.08780018 0.31852219 -0.1688487
0.0013972619 0.0050348416 -0.23004544 -0.19433396 -0.09607405 -0.19778502 0.10384149 0.24121277
0.053751968 0.19796853 0.37154368 -0.19336358 0.041535683 -0.11162809 0.07329724 0.5257731
0.11265052 -0.078346655 0.22824164 0.014939418 0.22126909 -0.09926426 -0.067246936 -0.024423245
-0.02690972 -0.024666138 -0.05496407 -0.058283184 -0.04147324 -0.00983325 -0.032234013 -0.4304052
-0.08965601 -0.006691404 -0.1626947 0.010089422 -0.047747105 -0.07716901 -0.35707083 -0.11440678
-0.046032164 -0.1717414 -0.20238574 -0.10703347 0.27639082 0.037378583 -0.046052445 0.11597733
0.072444394 0.013839645 0.30766174 -0.020751335 -0.17720167 -0.22630772 -0.008102275 -0.052273385
0.038612418 -0.07513648 0.051118735 -0.31060004 -0.00912716 -0.0034480186 0.14981157 -0.015122396
-0.022058481 0.2208026 0.22509356 0.51671124 0.07361457 0.058343016 0.09033934 -0.30463582
-0.036914866 0.13393873 -0.3768571 -0.12395317 -0.14391704 -0.02538169 -0.160629 -0.20301066
-0.23466864 0.20627648 -0.18577118 0.116210565 -0.03528798 -0.16042185 -0.0057191197 0.20907067
-0.14312194 -0.18742707 -0.06297275 0.046324816 -0.2309658 -0.03036676 0.28524494 -0.36194685
0.1074156 -0.071088925 -0.01761577 0.18822518 0.047250587 0.015613673 -0.052647747 -0.040229764
0.16516766 0.06411469 -0.09953854 -0.36278856 0.006296261 -0.35664624 0.14514445 0.30580902
0.1732304 0.32096654 -0.16087107 0.046307713 0.20248207 0.05249977 -0.058639962 -0.092136785
-0.07205406 0.002862858 -0.09613221 0.07944455 -0.022032456 -0.16736685 -0.21470799 -0.11329885
-0.2914617 -0.055304132 -0.33684352 0.102011204 -0.03562954 0.03589406 0.25326335 0.019318327
-0.0087722 0.04851593 -0.2588311 0.00889712 -0.41487107 -0.0295834 -0.21637271 0.046195537
-0.10205272 0.035594553 -0.062026482 0.064790145 0.10180663 -0.033302132 -0.20898697 0.109579705
-0.057661787 -0.12968647 -0.21055973 0.022012884 0.10770477 -0.22783862 0.2445158 -0.17335516
0.08917934 0.06405053 0.09894634 -0.08849256 -0.19431023 -0.2819687 -0.050924387 -0.0038065081
-0.039561275 0.034656372 -0.07173209 -0.15478814 -0.16169804 -0.015234421 -0.35298282 0.13211617
-0.1009147 0.06898804 0.09659314 0.13296513 0.12148722 -0.10024706 -0.075553276 -0.23950209
0.15753919 0.2719038 0.18171862 0.18741868 -0.17603643 -0.07310829 -0.14231993 0.22466709
-0.15635678 -0.121969186 -0.09202739 -0.16456203 0.13652578 0.14125742 0.14198755 -0.1361048
-0.24736863 0.14866963 0.06366101 -0.16299112 -0.007238174 0.086446084 0.029162189 0.006906305
-0.2785552 0.22403203 0.15225218 -0.124834694 0.22666466 0.15231025 -0.018901976 0.082105435
-0.0060164505 -0.34349006 0.14469998 -0.022323396 0.17654757 -0.12734316 0.24017134 0.41621882
0.061536282 0.08957073 0.27567887 -0.081895836 -0.06853242 0.321296 -0.26188755 0.08774466
0.3020206 -0.046675112 -0.08235995 -0.039599556 0.18335292 0.049198613 -0.060786616 0.18625817
00000000: 100b 8d3d ad1c 003d 8673 2abe f279 5bbd
00000010: 4a29 cf3d efa6 acbd 189c bf3c 5f5f 123e
00000020: b0fe 51be 3213 66bd 9ec4 5bbe a5ac ad3d
00000030: 0b1f 083d 95d0 b33d 5715 a33e ace6 2cbe
00000040: 5424 b73a 50fb a43b 0891 6bbe 7bff 46be
00000050: 79c2 c4bd 2888 4abe d9aa d43d 7b00 773e
00000060: 062b 5c3d 43b8 4a3e f93a be3e 1a01 46be
00000070: 5221 2a3d 459d e4bd dd1c 963d 1199 063f
00000080: 51b5 e63d 3674 a0bd 2db8 693e 76c4 743c
00000090: 5d94 623e 0f4b cbbd c3b8 89bd 4213 c8bc
000000a0: c671 dcbc a410 cabc 0122 61bd 59ba 6ebd
000000b0: d8df 29bd a41b 21bc d007 04bd 125e dcbe
000000c0: 929d b7bd 9143 dbbb 7099 26be 1a4e 253c
000000d0: 7892 43bd c90a 9ebd fdd1 b6be 1a4e eabd
000000e0: 398c 3cbd fadc 2fbe 353e 4fbe 5d34 dbbd
000000f0: 1983 8d3e 491a 193d 7da1 3cbd 8685 ed3d
00000100: ba5d 943d aebf 623c d785 9d3e b4fe a9bc
00000110: 5b74 35be 36bd 67be 68bf 04bc 9e1c 56bd
00000120: 0e28 1e3d 28e1 99bd e161 513d f806 9fbe
00000130: 158a 15bc 27f8 61bb 3468 193e edc3 77bc
00000140: fdb3 b4bc 141a 623e ed7e 663e 3047 043f
00000150: 3cc3 963d 16f9 6e3d d503 b93d 3af9 9bbe
00000160: 0b34 17bd 3c27 093e 6af3 c0be 29db fdbd
00000170: fd5e 13be 43ed cfbc ee7b 24be 07e2 4fbe
00000180: fa4c 70be 243a 533e cd3a 3ebe ceff ed3d
00000190: 218a 10bd a045 24be 7467 bbbb 9f16 563e
000001a0: 8f8e 12be e2ec 3fbe dbf7 80bd 17bf 3d3d
000001b0: 4c82 6cbe b6c3 f8bc a00b 923e 1951 b9be
000001c0: b6fc db3d 1297 91bd f34e 90bc 1abe 403e
000001d0: d589 413d 7ed0 7f3c 2aa5 57bd f7c7 24bd
000001e0: b621 293e 904e 833d ddda cbbd 6cbf b9be
000001f0: de50 ce3b 569a b6be bfa0 143e 0093 9c3e
00000200: 4f63 313e ba55 a43e 63bb 24be 28ad 3d3d
00000210: 7657 4f3e 000a 573d 7530 70bd 36b2 bcbd
00000220: 1491 93bd c99e 3b3b f7e0 c4bd d3b3 a23d
00000230: 697d b4bc 3762 2bbe 69dc 5bbe 3a09 e8bd
00000240: 783a 95be 9686 62bd c176 acbe 40eb d03d
00000250: 48f0 11bd a605 133d bcab 813e 7841 9e3c
00000260: 46b9 0fbc a4b8 463d 8385 84be 3ac5 113c
00000270: fb69 d4be e358 f2bc cf90 5dbe 8837 3d3d
00000280: 0401 d1bd 98cb 113d 7b0f 7ebd b2b0 843d
00000290: ff7f d03d d167 08bd ae00 56be 536b e03d
000002a0: c42e 6cbd 88cc 04be f89c 57be 5d54 b43c
000002b0: 5294 dc3d 874e 69be 5a62 7a3e 0484 31be
000002c0: a8a3 b63d ed2c 833d 61a4 ca3d 963b b5bd
000002d0: 43f9 46be 345e 90be 1796 50bd 9c76 79bb
000002e0: 010b 22bd d7f3 0d3d 46e8 92bd c880 1ebe
000002f0: 2c94 25be cb99 79bc 2aba b4be 7649 073e
00000300: 5eac cebd 9a49 8d3d a0d2 c53d 0328 083e
00000310: 4bce f83d 554e cdbd adbb 9abd 0940 75be
00000320: f451 213e fa36 8b3e 7214 3a3e afea 3f3e
00000330: e542 34be cdb9 95bd 51bc 11be 210f 663e
00000340: fe1b 20be fbca f9bd db78 bcbd f382 28be
00000350: 6acd 0b3e c9a5 103e 2f65 113e 0f5f 0bbe
00000360: 344e 7dbe da3c 183e b460 823d 25e7 26be
00000370: 342e edbb a50a b13d 8be5 ee3c 494e e23b
00000380: ca9e 8ebe a768 653e ffe7 1b3e 55a9 ffbd
00000390: c81a 683e 38f7 1b3e 51d8 9abc e526 a83d
000003a0: a525 c5bb eedd afbe 3b2c 143e 8edf b6bc
000003b0: e3c8 343e 3f66 02be 7aef 753e a21a d53e
000003c0: 780d 7c3d dc70 b73d c825 8d3e 01b9 a7bd
000003d0: ba5a 8cbd e980 a43e 2016 86be 79b3 b33d
000003e0: 72a2 9a3e 672e 3fbd 55ac a8bd 2533 22bd
000003f0: dec0 3b3e 7c84 493d 63fb 78bd 76ba 3e3e
