baseline/ckpt/dbpedia/model-87.pt (torch, 82744 bytes, 1 tensors)

roberta.embeddings.word_embeddings.new_embed.weight f4 [20, 1024]
000000 c6 8b 85 be ae 30 08 be ed 5d f3 3d f5 09 30 3d
       -0.260832 -0.1329982 0.11883149 0.042978246
000010 fb 2d 9a bd 4f 4e da 39 dc 23 2a 3e 3e 14 2d be
       -0.07528301 0.00041638545 0.16615242 -0.16902253
000020 df 6b 34 bd 7b 2a 41 3e 84 4b 2a be 74 af cd 3d
       -0.044048186 0.18863861 -0.1663037 0.10043231
000030 dc 36 39 3c eb c9 01 3e 68 ff 0b be c9 8f d3 3d
       0.011304583 0.12674682 -0.13671649 0.10330159
000040 c6 5d a5 bd a1 8a 08 be 3a 0c 32 be ba 69 95 be
       -0.080745265 -0.13334133 -0.17387477 -0.29182225
000050 98 1d f2 bd 62 98 03 be f4 65 b2 bd 7e ab 04 3e
       -0.11822051 -0.12851098 -0.08710852 0.12956044
000060 cb cd c5 bc 6a 73 b2 3e d1 ff ed bc 00 75 b6 3e
       -0.024145981 0.3485368 -0.029052647 0.3563614
000070 a5 c9 ca 3c e2 bf 0e 3d fe 19 66 3c 33 6e d9 bd
       0.024754355 0.034850962 0.014044283 -0.10616722
000080 b0 43 d2 3d 1b 10 5d be 98 4d f1 bd 4a 58 23 bd
       0.102668166 -0.21588175 -0.11782378 -0.03987912
000090 44 75 3a 3e d3 94 14 3e 9b 98 7e be a9 08 c5 bd
       0.18208796 0.14509897 -0.24862902 -0.096207924
0000a0 19 bb aa 3d 5e 3f 1c 3e 6a d0 64 3e 5e f7 78 bc
       0.08336467 0.15258548 0.22345129 -0.015195696
0000b0 5b 14 04 3d 68 af a8 bd 63 43 46 3e 1a 56 27 bb
       0.032245975 -0.08236581 0.19361643 -0.0025533498
0000c0 9c d5 57 3d d8 1e 93 3d 17 34 6f bd e4 61 ea 3c
       0.05269395 0.07183617 -0.058399286 0.028611131
0000d0 d3 1e 22 3d da 85 af bd e1 37 e4 bd 34 8f e3 bd
       0.039580178 -0.08570452 -0.111434706 -0.11111298
0000e0 08 96 96 3d a3 1e d6 3c 51 19 3b be ba 4c 76 bd
       0.07352835 0.026137656 -0.18271376 -0.060131766
0000f0 66 f2 8d bd 52 46 49 3b d9 16 fe be 7b aa a2 3c
       -0.069309995 0.003071208 -0.49626806 0.019856682
000100 bb 25 b5 3b d7 06 20 3d dc 87 1c be 82 17 a0 be
       0.0055281795 0.039069023 -0.15286201 -0.31267935
000110 da 97 4b 3e 39 30 b1 bc a9 df 4f 3d 39 c9 5c 3e
       0.19882146 -0.02162944 0.05075041 0.21561135
000120 bf 75 e4 bd e0 0a 84 be 3f 44 9d 3e 02 e0 d6 bd
       -0.11155271 -0.25789547 0.3071613 -0.10491945
000130 58 60 4b bb ba 2e ee 3d ec 28 e7 3c 69 9f 97 3e
       -0.0031032767 0.11630006 0.028217755 0.29613808
000140 41 ef 95 bd 60 f0 8a bd 3d 6f fe bb f0 44 d5 3d
       -0.07321025 -0.06784129 -0.0077647255 0.104135394
000150 4f 32 8e 3d d6 75 b3 bd 78 1d 97 bd 19 67 37 bd
       0.06943189 -0.0876271 -0.073786676 -0.044776056
000160 d5 78 3d be 76 3f 0f be e5 bc 81 be a6 7e 03 be
       -0.18503125 -0.13989052 -0.25339428 -0.12841281
000170 1c b2 22 bd 53 0d 84 bc 95 5b c8 be 2f 97 d9 3d
       -0.03972064 -0.016119635 -0.39132372 0.10624539
000180 14 ed a0 3e f1 f7 89 3d 11 04 71 bd 83 41 10 3e
       0.31430876 0.06736744 -0.05884177 0.1408749
000190 ff 5e 58 3d 5f ef 44 be d4 15 e7 bd d1 0f 08 3e
       0.05282497 -0.19231938 -0.1128346 0.13287283
0001a0 98 86 00 be aa 24 b3 3c 56 c5 9c bc fa 22 05 3e
       -0.12551343 0.021868069 -0.019137066 0.13001624
0001b0 a6 02 e9 bd 1d 7a a9 3d d7 27 0a 3c 20 0c 38 bc
       -0.11377458 0.082752444 0.00843235 -0.01123336
0001c0 ea ca 1a 3d 4d 27 a7 3d a9 39 49 be ee 34 11 3e
       0.03779117 0.08161793 -0.19650902 0.14180347
0001d0 d3 2d 4c 3d 76 6e 74 3e ef 7f 10 bc ca c3 f7 bc
       0.04984839 0.23870263 -0.008819564 -0.030244727
0001e0 30 80 65 bc 35 32 c5 bd d4 3e dd bd 3e 63 bb 3d
       -0.014007613 -0.09628717 -0.10802999 0.09149788
0001f0 49 9e f4 bd 9e 3d ba 3e c8 8a b3 3e 48 f4 08 be
       -0.11944253 0.36375135 0.3506682 -0.13374436
000200 43 60 93 3c 0e b0 70 bd 3f 33 88 be 22 56 0a bd
       0.017990237 -0.05876165 -0.26601598 -0.03377355
000210 66 6e c3 3d 08 0b dc bc 34 96 17 3e e5 9f 8c 3d
       0.09542541 -0.026860729 0.14803392 0.06866435
000220 14 54 1c bd 0b b2 18 3e cd b4 13 3e c8 ec 50 3d
       -0.03816612 0.14911668 0.14424439 0.051007062
000230 f4 f3 73 be e1 11 6d bd 96 98 d0 bb 04 a8 03 3e
       -0.2382353 -0.05787838 -0.006365846 0.12857062
000240 61 f2 c0 bd 30 8b 0c 3e eb db 8e 3d 90 5c 33 3e
       -0.0942123 0.13724971 0.0697554 0.17515779
000250 b7 4c 14 3e 2b 19 28 3e 37 28 26 bd cd 5c 3a be
       0.1448239 0.16415851 -0.040565696 -0.18199463
000260 80 bc 5d 3c ab a7 19 3c b7 47 5c 3b 76 4e 09 3d
       0.013533711 0.009378354 0.0033612081 0.03352209
000270 d7 d1 9c be de ad db bd 80 61 1f 3e a7 90 8c bb
       -0.30628845 -0.10726522 0.15564537 -0.004289705
000280 38 15 f3 bd 30 4d fe bd a4 93 af bd 3d 60 32 bd
       -0.118692815 -0.12417066 -0.08573082 -0.04354881
000290 95 ce 5a be c6 10 25 be 8f 14 6c bd c7 f6 ef be
       -0.21367867 -0.1611968 -0.057636794 -0.46867964
0002a0 79 44 7c 3d 4b a0 6e bd 15 99 28 3e 5e 44 3b be
       0.061588738 -0.058258336 0.16464646 -0.18287799
0002b0 79 92 a2 bc 76 5c a0 3d 31 a0 63 be 25 b9 2e be
       -0.019845234 0.078301355 -0.22229077 -0.17062815
0002c0 b5 73 14 be 3f 58 c6 bd f0 81 e4 3d 9a d2 a1 bd
       -0.14497264 -0.096848 0.11157596 -0.07901497
0002d0 6e 86 3e bd d1 a3 09 be 40 83 fd bd aa a0 8f be
       -0.04651492 -0.13441397 -0.123785496 -0.28052264
0002e0 e8 02 cc be 1b 18 69 3e 3b 9c 0f bd dd 01 77 be
       -0.39845967 0.22763102 -0.035061102 -0.24121805
0002f0 04 89 f2 3d 55 78 d7 3d 65 fb 44 be 73 96 14 be
       0.1184254 0.105209984 -0.19236524 -0.14510517
000300 bf 76 10 be 0f 83 b7 3d d9 bf 1d 3d ee cc 38 be
       -0.14107798 0.08960544 0.03851304 -0.18046924
000310 94 90 4c bc 28 cf 54 be 67 bd c7 bd a4 22 cc bd
       -0.012485642 -0.20782149 -0.097529225 -0.09967545
000320 8b c5 0e 3e f7 95 c0 bd 51 de 99 bd 85 90 80 bd
       0.13942544 -0.094036035 -0.075131066 -0.06277565
000330 f2 c3 46 3e d9 22 dc bc 5b 85 87 3e 3c 7b 74 3e
       0.19410685 -0.026872085 0.2646893 0.23875135
000340 5e 29 8d be 56 e6 12 be 32 d1 82 be 41 fc 90 3e
       -0.27570623 -0.14345679 -0.25550228 0.28317454
000350 eb b4 94 bb 51 6b 14 bd 59 0c be 3e fb e2 1b bd
       -0.0045381687 -0.036235157 0.37118796 -0.038058262
000360 da d6 2b bd 21 a6 2d 3d 01 2e 50 be d5 2f 9d 3e
       -0.041952945 0.04239476 -0.20330049 0.30700555
000370 97 ce 37 be 2e af 55 be 90 ac f3 3c 76 ff 74 3c
       -0.17949902 -0.20867607 0.02974537 0.014953485
000380 b8 cc 23 be a4 9e 69 3e 3f 64 67 3c c5 ff cc be
       -0.15996063 0.22814423 0.014123022 -0.40038887
000390 0d 27 47 3e 21 a3 33 be 7c d4 2f be 37 bf af 3d
       0.1944849 -0.17542697 -0.171709 0.08581393
0003a0 7a 17 c6 bd 9e 30 d1 bc c1 6e e5 3c 73 99 0e be
       -0.096724465 -0.025535878 0.028006913 -0.13925724
0003b0 59 f3 47 3e 74 ad 56 be af c5 18 3e 35 87 63 3e
       0.19526424 -0.20964605 0.1491916 0.22219546
0003c0 55 8c 84 be 91 b9 1a 3c f4 79 83 be c2 53 3b bd
       -0.25888315 0.009443657 -0.2567898 -0.045734175
0003d0 d7 2c 5f 3d c5 17 a2 3b 3b ba 8a 3e ae bb e8 bc
       0.054486122 0.004946681 0.27095208 -0.028409805
0003e0 48 70 02 3e 6c 8c c8 bc 3e 4c f5 3c b1 44 24 3c
       0.12738144 -0.02448102 0.029943582 0.010026143
0003f0 e1 f9 67 bd 99 db 72 3d bf b9 6a be e9 9b 4d 3e
       -0.056634787 0.059291456 -0.22922419 0.20079006
