baseline/ckpt/yelp-5/model-42.pt (torch, 82744 bytes, 1 tensors)

roberta.embeddings.word_embeddings.new_embed.weight f4 [20, 1024]
0	0x3d580ea8	0.052748352
1	0xbdb0de61	-0.086361654
2	0x3e25a4d1	0.16176154
3	0x3d00df73	0.031463098
4	0xbd304bed	-0.04304116
5	0x3d92bdfb	0.07165142
6	0xbdc8ce8a	-0.09805019
7	0xbe881d99	-0.2658508
8	0xbcabc4f8	-0.020967945
9	0x3c4df6fd	0.012571094
10	0xbddb9faa	-0.10723813
11	0xbe2a7cc1	-0.16649152
12	0x3df7e5c2	0.1210437
13	0x3eb1d081	0.34729388
14	0xbd9ccaea	-0.0765589
15	0xbe07dd2b	-0.13267963
16	0xbeb118fa	-0.34589368
17	0x3dae53ae	0.085120544
18	0xbd7da1a0	-0.061921716
19	0xbe8a8081	-0.27051166
20	0x3ec9ec0f	0.3943791
21	0x3cf46b29	0.029836254
22	0x3d9c6fc6	0.076385066
23	0x3eb7a1f7	0.35865757
24	0x3e56ea2f	0.20987771
25	0xbe79d657	-0.2439817
26	0x3e9e3836	0.3090226
27	0xbe81d3ce	-0.25356907
28	0x3c6e1770	0.014531955
29	0xbe2c9442	-0.16853431
30	0x3d8a6f84	0.06759551
31	0xbd0bd5fd	-0.034139622
32	0x3e1cedb5	0.15325053
33	0xbed1868e	-0.4092297
34	0x3e8284d7	0.25491974
35	0x3eb7aaa5	0.3587238
36	0x3dc8ab83	0.09798338
37	0xbe3a2d62	-0.18181375
38	0xbe220dd1	-0.15825583
39	0xbec7ab4a	-0.3899787
40	0x3e9369de	0.28791708
41	0xbe4516e3	-0.19247012
42	0x3e9f153b	0.31070885
43	0x3db20ba8	0.086936295
44	0xbea0b3ec	-0.3138727
45	0xbe116433	-0.14198379
46	0xbd6eb2b6	-0.0582759
47	0xbe2ffe62	-0.17186883
48	0x3e3dc447	0.18531905
49	0xbde650a4	-0.1124585
50	0xbdd41c20	-0.10356927
51	0x3d953a7c	0.07286546
52	0x3e2ec980	0.17069054
53	0xbcc47cf8	-0.023985371
54	0xbe27c65c	-0.16384262
55	0x3e1d9b66	0.15391311
56	0xbdff36ae	-0.12461601
57	0xbe50c4af	-0.20387529
58	0xbdeb4053	-0.11486878
59	0xbcef2df4	-0.029196717
60	0xbe8b57f8	-0.27215552
61	0x3e00b5f1	0.12569405
62	0xbd707653	-0.058706593
63	0x3d2fb641	0.04289842
64	0x3e842f5f	0.2581739
65	0xbe788f22	-0.24273351
66	0x3ef02192	0.46900612
67	0xbbcdd602	-0.0062816152
68	0x3df80306	0.12109952
69	0x3e67cbf9	0.22636403
70	0x3e0efaee	0.1396291
71	0x3e13b895	0.14425881
72	0xbeaabe21	-0.33348182
73	0xbe32305f	-0.17401265
74	0x3d53653e	0.051610224
75	0xbd86fba6	-0.06590967
76	0xbdf0975e	-0.11747621
77	0x3e09e27e	0.13465306
78	0x3dab3554	0.08359781
79	0x3e41f0a8	0.1893946
80	0xbe5d2125	-0.21594675
81	0xbe080644	-0.1328364
82	0xbd05b643	-0.03264452
83	0x3d13f089	0.036118064
84	0xbdc4186a	-0.09574969
85	0xbdfe1814	-0.12406936
86	0xbe713522	-0.23555425
87	0xbd879d55	-0.066218056
88	0xbed24a00	-0.41072083
89	0xbd8b8bc5	-0.06813768
90	0xbe48677d	-0.19570728
91	0x3e01ffa0	0.1269517
92	0x3ca8df59	0.020614313
93	0xbe8458ed	-0.25849095
94	0x3dda6f9b	0.10665818
95	0x3daaa40e	0.08332072
96	0x3e4dfafa	0.20115271
97	0xbe41da56	-0.18930945
98	0x3dd4d6b0	0.10392511
99	0xbe4f462c	-0.20241612
100	0xbd288e05	-0.041151065
101	0x3d3b41db	0.0457171
102	0x3d0bde97	0.034147825
103	0x3d51ddec	0.05123703
104	0x3d8c3659	0.068463035
105	0x3ebf24da	0.37332803
106	0x3e48fc25	0.19627436
107	0x3e90b858	0.28265643
108	0xbe4c3f0f	-0.1994593
109	0x3d2fc641	0.04291368
110	0xbec9d010	-0.39416552
111	0xbe80ca25	-0.25154224
112	0x3e2b032b	0.16700427
113	0x3dfd3b0f	0.1236478
114	0xbc845d43	-0.016157752
115	0x3dd218c6	0.102586314
116	0x3e0af520	0.1357007
117	0xbcb70896	-0.022342961
118	0x3e8c9912	0.27460533
119	0xbe2a11d4	-0.16608363
120	0x3e48078f	0.19534133
121	0xbeaff9e8	-0.3437035
122	0x3e48db22	0.19614843
123	0xbd0dbde5	-0.034604926
124	0x3e685e4c	0.22692221
125	0x3e533d6e	0.20628902
126	0x3e3d76ff	0.18502425
127	0x3eab81cd	0.33497468
128	0x3ea63956	0.3246562
129	0x3e4f1483	0.20222668
130	0xbecd9df2	-0.40159565
131	0xbc0d351b	-0.008618618
132	0x3dfada27	0.122486405
133	0xbda88806	-0.082290694
134	0x3e905b2a	0.28194553
135	0x3d7ecbd5	0.062206108
136	0xbdaa7770	-0.08323562
137	0x3b875394	0.0041298363
138	0x3cb6c15d	0.022309
139	0xbdb33c77	-0.08751767
140	0xbda479ec	-0.08031067
141	0x3ea2331b	0.31679615
142	0x3d5d3286	0.05400326
143	0x3d760bb0	0.06006974
144	0xbe2c91e5	-0.1685253
145	0xbe8e3628	-0.27775693
146	0xbeaf344e	-0.34219593
147	0x3d739ef3	0.059477758
148	0x3e42f46a	0.19038549
149	0x3d625207	0.05525401
150	0x3de8d78f	0.113692395
151	0x3e109f9e	0.14123389
152	0xbe94383b	-0.2894915
153	0xbe90244e	-0.28152698
154	0xbebf4705	-0.3735887
155	0x3e1d9050	0.15387082
156	0x3dae3d25	0.08507756
157	0x3d5a0276	0.053225003
158	0xbd0dd0d5	-0.034622986
159	0x3e0e8950	0.13919568
160	0x3e38f2f9	0.18061437
161	0xbe8e5381	-0.27798083
162	0x3eca0c42	0.39462477
163	0xbcd31306	-0.025765907
164	0xbe5d84a0	-0.21632624
165	0xbed8d454	-0.42349494
166	0xbf006027	-0.50146717
167	0x3e2f7968	0.17136157
168	0xbca6a57f	-0.020342587
169	0x3e6aa32a	0.22913805
170	0xbde685a7	-0.11255961
171	0x3e19d070	0.15020919
172	0x3c232b61	0.009959073
173	0xbe533fcd	-0.20629807
174	0x3dbc4158	0.09192151
175	0xbdd6dfac	-0.10491881
176	0xbe5bc8ee	-0.21463367
177	0xbd0b1374	-0.0339541
178	0xbdf9dc0e	-0.12200175
179	0xbe080c83	-0.13286023
180	0xbe8fefea	-0.28112727
181	0xbd592850	-0.05301696
182	0xbdec78e3	-0.11546495
183	0xbe0abf0b	-0.1354944
184	0x3dd2931c	0.10281965
185	0x3e6e7d24	0.23289925
186	0x3da86279	0.08221907
187	0xbdce8f59	-0.10085935
188	0x3e30d2f0	0.17267966
189	0x3eadab21	0.33919623
190	0xbe74bdb2	-0.23900488
191	0xbe5ab2a8	-0.21357214
192	0xbce56c78	-0.028005823
193	0x3e8eeb18	0.27913737
194	0x3cfc852e	0.030825224
195	0xbd89b4ea	-0.0672396
196	0xbe09b64e	-0.1344845
197	0xbe929d1a	-0.28635484
198	0xbd805cb0	-0.06267679
199	0x3e53be75	0.20678122
200	0x3ef26a37	0.4734666
201	0xbdb7a341	-0.08966685
202	0xbe4b0bb4	-0.19828683
203	0xbeb40e7a	-0.35167295
204	0x3d8ea9ef	0.06966006
205	0x3d2016f7	0.0390844
206	0x3b36ba3c	0.0027882
207	0x3c261b32	0.01013832
208	0xbe96a851	-0.2942529
209	0xbcf8e8c4	-0.030384429
210	0xbe72a127	-0.23694287
211	0x3d8f781b	0.0700533
212	0x3dfe248e	0.12409316
213	0xbe305cbe	-0.17222878
214	0x3e7f5334	0.24934083
215	0xbe9dcd57	-0.30820724
216	0xbbddaddd	-0.006765111
217	0xbe9cf235	-0.3065354
218	0xbeaf8019	-0.34277418
219	0xbd96f6c6	-0.07371287
220	0xbe362b6d	-0.17790003
221	0x3e164b45	0.1467715
222	0xbe214b9e	-0.15751502
223	0xbb17114e	-0.0023051086
224	0x3e772957	0.24136864
225	0xbe9931b5	-0.29920736
226	0xbe193142	-0.14960197
227	0xbd4282ec	-0.047488138
228	0x3de5ccb1	0.112206824
229	0xbd8aa491	-0.0676967
230	0xbe0c545e	-0.13704059
231	0xbd3f8690	-0.04675919
232	0xbe02016b	-0.12695853
233	0xbd93c48f	-0.07215225
234	0x3d615373	0.055011224
235	0x3d0f414c	0.03497438
236	0xbe846bcf	-0.258635
237	0xbe68ef92	-0.22747639
238	0xbd8a68ae	-0.06758247
239	0x3d815e9c	0.063168734
240	0xbec75f6c	-0.3893999
241	0x3e1929a3	0.1495729
242	0xbc2c7ede	-0.010528294
243	0xbed61f23	-0.4182063
244	0xbc9007e9	-0.017581897
245	0xbba5a324	-0.0050548483
246	0xbdf8468c	-0.12122831
247	0x3d9f4377	0.0777654
248	0xbed3d452	-0.41372925
249	0xbd3683ed	-0.044559408
250	0xbd8490fa	-0.064729646
251	0x3e3b3493	0.18281774
252	0xbe542c8e	-0.20720121
253	0x3d5e1c71	0.054226343
254	0xbe3a1480	-0.18171883
255	0xbdb2271a	-0.08698864
