baseline/ckpt/yelp-5/model-87.pt (torch, 82744 bytes, 1 tensors)

roberta.embeddings.word_embeddings.new_embed.weight f4 [20, 1024]
0	0xbe14f905	-0.14548118
1	0x3c9f0223	0.019410199
2	0xbea3825a	-0.31935388
3	0xbe0b489e	-0.1360192
4	0x3dcdcaf0	0.10048473
5	0x3cb10347	0.021608008
6	0x3ced7132	0.02898464
7	0x3e4f27a9	0.20229973
8	0xbdea6879	-0.11445708
9	0xbdc37290	-0.095433354
10	0x3e0150f5	0.12628539
11	0x3c538287	0.012909538
12	0x3e0f9c70	0.1402452
13	0x3e914043	0.2836934
14	0xbe144b35	-0.14481814
15	0xbd8c7cc1	-0.068597324
16	0xbe08e35f	-0.13367985
17	0x3d05408f	0.03253227
18	0xbd0f8e39	-0.035047743
19	0xbcbce57b	-0.023058644
20	0x3ce9c65a	0.028536964
21	0xbe2ffbfb	-0.17185967
22	0xbea62673	-0.3245121
23	0x3e591180	0.21198082
24	0x3c924c12	0.017858539
25	0x3dbcb020	0.09213281
26	0xbdaae310	-0.0834409
27	0x3d3307b3	0.043708514
28	0x3e59e4d0	0.21278691
29	0xbe0a7fff	-0.13525389
30	0x3d7f7659	0.062368724
31	0xbe865517	-0.26236793
32	0x3e076604	0.1322251
33	0xbe34a552	-0.1764119
34	0xbe998952	-0.2998758
35	0xbda11b7f	-0.078665726
36	0xbe5af932	-0.21384123
37	0x3db50bce	0.08840142
38	0xbce269f7	-0.027638419
39	0xbb7be698	-0.0038437005
40	0x3e14c5b2	0.1452854
41	0x3e129000	0.14312744
42	0x3d734282	0.0593896
43	0x3dff5ebd	0.12469242
44	0xbef08504	-0.46976483
45	0xbe32ccdc	-0.1746096
46	0xbee84eca	-0.4537261
47	0xbdc8d24a	-0.098057345
48	0x3ecab370	0.39590025
49	0x3ecb92f7	0.39760563
50	0xbd19156b	-0.03737394
51	0xbda2b51c	-0.079447
52	0xbe93c450	-0.28860712
53	0x3e9aa22f	0.3020186
54	0x3ae20bcf	0.0017245951
55	0xbe1cd192	-0.1531432
56	0xbe79889c	-0.24368519
57	0x3e71d2b3	0.23615532
58	0xbe50ac37	-0.20378195
59	0xbd6bdda8	-0.057584435
60	0x3dde782f	0.10862767
61	0x3e655888	0.22397053
62	0x3dac4a3f	0.08412599
63	0x3e3d1097	0.1846336
64	0x3d51e1d0	0.051240742
65	0x3e08eaba	0.13370791
66	0x3d35dc47	0.044399526
67	0xba6a4a0c	-0.00089374254
68	0x3ec7d5d6	0.3903033
69	0x3cfa7b1a	0.030576278
70	0xbea5df82	-0.32397085
71	0x3ec15f3d	0.37767974
72	0xbd73b19e	-0.05949556
73	0x3dd2a03e	0.1028447
74	0x3e956440	0.29178047
75	0x3e3a1227	0.18170987
76	0x3e077be3	0.13230853
77	0x3e294bc0	0.16532803
78	0xbe722578	-0.23647106
79	0xbd30a979	-0.04313037
80	0xbd8fac7a	-0.07015319
81	0x3e0c5866	0.13705596
82	0xbd11533d	-0.035479773
83	0x3e7a0783	0.24416928
84	0x3e8e64fb	0.27811417
85	0xbd5ac11d	-0.053406823
86	0xbeb9836b	-0.36233076
87	0x3e22a634	0.15883714
88	0x3c732e6f	0.014842614
89	0x3debf7aa	0.115218475
90	0xbee8adcf	-0.45445105
91	0xbe231d5b	-0.15929167
92	0x3e5781e2	0.2104564
93	0xbe1ff5f0	-0.15621161
94	0xbe3045c4	-0.17214113
95	0xbc524f0b	-0.012836228
96	0x3e96a885	0.29425445
97	0x3caf5ec8	0.0214075
98	0xbc9937eb	-0.018703422
99	0x3d519383	0.05116607
100	0x3ea41918	0.32050395
101	0xbe08e73c	-0.13369459
102	0xbe80186e	-0.25018638
103	0xbe85a8a5	-0.26105228
104	0xbe3a6edb	-0.1820635
105	0x3e6a6944	0.22891718
106	0x3e8a79cc	0.2704605
107	0x3e6143d7	0.21998535
108	0xbea56d39	-0.32309893
109	0x3c847041	0.016166808
110	0xbd6b14a0	-0.057392716
111	0xbf059541	-0.5218087
112	0x3e7faff7	0.24969469
113	0x3a27f67b	0.0006407273
114	0xbe9bb53b	-0.30411705
115	0xbdddd7ed	-0.108322
116	0x3d03e73d	0.032202948
117	0x3da0ffc6	0.07861285
118	0xbd1e5ad0	-0.038660824
119	0xbe57473c	-0.21023268
120	0x3db5d9e9	0.08879454
121	0xbe101d2e	-0.14073631
122	0xbebf6b2b	-0.3738645
123	0x3d5b31be	0.053514235
124	0x3d2ad049	0.041702542
125	0x3e927336	0.28603524
126	0x3e3c038b	0.18360727
127	0xbcb41869	-0.021984296
128	0x3dca09ac	0.09865126
129	0xbca1abda	-0.019735266
130	0xbe01af70	-0.1266458
131	0x3e6b0d70	0.22954345
132	0x3e328bc5	0.1743613
133	0x3e0b3c76	0.13597283
134	0xbe3db4b5	-0.18525966
135	0x3e99d326	0.30043906
136	0xbda69372	-0.08133592
137	0x3e0cc0b1	0.13745381
138	0xbec9a077	-0.39380237
139	0x3b460060	0.0030212626
140	0xbe5fa481	-0.21840097
141	0x3e89b35c	0.26894653
142	0x3e19d007	0.15020762
143	0x3c75d561	0.015004487
144	0xbd4373c1	-0.047717813
145	0x3d942071	0.0723275
146	0xbea7b748	-0.3275702
147	0x3e21bf47	0.15795623
148	0x3e23777e	0.15963551
149	0x3ea7ee6c	0.3279909
150	0x3d32a7c3	0.04361702
151	0xbce12eb6	-0.027488094
152	0xbe3a4a44	-0.18192393
153	0x3e3520c4	0.1768828
154	0x3ce87804	0.02837754
155	0xbe3c7fe0	-0.18408155
156	0xbd8b8169	-0.068117924
157	0xbd990e3d	-0.07473419
158	0x3d0ea6ef	0.03482717
159	0xbe171f76	-0.14758095
160	0x3d72f905	0.059319515
161	0xbe870f70	-0.26378965
162	0x3da99ad0	0.08281481
163	0xbea58939	-0.32331255
164	0xbe05a47b	-0.13051026
165	0xbea3c5f6	-0.3198697
166	0xbe340f27	-0.17583905
167	0x3cc7602a	0.024337847
168	0xbd716ad0	-0.058939755
169	0xbe38d9e5	-0.1805187
170	0x3eaaaa70	0.33333158
171	0x3e48c7e5	0.19607504
172	0x3eafb6af	0.34319064
173	0xbc272724	-0.010202203
174	0xbe6637e5	-0.2248226
175	0xbea661cb	-0.32496485
176	0xbdd76c1e	-0.105186686
177	0xbe668b31	-0.22514035
178	0x3e3d15e9	0.1846539
179	0x3dfe61fe	0.12421034
180	0x3e22b8d8	0.15890825
181	0x3e4e56bc	0.20150274
182	0xbd43f636	-0.047842227
183	0xbe33df0f	-0.17565559
184	0x3b177871	0.002311256
185	0xbdee27a9	-0.11628658
186	0x3ef96a08	0.48713708
187	0xbdaf0cdc	-0.085473746
188	0xbcd7bff7	-0.026336653
189	0xbcae526d	-0.021279538
190	0xbe8fce25	-0.28086963
191	0x3e141a41	0.1446314
192	0x3d9b7062	0.07589795
193	0x3dc9ca50	0.09853041
194	0xbdb591e7	-0.08865719
195	0xbd3b66b6	-0.04575225
196	0xbe66cfcb	-0.22540204
197	0xbec35a49	-0.3815482
198	0xbc888ec2	-0.016669635
199	0xbe71b3a2	-0.2360368
200	0xbd2fc282	-0.042910106
201	0x3e3cfdb1	0.1845615
202	0x3e09c8cd	0.13455506
203	0x3cb3d003	0.021949774
204	0x3e4d5972	0.20053652
205	0x3d4b2628	0.049596936
206	0x3e4f5a20	0.20249224
207	0x3dc5fdc3	0.09667542
208	0x3d4b0dc3	0.04957367
209	0x3d900d3f	0.070337765
210	0xbea34a7c	-0.31892765
211	0xbd1c1ea9	-0.038115177
212	0xbec416f1	-0.38298753
213	0x3d407526	0.04698672
214	0x3e639d64	0.22228009
215	0xbeb425be	-0.35185045
216	0xbe4eb664	-0.20186764
217	0xbc9eae31	-0.01937017
218	0x3b277af1	0.0025555457
219	0x3d3a79f1	0.04552645
220	0xbd885858	-0.06657475
221	0xbdaba240	-0.08380556
222	0xbc252c8c	-0.010081422
223	0x3d779bb9	0.060451243
224	0x3df1c2ba	0.11804719
225	0x3e24826f	0.16065381
226	0xbe0fbe5a	-0.14037457
227	0xbe8123c4	-0.252226
228	0x3f2d76e6	0.6775955
229	0xbd298755	-0.04138883
230	0xbd3a2339	-0.045443747
231	0xbe689b63	-0.22715525
232	0x3ddf21b7	0.108951025
233	0x3e194f5f	0.14971684
234	0x3de61e3b	0.11236235
235	0x3da05b7e	0.07829951
236	0xbe4947cf	-0.19656299
237	0x3d02db24	0.03194727
238	0xbe2eaec7	-0.1705886
239	0x3e1695b6	0.14705548
240	0xbe1ef82d	-0.15524359
241	0xbd074e8d	-0.033033896
242	0xbe87ba96	-0.2650954
243	0xbeb50b43	-0.35360155
244	0x3e62241b	0.22084086
245	0xbd1be471	-0.038059656
246	0xbd10b209	-0.035326038
247	0x3ad1768e	0.0015980767
248	0xbe130f5f	-0.14361332
249	0xbdda584c	-0.106613725
250	0xbda0dc01	-0.078544624
251	0x3ea601d7	0.3242328
252	0xbe05794c	-0.13034552
253	0xbd931c11	-0.071830876
254	0xbd7c1221	-0.061540727
255	0x3e1c8ce8	0.15288126
