baseline/ckpt/agnews/model-42.pt (torch, 82744 bytes, 1 tensors)

roberta.embeddings.word_embeddings.new_embed.weight f4 [20, 1024]
0	0xbde00ec7	-0.109403186
1	0xbdde79ae	-0.10863052
2	0xbde171b1	-0.11008013
3	0xbec4ef5b	-0.38463864
4	0x3b8add65	0.004237818
5	0x3e127a5e	0.14304492
6	0x3defa197	0.11700743
7	0xbca44e37	-0.020056827
8	0xbd3a7cb8	-0.045529097
9	0xbd5af320	-0.05345452
10	0xbec41e7b	-0.38304505
11	0xbe69fef4	-0.22851163
12	0xbce39933	-0.027783012
13	0xbd114668	-0.035467535
14	0x3d206aa3	0.039164197
15	0xbdb8087c	-0.08985993
16	0xbd6fa272	-0.05850453
17	0xbdc0b0f2	-0.0940875
18	0xbd97efe2	-0.07418801
19	0x3dcf4ab0	0.101216674
20	0xbeb617dd	-0.3556508
21	0xbd03ad26	-0.03214755
22	0x3e4fc73c	0.20290846
23	0x3e382db0	0.17986178
24	0xbe7e2ec2	-0.24822524
25	0x3e3744b5	0.17897303
26	0x3e689cad	0.22716017
27	0x3d4607ab	0.048347156
28	0xbe0abbb7	-0.1354817
29	0xbe0041cc	-0.125251
30	0xbe0c3a56	-0.13694128
31	0xbeaa6737	-0.33281872
32	0xbc2f49f4	-0.010698784
33	0xbe9c9970	-0.30585814
34	0x3e272294	0.16321784
35	0xbdb3ace8	-0.087732136
36	0x3d33b3a3	0.043872487
37	0xbe545fad	-0.20739622
38	0x3e212173	0.15735416
39	0xbe6f1c51	-0.23350646
40	0x3da8691f	0.08223175
41	0x3d8a0e9a	0.06741066
42	0xbe8844f6	-0.26615113
43	0xbd604618	-0.054754347
44	0xbe2e44dd	-0.17018457
45	0xbde395c0	-0.11112547
46	0xbe012f94	-0.12615806
47	0xbd499fd0	-0.049224675
48	0xbdc2dabf	-0.09514379
49	0x3ddf9c09	0.10918433
50	0xbda52238	-0.08063167
51	0x3e096e2c	0.13420933
52	0x3c4bda1c	0.012442138
53	0xbccccd52	-0.025000248
54	0x3d2f2ccc	0.04276733
55	0xbcfa332e	-0.030541983
56	0xbe71a268	-0.2359711
57	0xbe6513c5	-0.22370823
58	0x3e3fab8b	0.18717782
59	0xbe296130	-0.1654098
60	0x3dc6dec3	0.09710457
61	0x3e27ef70	0.16399932
62	0xbb7649d3	-0.0037580624
63	0xbd8bbc34	-0.06823006
64	0x3e09ca36	0.13456044
65	0x3cd784e5	0.026308486
66	0xbb87e426	-0.0041470705
67	0x3dbc52e0	0.09195495
68	0x3e963ccd	0.29343262
69	0xbdb42753	-0.08796563
70	0x3e98210a	0.29712707
71	0x3ea96207	0.330826
72	0xbef5d703	-0.48015603
73	0xbdb4a47f	-0.08820438
74	0xbe3cc19e	-0.18433234
75	0xbdec7ac0	-0.1154685
76	0x3d9dd4ba	0.0770659
77	0x3e2957d0	0.16537404
78	0x3df4a2f9	0.11945147
79	0x3eb7d1cc	0.3590225
80	0xbd8a0b7a	-0.0674047
81	0xbd8fdf2f	-0.07024991
82	0x3df23306	0.11826138
83	0x3db5b87a	0.08873077
84	0xbe095115	-0.13409837
85	0x3d810a57	0.063008
86	0x3e1c89f5	0.15287001
87	0x3e5a3d8b	0.2131254
88	0xbec8ca7c	-0.39216983
89	0xbec1a795	-0.37823167
90	0xbe8d5253	-0.2760187
91	0xbe305ee1	-0.17223693
92	0xbe97b879	-0.2963293
93	0xbd28805e	-0.041138045
94	0xbda608de	-0.0810716
95	0xbe397e2e	-0.1811454
96	0x3e702a6c	0.23453683
97	0x3e00d42c	0.12580937
98	0xbd40ed33	-0.04710121
99	0xbe15f980	-0.14645958
100	0xbe203ec6	-0.15648946
101	0xbe15ccab	-0.14628856
102	0xbc82bde1	-0.015959682
103	0x3e7569d5	0.23966153
104	0x3cf9bd15	0.03048567
105	0x3e66fd29	0.2255751
106	0xbe555ebe	-0.20836923
107	0x3c4c77dd	0.0124797495
108	0xbe2305aa	-0.1592013
109	0x3ccb5787	0.02482201
110	0xbe63ad35	-0.22234042
111	0xbe92e357	-0.28689072
112	0xbd01cd7a	-0.0316901
113	0x3ec4f703	0.38469705
114	0xbda4955c	-0.080363005
115	0x3e93b01d	0.288453
116	0x3e9d8eb7	0.30772945
117	0xbd62b667	-0.055349734
118	0x3e85aa49	0.2610648
119	0xbd198fa9	-0.03749052
120	0xbd3dc6f7	-0.046332326
121	0xbd7a6dcf	-0.061139878
122	0xbd5a4de3	-0.053296935
123	0xbe46adae	-0.19402191
124	0xbec21e95	-0.37913957
125	0x3dbebe0a	0.09313591
126	0x3ee70040	0.45117378
127	0x3e193253	0.14960603
128	0x3e4ba2b8	0.19886291
129	0x3e1dc369	0.15406574
130	0x3e62dcf4	0.221546
131	0x3e1728d0	0.14761662
132	0xbc2ea256	-0.010658821
133	0xbe17abc4	-0.14811617
134	0x3d8fa057	0.07013004
135	0xbbe8d4a7	-0.0071054283
136	0xbe5471ab	-0.20746486
137	0x3e2b635d	0.16737123
138	0x3dc15d71	0.09441651
139	0x3e78f425	0.24311884
140	0x3e051a27	0.12998258
141	0xbe386d71	-0.18010499
142	0xbd232d80	-0.039838314
143	0xbd95541c	-0.07291433
144	0xbe1d574a	-0.1536533
145	0xbb905d72	-0.004405671
146	0xbd138441	-0.0360148
147	0x3d0e3715	0.0347205
148	0x3e12ebf1	0.14347817
149	0x3e179bf2	0.14805582
150	0xbdbb1f4e	-0.0913683
151	0xbe00c570	-0.12575316
152	0xbd9cc3e5	-0.076545514
153	0xbdb6397e	-0.088976845
154	0xbe7b88e8	-0.24563944
155	0xbda9b6a4	-0.08286789
156	0x3d95c2f2	0.073125735
157	0xbe5e97bc	-0.2173757
158	0xbe40ddd7	-0.18834625
159	0xbe885dd3	-0.26634082
160	0xbbd021bb	-0.0063516772
161	0xbeadaf86	-0.33922976
162	0xbe57e811	-0.2108462
163	0xbd6a6640	-0.05722642
164	0xbdb8e176	-0.09027378
165	0xbbeba685	-0.0071914815
166	0xbe353a88	-0.17698109
167	0x3e515c79	0.20445432
168	0xbe602cc5	-0.21892078
169	0x3e7e689c	0.24844593
170	0xbb402f95	-0.0029325236
171	0x3e1201fc	0.1425857
172	0x3d839cec	0.06426415
173	0xbda4536d	-0.08023725
174	0xbde55495	-0.11197773
175	0xbddfe95b	-0.10933181
176	0xbe1c187d	-0.15243717
177	0xbd256ed2	-0.04038889
178	0xbe2a29d7	-0.16617523
179	0xbee42a1f	-0.44563386
180	0xbe077aa7	-0.13230382
181	0xbde0465b	-0.10950919
182	0xbe2d3046	-0.16912946
183	0xbdaf23b0	-0.08551729
184	0xbe98e569	-0.29862526
185	0x3de061b1	0.10956133
186	0x3e5285dc	0.20558876
187	0xbf000ea8	-0.50022364
188	0xbde8b25f	-0.113621466
189	0xbc3d38bb	-0.01154917
190	0x3e169fb5	0.14709361
191	0x3d14effe	0.036361687
192	0x3dc4b181	0.09604169
193	0x3ebb07f0	0.36529493
194	0x3e45c555	0.19313557
195	0x3e37ce72	0.17949846
196	0xbe1e5d99	-0.15465392
197	0x3d7b71cb	0.06138782
198	0xbe4bccff	-0.19902419
199	0x3c358e55	0.011081298
200	0xbd16bf7c	-0.036803707
201	0x3e964f46	0.29357356
202	0xbd27eac4	-0.040995374
203	0x3e04d9db	0.1297373
204	0x3e0f4e57	0.13994728
205	0xbe393948	-0.18088257
206	0xbe0af32d	-0.13569327
207	0x3de350ff	0.11099433
208	0x3d433057	0.047653522
209	0x3e32bee4	0.17455631
210	0xbe7810a3	-0.24225096
211	0x3df2d74c	0.11857471
212	0x3dfacc76	0.12246029
213	0x3d67fcbc	0.05663751
214	0x3dbe94e9	0.09305746
215	0xbd9c822c	-0.07642016
216	0x3ecf7dfd	0.4052581
217	0x3e1be4fe	0.15224072
218	0xbe2e989b	-0.17050402
219	0xbd92c6e5	-0.07166842
220	0x3a60f8b5	0.0008581982
221	0x3e880395	0.26565233
222	0xbd3f1b51	-0.04665691
223	0xbe80b9f2	-0.25141865
224	0x3e9dca8f	0.30818602
225	0xbdb417f0	-0.08793628
226	0x3dfe4ca2	0.1241696
227	0x3e868309	0.26271847
228	0xbe0dd32d	-0.13850088
229	0x3d8dfe2a	0.069332436
230	0xbded547e	-0.11588381
231	0xbdf2e1fa	-0.11859508
232	0xbded1573	-0.11576357
233	0x3dc469b4	0.09590474
234	0x3db93c77	0.09044736
235	0x3ec214a0	0.3790636
236	0x3e3a6c1b	0.18205301
237	0xbd7b0159	-0.061280582
238	0x3aaef1e7	0.0013347239
239	0x3e38d273	0.1804903
240	0x3d78f937	0.060784545
241	0x3df4f336	0.11960451
242	0x3e053d35	0.1301163
243	0xbdfec543	-0.124399684
244	0xbea35764	-0.3190261
245	0xbd676ee8	-0.056502253
246	0x3d7c84fc	0.06165026
247	0xbe1439a4	-0.14475113
248	0xbea8493d	-0.32868376
249	0x3c3101db	0.010803665
250	0xbd90c4ec	-0.0706881
251	0x3d34e61f	0.044164773
252	0xbe8074a8	-0.25089002
253	0x3e64bdd3	0.22338037
254	0x3df6aa49	0.12044198
255	0x3deaa70e	0.114576444
