baseline/ckpt/yahoo/model-13.pt (torch, 82744 bytes, 1 tensors)

roberta.embeddings.word_embeddings.new_embed.weight f4 [20, 1024]
000000 66 49 91 3d 3e 3b 90 3d d4 e0 be be c5 68 ef 3c
       0.07094078 0.070425496 -0.37280905 0.029224763
000010 ed 40 89 3e 17 86 d1 3e 84 95 4c bd fe da 02 be
       0.26807347 0.40922615 -0.049947277 -0.12778851
000020 ac 0a 4f 3e a4 ce aa 3d 21 44 2f 3e 8b 5b ff 3d
       0.20218915 0.08340195 0.17115833 0.12468632
000030 ac bb 3c bd 46 c1 f9 bc be ac 5d bd d8 e3 1e 3e
       -0.046077415 -0.030487668 -0.054119818 0.15516603
000040 9e 5d 1d be 5d 1c 0a 3e 74 0d 3c be 57 27 6c 3d
       -0.15367743 0.13487382 -0.18364507 0.057654705
000050 d1 e9 bb bd fc 36 72 bd b4 a7 97 3d 3a 55 5b 3e
       -0.09175456 -0.05913447 0.07405034 0.2141923
000060 cf a8 28 be e7 41 2b 3e 00 9a 69 bc df 87 64 3e
       -0.16470645 0.16724358 -0.014257908 0.22317456
000070 95 8f f8 bd 6c 7c 35 3e f6 90 2d 3d e7 36 20 3e
       -0.12136761 0.17723244 0.042374574 0.15645944
000080 af 54 97 3e 5a cc 8b 3c db bb 92 bd b5 72 a2 bd
       0.29556796 0.017065216 -0.07164737 -0.07932035
000090 60 21 3e 3e 79 f5 a0 bd 0b 6c 08 3e eb 05 b8 bb
       0.18567419 -0.0785932 0.13322465 -0.00561594
0000a0 4a 9d f5 bc d6 e2 2b 3c 70 85 3b 3e a6 f9 26 3e
       -0.029982228 0.010491094 0.18312621 0.16306171
0000b0 fd 32 2b be b9 00 19 3e 9c a5 23 be 07 30 30 3e
       -0.16718669 0.14941682 -0.15981144 0.17205821
0000c0 a4 46 ab 3e ae b8 4e be ee 77 b4 3d 39 21 21 bd
       0.33452332 -0.20187637 0.08811937 -0.039338324
0000d0 1f fe 78 3d 0b 3a aa 3e 69 55 b1 be d0 21 16 be
       0.060789224 0.33247408 -0.34635475 -0.14661336
0000e0 26 3d 2b 3d 2b 2d a0 3d 99 fc 68 bd fc 33 42 be
       0.041806363 0.07821115 -0.05688152 -0.18965143
0000f0 a5 56 2f be d0 5b 74 bd 7e bc b2 be 54 df 08 bc
       -0.17122896 -0.05965787 -0.34909433 -0.008354027
000100 80 f4 a5 bc 61 70 a1 be fa fe 29 3e 83 a8 1a bc
       -0.020258188 -0.3153105 0.16601172 -0.00943959
000110 fb 65 04 3e 89 05 73 3e b1 ee e6 3d f3 0a 23 3d
       0.12929527 0.2373258 0.112759955 0.039805364
000120 e0 e3 0c 3e 8f 4d d0 3c 14 28 c8 3b 01 30 79 bd
       0.13758802 0.025427608 0.0061082933 -0.060836796
000130 1b db 34 be 7e 96 84 3e a8 5b f6 3c 4d 4c 36 3d
       -0.17661707 0.25896066 0.030073002 0.04450636
000140 ff dd 15 be 16 53 9b be 83 a0 9b 3c ce 62 cf 3d
       -0.14635466 -0.30336827 0.018997436 0.101262674
000150 a3 b9 0c 3e a1 bb 28 3e ae 07 a5 3d 56 c0 8a 3d
       0.1374269 0.16477825 0.080581054 0.067749664
000160 0b 49 12 be df cc 3b be c1 71 4b be d5 1f 78 bd
       -0.14285676 -0.18339871 -0.19867612 -0.060577232
000170 1d 46 cd bd ee 5b 1b 3e d7 49 9c be 47 f4 8e 3d
       -0.10023139 0.15171787 -0.30525085 0.06980186
000180 72 b6 93 bd 34 a6 bd bd e1 25 fc bc 08 cb 25 3e
       -0.07212533 -0.09260216 -0.03077978 0.16190732
000190 9d b7 c3 3e 8e 33 d1 bc f7 b6 95 be 32 0d 6a be
       0.38226023 -0.025537279 -0.29241154 -0.22856596
0001a0 a0 0f c1 bd f1 da 48 be 77 28 14 3e cd 0d 64 3e
       -0.09426808 -0.1961477 0.14468561 0.2227089
0001b0 b9 9a 5d be a7 e2 d2 3e b2 13 80 bd 5a 64 83 3c
       -0.21641053 0.41188547 -0.062537566 0.016039062
0001c0 6e ce 22 be 40 03 83 be 7d 8a 01 3e b2 65 21 be
       -0.15899059 -0.25588417 0.12650485 -0.1576145
0001d0 4e 21 7f 3e 7d ac 00 bd 00 02 f1 3d b2 e2 b2 3d
       0.24915048 -0.031414498 0.117679596 0.08734645
0001e0 bd d6 4e 3e db 59 2b 3d 00 64 fd 3c c1 d1 17 be
       0.20199104 0.04183374 0.030931473 -0.14826109
0001f0 a3 90 e4 bd 8a 02 44 3c 35 af 45 3e 8e 7f 87 bc
       -0.111604 0.011963496 0.19305117 -0.016540315
000200 e5 bf 10 be ac ce 0d be 1a 4c 54 be 87 fe d5 bd
       -0.14135702 -0.1384837 -0.20732155 -0.10448938
000210 de 8a 96 3d f7 59 43 3d 8c cc 33 be dc 18 d5 3e
       0.073507056 0.04769322 -0.17558497 0.4162053
000220 13 6d 9b 3d f8 a7 39 bd 6b bf 06 be 10 51 d1 bd
       0.07589164 -0.045326203 -0.13158958 -0.102205396
000230 de 85 83 3e 92 4e 77 3d 6d f3 37 bd 4e 0d b4 bd
       0.2568807 0.060377665 -0.044909883 -0.087916
000240 16 fe 05 be 8f ae a1 3e d4 9a 4f 3e ab 09 74 bb
       -0.13085207 0.3157849 0.20273906 -0.0037237208
000250 87 ad 7b 3e a9 9c 1a bd 57 69 16 3e cd 87 67 3a
       0.24577914 -0.03774706 0.14688621 0.00088321866
000260 a2 81 ee bd a1 38 81 be 72 fa 7f 3e ea c3 7b 3c
       -0.11645819 -0.25238517 0.24997881 0.015366534
000270 f3 86 ce be 10 1f 0a 3e bd e7 1e bd 19 7d 18 be
       -0.40337333 0.13488412 -0.03879522 -0.14891471
000280 c4 61 a6 bd 32 d3 87 3d 5d a3 bb bc 15 eb f5 bd
       -0.08124116 0.06632079 -0.022905046 -0.12007729
000290 1f 7c 2a be e2 7a 4b be 2d c6 95 be ca 96 36 bd
       -0.16648911 -0.19871095 -0.2925276 -0.044577397
0002a0 55 3c 52 be 91 d8 e7 3d ea 31 88 ba ac d9 ac be
       -0.20530827 0.11320604 -0.0010390852 -0.3375982
0002b0 66 f4 f3 3d b2 3f 18 3e a9 0e 31 bd f9 70 55 bd
       0.1191185 0.14868048 -0.04322687 -0.052109692
0002c0 26 01 92 b9 f7 de 8d bd 4d 4e 9f be 22 71 21 be
       -0.00027848146 -0.06927293 -0.31114426 -0.15765813
0002d0 3f e1 8d be c6 34 95 be 28 25 78 bd 8d fa c7 bd
       -0.27710912 -0.29141825 -0.06058231 -0.09764586
0002e0 12 dd f7 bd 3b 6e b1 3d 55 98 e4 3d cd f2 7e be
       -0.12102713 0.08663603 0.111618675 -0.24897309
0002f0 88 4f c5 bc b5 05 dd 3d 05 e3 47 3e 07 2d c0 bc
       -0.024085775 0.10792104 0.19520195 -0.02345897
000300 be 8c ca 3c 3b 5c 37 bd c8 85 b1 3d 65 d5 5a 3e
       0.024725314 -0.044765692 0.08668095 0.21370466
000310 93 b1 33 3e c3 fc a4 be f8 b3 ab 3d 60 8f 81 be
       0.17548208 -0.32224092 0.08383936 -0.253047
000320 c5 62 24 bd a6 df c7 3d 56 89 6f bd 89 b8 9a 3e
       -0.040133256 0.097594544 -0.058480583 0.30218914
000330 dc dc 1b be 75 10 36 be 42 d3 3a bd d2 b0 29 be
       -0.1522097 -0.17779715 -0.045611627 -0.16571358
000340 e9 28 99 be fe 6d 96 3d 6d 4e af be fe 82 bd 3c
       -0.29914024 0.07345198 -0.34239522 0.023133751
000350 6e f4 91 bd 2c 7a e9 bd 4d a5 80 3d d2 5a e4 bc
       -0.071266994 -0.114002556 0.062815286 -0.027875338
000360 02 af 20 3e c2 5c 69 3e 61 ff 97 bd f5 e5 3e 3e
       0.1569176 0.2278929 -0.074217565 0.18642409
000370 2b 64 91 3e 1a fa 28 3e 29 7e e4 bc 48 2c 46 be
       0.28396735 0.16501656 -0.02789219 -0.1935283
000380 1e ec 2a be 1c 8d a5 be 7d b8 8a 3e 1c ec 18 3d
       -0.16691634 -0.3233422 0.27093878 0.037334546
000390 13 78 3e 3e aa aa f1 3d e5 fb 3c be 90 4e 92 3e
       0.18600492 0.1180013 -0.18455465 0.28575563
0003a0 d1 26 ec be 63 cb 83 bd cb 10 ca 3d 94 49 a7 3c
       -0.46123365 -0.06435277 0.09866484 0.020420827
0003b0 e0 5e 75 bd 15 5d 2f be 85 37 fe 3d d8 04 e9 3d
       -0.059904933 -0.17125352 0.12412933 0.11377877
0003c0 6a 12 dd bd f7 57 6b 3d bb 85 52 bc da c5 b8 bd
       -0.10794528 0.057456937 -0.012849267 -0.09022112
0003d0 ff d7 cd 3d b0 9e 6f be 1a 1c b5 3e 6c d2 af be
       0.100509636 -0.23400378 0.35373002 -0.34340227
0003e0 04 1b 37 3e 90 9e 4b be da 0f 0d 3d 83 c1 59 bd
       0.178814 -0.19884706 0.034438945 -0.053163063
0003f0 a8 10 02 3e 1a a9 a3 bd 9e 32 c4 3d 0a 6c 91 3e
       0.12701666 -0.07991238 0.09579967 0.2840274
