baseline/ckpt/yahoo/model-42.pt (torch, 82744 bytes, 1 tensors)

roberta.embeddings.word_embeddings.new_embed.weight f4 [20, 1024]
00000000: 99c0 5abc 86ca 223e bccd c9bd 5f3d bdbd
00000010: 8a29 a4bc f0d0 aa3e f39c 82be f84d c9bd
00000020: b6cc 68bd 48e4 2bbe e49d 3ebe c04b 50be
00000030: 90c6 873c f96a 183e 4ebf 1ebe 5114 08be
00000040: 1b1f 27be 24a3 ce3d fba6 85be 6a00 c8bd
00000050: a787 66be 7f7b 5abe 09bf 3cbd fb3d 4f3e
00000060: 2dd0 64be 4c27 c03e 859f a23e 912e 1cbe
00000070: e4d0 54be c060 a2bd f68c 80be b2b6 39bc
00000080: bb68 113d db48 45be bc7a dc3e e66c 2e3e
00000090: f204 2c3d 25e7 a1be 4c12 cf3e 2bb1 6bbe
000000a0: 7259 c93b f267 753b 14f6 263e e971 c6bd
000000b0: b948 a8be d030 663b cabf a53d 19fd 88bd
000000c0: 883e c33d d2a0 b8bc b9db 76be 50e9 a0bd
000000d0: 57d0 7abd f3c6 54be e316 1ebd 29fe ebba
000000e0: 4f48 5cbe de01 febd 59b8 113e a901 9abd
000000f0: d45f ac3e 3da8 c2bd 11e5 ab3c 6505 3abd
00000100: f3dc 3dbd ca7c adbd fc1c c739 b6d0 90bd
00000110: 33a4 44bd 0e37 a0be 34a5 8a3e 1814 01bd
00000120: 5cef 2dbe 4344 05be f0a7 38be c66d 29be
00000130: c9fd 213d 4db8 21bd 06ff 2a3e 973b 8c3b
00000140: b152 b3be 7416 3dbe 0f86 633e 4d46 6fbd
00000150: 539f cabd 191e 3abe 9269 76be 693f 243d
00000160: aeb5 0fbe fad9 e33c b038 77be ef67 4e3d
00000170: 843b 02bd edf6 0bbe dc31 7e3a 2e0b 993e
00000180: cff7 c9bc 17c1 23be 135c 84be 74b0 96bd
00000190: f9eb 6fbc 4071 20be ef6d 53be 66a5 9f3e
000001a0: b51a 23bd 422a 493e 17d4 27be 490e b53d
000001b0: 2eeb 57be 3aa2 babd e032 143d 563a 0dbe
000001c0: 902f 3dbe 1960 633d 0eb4 bfbe e4f7 aa3e
000001d0: 4a04 733e 6892 46be e9a3 223e 3d7d 573d
000001e0: e8d9 8fbd bcdc fdbd e49a 9abe 3299 06be
000001f0: 8543 28be 17f8 f1bc 51bb 6e3d fdb4 38bd
00000200: 8a44 7b3e 2b50 d13d 409a 30bc 703d 87be
00000210: b817 203e 2ab2 69be 2211 e33c 9603 b3bc
00000220: bffe f73c 0c8e 05be a8ec 303e 5563 2abd
00000230: 01cd 2fbe c3bf 323d 1c94 c23c 5f19 dbbd
00000240: fa84 b0bd 1cd9 3cbe bbaa ba3c fa71 6cbd
00000250: 00d8 3d3e 8b81 83be 9fc6 f43d 1d73 b93d
00000260: c7b5 87be 5f14 473e c83d 86be 0f5c 813d
00000270: 1250 3abc d5b8 60bd 1319 acbe dbc2 e8bd
00000280: 5e91 07be bdea 9dbe b935 ca3c 3ea9 c4bd
00000290: 5956 1fbd d5db 12be 56af 7ebe 9828 6b3e
000002a0: b961 8fbe 7b90 d13e deb4 863c e0ea 203e
000002b0: d011 333e ef3d 78be 9af0 bbbd 317a 233e
000002c0: 98df 85be d4ef 113e c5ba 5fbe 9191 a3be
000002d0: e13b 46be 8709 f4bb 5e28 94be 00bc b8bd
000002e0: 6518 d9bd 239a 14bd 853e 493d ed25 18be
000002f0: 6c5a 50bd 03a9 463d 1031 5b3d 5aed fe3d
00000300: a205 363e 50af ad3e adc2 2fbe 4f97 19bd
00000310: 6224 11be 06d0 073d 1f54 413d 9a9d dcbd
00000320: e8d7 f83c 0cb3 693d 6b53 323e e37d 553e
00000330: 6417 833e c1af 4cbe 598b 8a3d fcf4 803d
00000340: 2adc d4bc 0e17 c63d b5fe 8abd ef74 8e3d
00000350: e782 023e 3e77 a1bd 0346 783d 51b0 3dbe
00000360: 9f24 f43d 084e 1abe ac00 a6be a3ff 8e3e
00000370: 2986 3b3e 25f6 8c3e aabc 5ebd 437f dd3d
00000380: d80f 263d abc6 33be 061c 613d 81bf 68bd
00000390: d6f0 553d e76b 433e 418b 1d3e 96ae 093e
000003a0: 7f55 f0bd ed7d 163e 9012 0bbc 70a1 f43d
000003b0: 65be 2abc 9b95 7fbe 058f 70be f2e8 07bd
000003c0: db91 ac3d 8028 953e 22f2 203e 3f1f 1ebe
000003d0: 44bd 83be dd4b 14bc f0c4 3bbd 4c4d 70bb
000003e0: 2f2d 2abe 3479 f8bd 9ff1 00bd ec2b 1a3d
000003f0: 1022 7e3b 32d1 9b3c 222a 833e 07da 3a3e
-0.013351583 0.15897569 -0.09853694 -0.09240221 -0.020039339 0.33362532 -0.25510368 -0.098293245
-0.056835853 -0.16786301 -0.18614918 -0.20341396 0.016574174 0.14884557 -0.15502664 -0.13289
-0.1632046 0.1008971 -0.26103958 -0.09765704 -0.22512685 -0.21336173 -0.046080623 0.20238487
-0.22345038 0.3752998 0.3176233 -0.15252139 -0.2078281 -0.0792861 -0.25107545 -0.011335062
0.03550027 -0.19266073 0.4306239 0.17033729 0.041996904 -0.31621662 0.40443647 -0.23016803
0.006144696 0.003744599 0.16304809 -0.096896954 -0.32867983 0.003512431 0.080932215 -0.066888995
0.09533411 -0.022537623 -0.24107255 -0.07857001 -0.061233845 -0.20779018 -0.038596045 -0.0018004823
-0.21511959 -0.124027 0.1423048 -0.07519848 0.3366686 -0.09504745 0.02098325 -0.0454153
-0.04635329 -0.08471067 0.00037977833 -0.070710585 -0.048008155 -0.31292003 0.27079165 -0.031513304
-0.1698584 -0.13014321 -0.18032813 -0.16545781 0.03954867 -0.039482404 0.16698846 0.0042795646
-0.35024026 -0.18465596 0.22219108 -0.058416653 -0.0989367 -0.18175544 -0.2406371 0.040099535
-0.14034149 0.0278139 -0.24142718 0.050392088 -0.03179504 -0.13668413 0.00096967607 0.29891342
-0.024654297 -0.15991627 -0.25851497 -0.073578745 -0.014643663 -0.15668201 -0.20647405 0.31180876
-0.03982039 0.19645026 -0.163895 0.08840615 -0.21085808 -0.091129735 0.03618133 -0.13791785
-0.18475175 0.055511568 -0.37442058 0.3339225 0.23732105 -0.19391787 0.1588284 0.05260967
-0.07023984 -0.12395617 -0.30196297 -0.13144377 -0.16432007 -0.029537244 0.058284108 -0.04509448
0.24537864 0.10220369 -0.010778964 -0.2641406 0.15634048 -0.2282187 0.02771813 -0.021852296
0.03027284 -0.13042468 0.17277777 -0.041598637 -0.17168047 0.04363991 0.023752265 -0.106981985
-0.08619113 -0.18442196 0.022786489 -0.057725884 0.18539429 -0.2568477 0.119519465 0.09055159
-0.26505873 0.19441365 -0.2621901 0.06316387 -0.011371629 -0.05486377 -0.3361288 -0.11365291
-0.13239047 -0.30843154 0.02468382 -0.09602593 -0.038900707 -0.14341672 -0.24871573 0.22964704
-0.28004244 0.40930542 0.016443666 0.15714598 0.17487264 -0.24242376 -0.091767505 0.15964581
-0.2614715 0.14251643 -0.2184859 -0.31946996 -0.1935878 -0.007447425 -0.28937048 -0.09020233
-0.10600356 -0.03627981 0.04913189 -0.14858218 -0.050867483 0.048501026 0.053513587 0.12447615
0.17775586 0.33922815 -0.17164107 -0.037497815 -0.14174035 0.03315737 0.047199365 -0.107722476
0.03037639 0.057055518 0.17414634 0.20848803 0.25603783 -0.1998892 0.0676486 0.06296727
-0.025983889 0.09672366 -0.06786863 0.06955897 0.12745248 -0.07884072 0.060613643 -0.1852429
0.119210474 -0.15068829 -0.32422388 0.2792941 0.18312897 0.27531543 -0.054379143 0.10815289
0.040542454 -0.17556255 0.054958366 -0.056823257 0.052231632 0.1908413 0.15385152 0.13445505
-0.11735057 0.14696474 -0.008488312 0.11944854 -0.01042137 -0.24959414 -0.23492058 -0.03318114
0.08426257 0.29132462 0.15717366 -0.15441607 -0.25730336 -0.00905129 -0.04584211 -0.0036667166
-0.16618799 -0.12132493 -0.031480428 0.037639543 0.0038777627 0.01902065 0.25618082 0.18247233
