baseline/ckpt/yahoo/model-100.pt (torch, 82744 bytes, 1 tensors)

roberta.embeddings.word_embeddings.new_embed.weight f4 [20, 1024]
-0.32379398 0.20222192 0.025300693 -0.05924703 0.031090539 0.009564652 0.027327446 0.21907823
-0.111683466 -0.0069053653 0.09368817 -0.12223921 0.052329462 -0.2127841 -0.16336109 0.029605065
-0.19275767 0.34522474 -0.0021869272 -0.28095755 -0.051081404 -0.120420106 -0.08139113 0.18740341
-0.007104489 0.08685072 0.21756272 0.06356286 -0.011481324 0.029125025 0.026958836 0.049275402
0.2643209 0.2315903 0.10778926 0.06032413 0.2279738 -0.2624836 -0.24480172 -0.2720034
0.04909305 0.1843776 0.121533126 0.2279416 -0.10272234 -0.40694234 0.014780262 -0.046318654
0.261355 0.1213982 0.17242782 -0.04317207 0.011064047 -0.2607712 -0.12445891 -0.052732132
-0.14339711 0.027310574 -0.2835169 -0.009717489 -0.0987774 0.09337736 -0.21551655 -0.01585395
-0.08845829 -0.3790203 0.3161213 -0.01011608 0.107044324 0.32540423 0.2434435 0.07127057
-0.27752906 -0.05705366 0.11673534 -0.14573695 -0.24639411 0.016252115 0.021251658 -0.043505836
-0.033978738 0.0053517288 0.19705833 0.27021006 0.14504544 -0.111959845 -0.08867006 -0.1515883
-0.105781764 0.02699583 -0.0022318498 -0.20780551 -0.38360283 0.03842491 -0.121212825 0.09104675
0.034761593 -0.073219284 -0.17055523 -0.058157373 0.2874055 0.045627635 -0.20527466 -0.04592037
0.013891209 0.03199329 0.2075857 0.093706466 -0.1251567 0.18529958 -0.02333417 -0.047223356
0.094690405 -0.12829086 -0.0365985 0.248283 0.03476998 0.13785978 -0.22043468 -0.07892349
0.10760265 0.019140152 -0.10738736 -0.032254767 -0.32854596 0.11367862 -0.18298668 -0.088202186
0.3416349 0.29504478 -0.12895627 -0.061763406 -0.09331205 -0.056259632 -0.029866325 0.20761837
0.06927783 -0.043261457 0.108888656 0.13141078 -0.20427363 0.2909359 0.13440116 0.068398304
0.04788553 0.16919488 -0.06820784 -0.048918877 -0.025795812 -0.18997805 0.14195584 0.040253952
0.018128412 -0.20347516 -0.018168733 -0.31448147 -0.37277907 0.18503919 0.0006362424 -0.10333784
-0.05071022 -0.10426725 0.1297427 -0.16910398 -0.12300139 -0.21258348 -0.26694974 -0.14220962
-0.032667335 0.21777068 0.012620091 -0.11047931 -0.08305147 0.058040794 -0.25883278 -0.001398782
-0.12751086 -0.005887865 -0.18281688 0.17048919 -0.14244701 -0.23128758 0.013552559 -0.10966295
-0.062267482 -0.048434086 0.12472452 -0.108915284 -0.16138555 -0.061497677 -0.107724205 0.054955274
-0.03356555 -0.009603285 0.05787769 0.012675986 0.2517613 -0.24888818 -0.16345173 -0.24451892
-0.013580804 0.06693188 0.013839649 0.05129517 -0.17798969 -0.08001017 0.10057266 -0.16612399
-0.04195297 0.23214379 -0.16194709 0.16209503 0.23099147 0.00082806655 0.33932844 -0.2232872
0.12289263 0.19374001 -0.2469092 -0.007592981 -0.061601505 0.20068188 -0.0365027 0.047273587
-0.16344273 0.14021547 -0.023343971 -0.078372195 0.21284026 0.09162982 0.076127574 0.029414017
-0.120065585 -0.25772265 -0.034793723 -0.011642 0.11801785 -0.121177785 0.2091701 0.103349105
-0.087038726 0.14624445 0.080394484 -0.27393237 -0.016612109 -0.121106386 -0.13079815 0.06560024
-0.025221458 -0.1781785 0.21656992 -0.031669416 0.06977578 0.17440474 -0.22528793 -0.022599285
00000000: 53c8 a5be 4313 4f3e 6643 cf3c 04ad 72bd
00000010: 96b1 fe3c 0fb5 1c3c cfdd df3c 0b56 603e
00000020: 4dba e4bd 6746 e2bb 95df bf3d 8d58 fabd
00000030: 6b57 563d 13e4 59be 2148 27be 5286 f23c
00000040: 4462 45be 4cc1 b03e 8d52 0fbb abd9 8fbe
00000050: bc3a 51bd d19e f6bd 65b0 a6bd aee6 3f3e
00000060: c6cc e8bb cade b13d c3c8 5e3e 3f2d 823d
00000070: 2a1c 3cbc 9b97 ee3c c7d8 dc3c 01d5 493d
00000080: 1255 873e 0226 6d3e 9ec0 dc3d 6f16 773d
00000090: f771 693e 4064 86be 4dad 7abe 0844 8bbe
000000a0: cb15 493d 7bcd 3c3e 5ce6 f83d 8669 693e
000000b0: 1760 d2bd bf5a d0be e928 723c a1b8 3dbd
000000c0: 53d0 853e 9f9f f83d eb90 303e 32d5 30bd
000000d0: fa45 353c cd83 85be 50e4 febd a6fd 57bd
000000e0: b1d6 12be 6dba df3c 2129 91be 1a36 1fbc
000000f0: ce4b cabd a13c bf3d 5fb0 5cbe 25e0 81bc
00000100: 9f29 b5bd f30e c2be a7da a13e eabd 25bc
00000110: 0e3a db3d 629b a63e 4149 793e 4ef6 913d
00000120: 4a18 8ebe 19b1 69bd f012 ef3d 113c 15be
00000130: bd4e 7cbe 2823 853c f517 ae3c 2d33 32bd
00000140: 4a2d 0bbd 8e5d af3b a9c9 493e f958 8a3e
00000150: cb86 143e 344b e5bd a698 b5bd f739 1bbe
00000160: 1ca4 d8bd 5c26 dd3c 3a44 12bb f8ca 54be
00000170: 9767 c4be 7063 1d3d 6e3e f8bd b876 ba3d
00000180: 2c62 0e3d fef3 95bd 08a6 2ebe 6d36 6ebd
00000190: d026 933e 0be4 3a3d 8533 52be ff16 3cbd
000001a0: f497 633c 650b 033d 5991 543e 2de9 bf3d
000001b0: 1429 00be 2cbf 3d3e 4d27 bfbc 476d 41bd
000001c0: 0bed c13d ae5e 03be 4fe8 15bd e63d 7e3e
000001d0: f76a 0e3d 1d2b 0d3e a1b9 61be a4a2 a1bd
000001e0: c75e dc3d cfcb 9c3c e7ed dbbd 931d 04bd
000001f0: 2d37 a8be 56d0 e83d dc60 3bbe 59a3 b4bd
00000200: c5ea ae3e 1c10 973e 1d0d 04be a0fb 7cbd
00000210: 631a bfbd 8070 66bd 39aa f4bc e999 543e
00000220: 89e1 8d3d ed32 31bd 0401 df3d 8c90 063e
00000230: 1b2d 51be 8df5 943e 75a0 093e 6914 8c3d
00000240: 9e23 443d 6c41 2d3e 8db0 8bbd 295f 48bd
00000250: bd51 d3bc 9b89 42be df5c 113e 54e1 243d
00000260: 0982 943c cb5b 50be 98d6 94bc b703 a1be
00000270: e6dc bebe ea7a 3d3e 81c9 263a caa2 d3bd
00000280: 85b5 4fbd 118a d5bd 45db 043e 9829 2dbe
00000290: 27e8 fbbd 7caf 59be a3ad 88be 669f 11be
000002a0: 2fce 05bd 47ff 5e3e 80c4 4e3c fa42 e2bd
000002b0: e416 aabd 2fbc 6d3d bb85 84be 5657 b7ba
000002c0: 3592 02be feee c0bb 5934 3bbe b894 2e3e
000002d0: a1dd 11be a7d6 6cbe 8d0b 5e3c f896 e0bd
000002e0: 300c 7fbd d262 46bd 926f ff3d fa0e dfbd
000002f0: 4142 25be fde4 7bbd 829e dcbd c818 613d
00000300: 087c 09bd 1957 1dbc 2811 6d3d f0ae 4f3c
00000310: dbe6 803e 8bdc 7ebe e45f 27be 2b63 7abe
00000320: 0582 5ebc 9513 893d b2bf 623c e21a 523d
00000330: ee42 36be 5fdc a3bd 0af9 cd3d 681c 2abe
00000340: e1d6 2bbd 1ab7 6d3e 75d5 25be 3dfc 253e
00000350: 0789 6c3e 9b12 593a 75bc ad3e 66a5 64be
00000360: 22af fb3d c863 463e c4d5 7cbe 8bce f8bb
00000370: dc51 7cbd 8d7f 4d3e db83 15bd f3a1 413d
00000380: 885d 27be a594 0f3e db3b bfbc 9a81 a0bd
00000390: ccf2 593e 6aa8 bb3d c6e8 9b3d aaf5 f03c
000003a0: f2e4 f5bd 39f4 83be dd83 0ebd 16be 3ebc
000003b0: 58b3 f13d 0f2c f8bd b030 563e b2a8 d33d
000003c0: 5c41 b2bd 1bc1 153e dda5 a43d dd40 8cbe
000003d0: 1e16 88bc a006 f8bd f3ef 05be 6b59 863d
000003e0: 3b9d cebc 6d74 36be 81c4 5d3e cab7 01bd
000003f0: 9be6 8e3d 2897 323e e1b1 66be 2322 b9bc
