baseline/ckpt/SNLI/model-100.pt (torch, 82744 bytes, 1 tensors)

roberta.embeddings.word_embeddings.new_embed.weight f4 [20, 1024]
0	0xbed24ece	-0.41075748
1	0x3df56b97	0.11983412
2	0x3de589aa	0.11207898
3	0x3e6f7e7e	0.23388097
4	0xbd8effd0	-0.06982386
5	0x3b5b3ea3	0.0033454082
6	0x3e2bcc5a	0.16777173
7	0x3ca1614e	0.019699719
8	0x3d81489f	0.063126795
9	0x3debf6b5	0.11521665
10	0x3dd17a33	0.10228386
11	0xbd622571	-0.05521149
12	0xbd8d17f3	-0.068893336
13	0xbe2f6d47	-0.1713153
14	0x3e95933c	0.29213893
15	0x3d46ecf6	0.048565827
16	0xbe7b6d9e	-0.24553534
17	0x3e2d2eed	0.16912432
18	0x3db5d719	0.08878917
19	0xbcb0bd85	-0.021574745
20	0x3d517475	0.051136453
21	0x3d8e7ebf	0.06957769
22	0x3d276422	0.04086698
23	0x3e01dbf5	0.12681563
24	0xbd64f9b1	-0.055902187
25	0x3dbd5ab0	0.09245813
26	0xbe2af293	-0.16694097
27	0x3d906678	0.07050794
28	0xbe56e48f	-0.20985626
29	0x3d929aad	0.07158408
30	0xbd068c04	-0.032848373
31	0x3e026a31	0.12735821
32	0x3df6f4d2	0.120584145
33	0xbd90a92c	-0.07063517
34	0x3d3477a9	0.04405943
35	0xbdacd867	-0.08439713
36	0x3dd0d72c	0.10197291
37	0xbdccc75e	-0.09998964
38	0x3d3578c6	0.04430463
39	0xbedf3fa0	-0.4360323
40	0xbccd446e	-0.025057044
41	0x3e29dd1a	0.1658825
42	0x3e7e9fb2	0.24865606
43	0x3e32e12f	0.17468713
44	0x39ab4dd0	0.00032673636
45	0xbe89334e	-0.26796955
46	0xbc3e0349	-0.011597463
47	0xbc0ad264	-0.008473013
48	0xbd601753	-0.054709744
49	0x3db32f36	0.08749239
50	0xbce7a206	-0.028275501
51	0x3d151255	0.036394436
52	0x3d6b84f8	0.057499856
53	0xbe92927a	-0.28627378
54	0xbdaee5fe	-0.08539961
55	0xbd1ececa	-0.03877143
56	0xbe228941	-0.1587267
57	0xbd31524c	-0.043291375
58	0xbdb741b2	-0.08948077
59	0xbdc39b12	-0.09551062
60	0x3ddde94d	0.10835514
61	0xbe50d01c	-0.20391887
62	0xbdc13a1b	-0.09434911
63	0x3b88c9de	0.004174455
64	0xbef13444	-0.47110188
65	0xbee7f7ff	-0.45306394
66	0x3e805bb8	0.25069976
67	0xbe1bbe7e	-0.15209386
68	0x3e011bd8	0.12608278
69	0x3e9e54bc	0.30924022
70	0x3e6ab82d	0.2292182
71	0x3dbb3546	0.091410205
72	0x3da36b30	0.07979429
73	0xbe05e6c4	-0.13076311
74	0x3e854d1e	0.26035398
75	0xbe1a5d54	-0.15074664
76	0xbe8e35d2	-0.27775437
77	0x3cf91292	0.030404363
78	0x3b19ea9c	0.0023485785
79	0x3dadfe58	0.08495778
80	0xbe3ac6b9	-0.18239869
81	0x3e924ea5	0.28575626
82	0x3e8a08ba	0.26959783
83	0x3dc73493	0.097268246
84	0x3cea6804	0.028614052
85	0xbe40884a	-0.1880199
86	0x3d6dca6a	0.058054365
87	0xbeef4e93	-0.46739635
88	0xbe63ffd4	-0.2226556
89	0x3c5ac989	0.013353714
90	0xbd1474b8	-0.036244124
91	0xbe332048	-0.17492783
92	0xbd5992a6	-0.05311837
93	0xbdb03d73	-0.086054705
94	0xbe720271	-0.23633744
95	0xbe1b4101	-0.15161516
96	0x3df3fde0	0.11913657
97	0xbebf2b0b	-0.37337527
98	0xbe1b3c97	-0.15159832
99	0xbe2761c3	-0.16345887
100	0x3c9acb09	0.018895643
101	0xbeb28599	-0.34867552
102	0xbdb05dd1	-0.08611644
103	0xbd90dc66	-0.07073288
104	0xbd0b69a6	-0.0340363
105	0xbd25aab6	-0.040446006
106	0x3e14e307	0.14539729
107	0x3e08a5e6	0.13344535
108	0x3d6a2e03	0.057172786
109	0x3e5a70ac	0.21332043
110	0x3d6f332c	0.05839841
111	0xbdfc5cb0	-0.12322366
112	0x3e8da32e	0.2766356
113	0xbecb8898	-0.3975265
114	0xbe329137	-0.17438208
115	0x3e02283f	0.12710665
116	0x3c18f9dd	0.009336916
117	0x3d3aa26c	0.045565054
118	0xbe7a6027	-0.24450742
119	0xbe302455	-0.1720136
120	0x3c3bd29d	0.011463788
121	0xbe2bfeb3	-0.16796379
122	0xbd27000f	-0.04077154
123	0xbd843b48	-0.064566195
124	0xbe15eaa5	-0.14640291
125	0x3de658c3	0.11247399
126	0xbe4fa598	-0.20278013
127	0xbd951b8e	-0.07280646
128	0x3e72d133	0.23712616
129	0xbe2e8ada	-0.17045155
130	0xbe95508d	-0.29163018
131	0xbd3f8b14	-0.046763495
132	0x3dc14e42	0.094387546
133	0xbe10ea48	-0.14151871
134	0x3d8255f4	0.063640505
135	0xbdfe8eab	-0.124295555
136	0x3d3a07df	0.045417663
137	0x3d8f5523	0.069986604
138	0xbd98b064	-0.07455519
139	0x3e072afd	0.13199992
140	0xbd94ce3f	-0.07265901
141	0x3e51be9a	0.20482865
142	0x3dc39cf2	0.09551419
143	0x3e940fd6	0.28918332
144	0x3e291817	0.16513096
145	0x3d2e1271	0.042498056
146	0xbd92f2be	-0.07175206
147	0xbe1cf32e	-0.1532714
148	0xbdcbedbd	-0.09957454
149	0xbe791060	-0.24322653
150	0x3e2dcc2c	0.16972417
151	0xbd8c1c93	-0.068413876
152	0x3d3bc47b	0.045841675
153	0xbdaf1ef4	-0.08550826
154	0xbe13d61c	-0.14437145
155	0xbed56b45	-0.41683403
156	0xbd6a8cd4	-0.05726321
157	0x3e0e37a4	0.13888413
158	0xbd5a4f84	-0.05329849
159	0xbe7ae0fd	-0.24499889
160	0x3e13a5f1	0.1441877
161	0xbe301c42	-0.1719828
162	0x3e312e18	0.1730274
163	0xbe652e25	-0.22380884
164	0xbed4a135	-0.4152924
165	0x3df5607b	0.11981293
166	0xbd8d4a4f	-0.06898939
167	0xbe9964da	-0.29959756
168	0x3c4e67b8	0.012597971
169	0x3d9f4c53	0.077782296
170	0x3e91f847	0.28509733
171	0xbd34f50f	-0.04417902
172	0x3c933380	0.017968893
173	0xbe422337	-0.18958746
174	0xbe8d668f	-0.27617308
175	0x3dbff276	0.09372418
176	0xbd202433	-0.039097022
177	0x3d8b0029	0.0678714
178	0x3c4f5765	0.012655114
179	0xbda8ac78	-0.08236021
180	0x3d23cedb	0.039992195
181	0xbd9fe908	-0.07808119
182	0x3d49da1f	0.049280282
183	0xbe81262d	-0.25224438
184	0xbd734f26	-0.059401654
185	0x3df48107	0.119386725
186	0x3c4c15b9	0.012456351
187	0xbe2567f2	-0.16152933
188	0xbd097672	-0.033560224
189	0xbe8020bd	-0.25024977
190	0xbd4918bb	-0.04909585
191	0xbe8b08d8	-0.27155185
192	0x3e509778	0.2037028
193	0x3e3a80f6	0.18213257
194	0x3e4bdb2a	0.19907823
195	0xbe2d2f3f	-0.16912554
196	0x3e868dd9	0.26280096
197	0xbe7a066d	-0.24416514
198	0xbe1441a1	-0.1447816
199	0xbbc09454	-0.005877057
200	0xbc09ef71	-0.008418904
201	0x3e8745d9	0.26420477
202	0xbc65448b	-0.013993393
203	0xbe1e75ea	-0.15474668
204	0xbe385c21	-0.18003894
205	0xbc39a2b7	-0.011330298
206	0x3e8e967f	0.27849194
207	0x3e5c14f3	0.21492366
208	0xbe8b9c25	-0.27267566
209	0xbdaeabff	-0.085288994
210	0xbe16eb33	-0.14738159
211	0x3e10c171	0.14136292
212	0x3db62723	0.088941835
213	0x3e1cae0e	0.15300772
214	0x3e876590	0.26444674
215	0xbe54ed85	-0.20793732
216	0x3e3cde2a	0.18444124
217	0xbc9eb8e4	-0.019375272
218	0xbd2ad5d9	-0.041707847
219	0x3d3a318c	0.045457408
220	0x3ccdb7df	0.02511209
221	0x3d11f0af	0.035629924
222	0x3e5b6332	0.21424559
223	0x3e077462	0.1322799
224	0xbe31731b	-0.17329066
225	0xbda78126	-0.0817893
226	0xbd1926d2	-0.037390538
227	0x3e2fc9fe	0.17166898
228	0xbcd78db6	-0.02631269
229	0x3ea8c167	0.32960054
230	0x3deeb358	0.11655301
231	0x3e385aa3	0.18003325
232	0xbeec097f	-0.46100995
233	0xbea29b3d	-0.31759062
234	0xbdcb037f	-0.09912776
235	0x3eb045bd	0.34428206
236	0x3dc0bb05	0.09410671
237	0xbdd250f4	-0.10269347
238	0x3eca6e08	0.39537072
239	0x3d04ce38	0.032423228
240	0xbece1ba4	-0.40255463
241	0x3d7c0245	0.061525602
242	0x3e22bc03	0.15892033
243	0xbe1f71f8	-0.1557082
244	0xbde35a4c	-0.11101207
245	0x3e590e6a	0.21196905
246	0xbe46b16f	-0.19403623
247	0xbd4b15f7	-0.049581494
248	0x3e8284bf	0.25491902
249	0x3e01ba56	0.12668738
250	0x3d8167d1	0.063186295
251	0x3c0e12de	0.0086714905
252	0x3d59c938	0.053170413
253	0x3deb6a82	0.11494924
254	0xbd4b7966	-0.04967632
255	0x3bf449c4	0.0074550826
