baseline/ckpt/SNLI/model-42.pt (torch, 82744 bytes, 1 tensors)

roberta.embeddings.word_embeddings.new_embed.weight f4 [20, 1024]
0	0x3d87ffd6	0.06640594
1	0x3e7cfa69	0.24704899
2	0xbdcc3a72	-0.09972085
3	0xbe3c0507	-0.18361293
4	0x3dfdb6af	0.1238836
5	0x3e35e4c2	0.17763045
6	0x3c33e8e5	0.010980819
7	0xbe87e65d	-0.2654294
8	0x3e154de3	0.14580493
9	0xbeb5ea91	-0.35530522
10	0xbe1525db	-0.14565222
11	0xbe2db8c8	-0.1696502
12	0xbd7ee9bb	-0.06223462
13	0x3ead5465	0.3385345
14	0xbe4037bb	-0.1877126
15	0xbe74c247	-0.23902236
16	0xbe221bb5	-0.15830882
17	0xbd1c54bc	-0.038166746
18	0xbe18154c	-0.14851874
19	0x3d9c8f2c	0.07644495
20	0xbe8ecfc8	-0.278929
21	0xbcab0f5e	-0.020881351
22	0xba733e93	-0.00092790386
23	0x3e0854d8	0.13313615
24	0x3b3860af	0.00281338
25	0x3f07e5c5	0.53084975
26	0x3e0bc9fa	0.13651267
27	0x3e0f0542	0.1396685
28	0xbdb92f1e	-0.0904219
29	0x3c80a913	0.01570562
30	0x3d96215a	0.0733058
31	0xbe63d660	-0.22249746
32	0xbdf28115	-0.11841027
33	0xbe7c632a	-0.24647203
34	0x3ee50e5b	0.44737515
35	0xbd58b8cb	-0.052910607
36	0x3e1520e3	0.14563327
37	0x3bbf243e	0.005833178
38	0x3e4f5b35	0.20249636
39	0xbeee87ea	-0.4658807
40	0x3d69389b	0.05693875
41	0xbe9c77f6	-0.30560273
42	0x3e4c3472	0.19941881
43	0x3d978cd2	0.07399906
44	0xbe82c0fc	-0.2553786
45	0x3c85adf6	0.016318303
46	0xbe4aa6e6	-0.19790229
47	0x3de5b3c9	0.11215932
48	0x3e177b3d	0.14793105
49	0x3ddbf67e	0.10740374
50	0xbed8fa8b	-0.4237865
51	0x3e8d1674	0.27556193
52	0x3e073b28	0.1320616
53	0xbe10d9d2	-0.14145592
54	0x3d14409a	0.03619442
55	0xbe22ef16	-0.15911517
56	0xbe7a9cda	-0.24473897
57	0xbe67b844	-0.22628886
58	0x3e62914f	0.22125743
59	0xbd16528d	-0.03669982
60	0xbe188130	-0.14893031
61	0x3e3f6775	0.1869181
62	0x3d32a4b7	0.043614116
63	0xbd7f4fc1	-0.06233192
64	0x3e2bd341	0.16779806
65	0xbeae95b9	-0.34098604
66	0x3d1f4a8c	0.038889453
67	0xbd31b69d	-0.043387044
68	0x3db6d1fb	0.08926769
69	0x3e9e4fe6	0.30920333
70	0x3e84b487	0.2591898
71	0x3bd06bbc	0.006360499
72	0xbe306b60	-0.1722846
73	0x3bc9c7aa	0.006157835
74	0xbdfb3ffa	-0.12268062
75	0xbc08d4ea	-0.008351544
76	0xbe89e570	-0.2693286
77	0x3e6edc13	0.23326139
78	0x3d7c548b	0.061604064
79	0x3df10d4a	0.11770113
80	0x3db57a9f	0.08861279
81	0xbe0b805a	-0.13623181
82	0x3ce4dad1	0.027936371
83	0x3ed0d18f	0.4078488
84	0x3d63bb32	0.055598445
85	0xbd9c8f05	-0.07644466
86	0xbe993770	-0.29925108
87	0x3e38b86a	0.18039098
88	0xbe5226f0	-0.20522666
89	0xbe2cfea1	-0.16894008
90	0xbdb72473	-0.08942499
91	0xbcad7e38	-0.02117835
92	0x3e6d529f	0.23176049
93	0xbec7e33d	-0.39040557
94	0xbec2778f	-0.3798184
95	0xbd81ab15	-0.063314594
96	0x3ea9a372	0.3313251
97	0xbe28536d	-0.16438074
98	0x3e0843bb	0.13307087
99	0xbe62614f	-0.22107433
100	0xbda313e1	-0.07962776
101	0xbe3ca00d	-0.1842043
102	0x3d296015	0.041351397
103	0x3ed5e89d	0.41779032
104	0xbdbaffc4	-0.09130815
105	0x3e834d72	0.25645024
106	0x3d01d820	0.031700253
107	0xbd6679ec	-0.056268618
108	0xbe1d08cb	-0.15335386
109	0x3ddf4193	0.10901179
110	0xbe6b4661	-0.22976066
111	0xbe1e23cd	-0.15443344
112	0x3e6487fd	0.223175
113	0x3e88f0e9	0.267463
114	0xbde9f0b0	-0.114228606
115	0x3eae2e6b	0.3401979
116	0x3e81f9da	0.25385934
117	0xbd585f1f	-0.05282509
118	0x3edf575f	0.43621346
119	0x3deec0dc	0.11657879
120	0x3d1873d6	0.037219845
121	0xbd7eabc4	-0.062175527
122	0xbdf1b18c	-0.118014425
123	0x3e1fddb7	0.15611921
124	0x3c55e11f	0.013054161
125	0x3e422790	0.18960404
126	0x3e3c190b	0.18368928
127	0x3e958b92	0.29208046
128	0x3e76ca97	0.2410072
129	0xbd769319	-0.060198877
130	0xbe53d7ad	-0.20687743
131	0xbddc532a	-0.1075805
132	0x3e27c4f0	0.1638372
133	0xbe33d52f	-0.17561792
134	0x3e6de4ad	0.23231764
135	0x3de7e63c	0.113232106
136	0xbc90ec4b	-0.017690798
137	0x3e194f1d	0.14971586
138	0xbe3235da	-0.17403355
139	0xbe15de0c	-0.14635485
140	0x3d05c528	0.032658726
141	0x3e47f72d	0.19527884
142	0x3e829c1d	0.2550973
143	0x3d91a539	0.07111592
144	0xbe9d91d7	-0.3077533
145	0xbf18379b	-0.5945985
146	0xbf0af6e9	-0.54283005
147	0x3ec31020	0.3809824
148	0x3db3956b	0.087687336
149	0xbea58f33	-0.32335815
150	0x3eaea429	0.3410962
151	0xbe6b5406	-0.22981271
152	0xbee62c6e	-0.44955772
153	0x394ad2fb	0.00019342818
154	0xbe1c29b6	-0.15250286
155	0x3e0736dc	0.13204521
156	0xbdadaa87	-0.08479791
157	0xbe30e3a6	-0.17274341
158	0xbdcf5fe4	-0.101257116
159	0xbde00bdd	-0.10939763
160	0x3e8d595a	0.27607232
161	0x3cd2d376	0.025735598
162	0xbd1eb49b	-0.038746458
163	0xbd4941fd	-0.049135197
164	0xbe1c9c71	-0.15294053
165	0xbe99cc96	-0.300389
166	0xbd8ebaeb	-0.069692455
167	0xbda9900d	-0.08279429
168	0x3d6b926c	0.057512686
169	0x3e9a5255	0.3014094
170	0x3dd91e45	0.106014766
171	0x3e7fa210	0.24964166
172	0x3e3ec4ad	0.18629713
173	0xbea0222e	-0.31276077
174	0xbe13f09f	-0.14447258
175	0x3badfd6d	0.0053097517
176	0xbe05bbc0	-0.13059902
177	0x3df043b9	0.11731667
178	0xbe0dcb13	-0.13846998
179	0xbc3f8fc2	-0.011691989
180	0x3e10c31b	0.14136927
181	0x3e869bf6	0.26290864
182	0xbb41265e	-0.0029472332
183	0xbe116af5	-0.14200957
184	0xbd99431b	-0.074835025
185	0x3e57b5e7	0.21065484
186	0x3d8082e1	0.06274963
187	0xbec6b9ab	-0.38813528
188	0x3d0226ae	0.03177517
189	0xbc787e79	-0.015166872
190	0xbd7ff3ac	-0.062488243
191	0xbe2b7134	-0.16742402
192	0x3cfe9577	0.03107713
193	0x3e3c4160	0.18384314
194	0x3dc45b55	0.09587733
195	0x3e0006c8	0.12502587
196	0x3d545351	0.05183727
197	0xbddf5266	-0.10904388
198	0xbe544da2	-0.2073274
199	0xbd080821	-0.033210877
200	0xbd35d656	-0.04439386
201	0x3e7e52ed	0.24836321
202	0x3e638739	0.22219552
203	0x3e5c9a2f	0.21543191
204	0x3ed8a33d	0.4231204
205	0xbdc572c6	-0.09641032
206	0x3e1bca4b	0.15213887
207	0x3e32c699	0.17458571
208	0xbbeeeda8	-0.0072915144
209	0x3e2c63d6	0.1683496
210	0xbe70b4b7	-0.23506437
211	0x3e0f73fc	0.14009088
212	0xbe481d8a	-0.19542518
213	0xbe5630de	-0.20917079
214	0xbe624fc1	-0.22100736
215	0x3d77f223	0.060533654
216	0x3cbbc58a	0.022921342
217	0xbd20a716	-0.039221846
218	0xbd833874	-0.06407252
219	0x3e9a5ef0	0.30150557
220	0x3d3a59c6	0.04549577
221	0x3dbf376f	0.09336745
222	0x3dacf839	0.08445782
223	0x3c89d44f	0.01682487
224	0x3e655507	0.22395717
225	0xbe7a645b	-0.24452345
226	0xbdd195da	-0.1023366
227	0x3e46a313	0.19398145
228	0xbe18443f	-0.14869784
229	0xbd80d9c7	-0.06291538
230	0x3df9e734	0.122023016
231	0x3e28ebbb	0.16496174
232	0xbe662fca	-0.22479168
233	0xbc5de04a	-0.013542244
234	0x3e4b4f0a	0.1985437
235	0xbe016262	-0.12635186
236	0x3dc2fe3c	0.095211476
237	0xbe2e4bfd	-0.17021175
238	0xbec89b19	-0.3918083
239	0x3d53be7f	0.051695343
240	0xbee0a83e	-0.4387836
241	0x3e3fb83b	0.18722622
242	0x3d4178be	0.04723429
243	0xbd45abb1	-0.04825944
244	0xbe470460	-0.19435263
245	0xbc5ccf02	-0.013477089
246	0xbe4a1235	-0.19733508
247	0x3c28cbfd	0.010302541
248	0xbe460f72	-0.1934183
249	0x3ebaebb9	0.36507967
250	0xbd53ba3c	-0.05169128
251	0xbb31ee5e	-0.0027150135
252	0xbe057821	-0.13034107
253	0x3e4d3051	0.20037962
254	0xbd599f18	-0.05313024
255	0x3e9ef198	0.31043696
