baseline/ckpt/MRPC/model-21.pt (torch, 82744 bytes, 1 tensors)

roberta.embeddings.word_embeddings.new_embed.weight f4 [20, 1024]
0	0xbe8f6065	-0.2800323
1	0xbe2b9481	-0.16755868
2	0x3de7233a	0.11286016
3	0x3e09487b	0.13406555
4	0xbe8b18ea	-0.27167445
5	0xbb3290b0	-0.0027246885
6	0xbe522711	-0.20522715
7	0xbe49ba75	-0.19700034
8	0xbd68472f	-0.05670851
9	0xbdaa1436	-0.08304636
10	0x3e502d06	0.20329675
11	0x3e6aacbb	0.22917454
12	0x3db5ece1	0.08883072
13	0x3df401ec	0.11914429
14	0x3d9c7fbe	0.076415524
15	0xbd1a9c41	-0.03774667
16	0xbe77f559	-0.24214686
17	0x3d3b917b	0.045793038
18	0xba20a752	-0.00061284483
19	0x3df88549	0.12134797
20	0x3de08ae5	0.10963992
21	0x3d8f8b31	0.070089705
22	0xbe70d3f0	-0.23518348
23	0x3e8bbe85	0.27293792
24	0x3d9fef21	0.07809282
25	0x3d8df180	0.06930828
26	0x3e865782	0.26238638
27	0xbe8d5a23	-0.2760783
28	0x3e14a689	0.14516653
29	0x3e86c159	0.26319388
30	0xbda6e10e	-0.081483945
31	0xbe0b7d55	-0.13622029
32	0x3e58d4b8	0.21174896
33	0xbdf24f07	-0.118314795
34	0x3df135fd	0.117778756
35	0xbddc4c9b	-0.10756799
36	0xbc78b2c5	-0.015179341
37	0xbd81a8e9	-0.06331045
38	0xbbfe7ab3	-0.0077660917
39	0xbe1ab039	-0.15106286
40	0x3e858c2f	0.26083514
41	0xbda4ad8c	-0.08040914
42	0x3ec31116	0.38098973
43	0xbd23215e	-0.039826743
44	0xbcfe3917	-0.031033082
45	0x3c93ef9a	0.018058587
46	0xbe2fb2e1	-0.1715808
47	0x3e189001	0.14898683
48	0xbe36c9d4	-0.17850429
49	0xbdf400ec	-0.11914238
50	0xbe9e4587	-0.3091242
51	0x3da58c82	0.0808344
52	0xbe730860	-0.23733664
53	0xbd8cb961	-0.06871296
54	0xbdc6cc45	-0.0970693
55	0xbca27015	-0.019828836
56	0xbddc3751	-0.10752738
57	0xbd9f9c7a	-0.077935174
58	0xbe3b64e2	-0.18300202
59	0xbdd07845	-0.101791896
60	0x3e42dc42	0.19029334
61	0xbcddf403	-0.027093893
62	0x3e0f0dbc	0.13970083
63	0x3e834cda	0.2564457
64	0x3d8d4a4d	0.068989374
65	0xbe946735	-0.2898499
66	0x3d96446a	0.07337268
67	0xbeb6ae75	-0.35679975
68	0xbe65f0e1	-0.2245517
69	0x3e5c8a18	0.21537054
70	0xbce428b7	-0.027851446
71	0x3c340b1f	0.01098898
72	0x3d618359	0.055056904
73	0x3a8e7016	0.0010867144
74	0x3e4f7dcd	0.20262833
75	0xbb5f503e	-0.0034074928
76	0xbe9bb29f	-0.30409715
77	0xbd3900c1	-0.045166735
78	0xbe2addc0	-0.16686153
79	0x3e86e07b	0.2634314
80	0xbdcee5d6	-0.101024315
81	0x3e1b1065	0.15142973
82	0x3e539c0e	0.20664999
83	0x3de4cca4	0.111718446
84	0x3e32c7fb	0.17459099
85	0x3e2320de	0.15930507
86	0x3d515168	0.051103026
87	0xbdb7ab20	-0.089681864
88	0xbce04acd	-0.027379418
89	0x3dd58b03	0.10426905
90	0xbe7cbe81	-0.24682046
91	0xbe9f7135	-0.31141058
92	0xbc6269b6	-0.013819149
93	0xbe8ed1fa	-0.27894574
94	0xbe31282a	-0.17300478
95	0x3d9010a9	0.07034428
96	0x3ed3add9	0.41343573
97	0xbddc695f	-0.107622854
98	0xbe1f52e8	-0.1555897
99	0x3e730e69	0.23735966
100	0x3e4efdae	0.20213959
101	0xbdb900b2	-0.09033336
102	0x3e2012ad	0.15632124
103	0x3e4d5e60	0.20055532
104	0xbe3579de	-0.1772227
105	0x3df47cb6	0.11937849
106	0xbdc8e170	-0.09808624
107	0x3dbfb233	0.09360161
108	0xbed8ae78	-0.4232061
109	0xbe57a4ab	-0.2105891
110	0xbd0c812b	-0.03430287
111	0xbe33f314	-0.17573196
112	0x3cfe0231	0.031006904
113	0x3e9250eb	0.2857736
114	0x3de39448	0.11112267
115	0x3d4e5691	0.050375525
116	0xbd5139c1	-0.05108047
117	0xbcd98094	-0.026550569
118	0x3ebd62df	0.36989495
119	0x3d5a4e89	0.053297553
120	0x3d9ec35f	0.07752108
121	0xbd2b4f72	-0.04182381
122	0x3de8fc3c	0.11376235
123	0xbdcc6073	-0.09979334
124	0x3e7d6a90	0.24747682
125	0xbd916ef3	-0.0710124
126	0x3d6067f4	0.054786637
127	0xbe116397	-0.14198147
128	0xbd91b004	-0.071136504
129	0xbe7b56bd	-0.24544807
130	0xbd94c6e5	-0.072644986
131	0xbcb798bf	-0.022411702
132	0xbde872f7	-0.11350053
133	0xbdb686c1	-0.08912421
134	0x3e03b7a8	0.12863028
135	0xbec30887	-0.38092443
136	0xbcbf7222	-0.023369852
137	0xbdcf79a0	-0.1013062
138	0x3e19e0b1	0.15027119
139	0xbe9f6449	-0.311312
140	0x3e1b75bb	0.1518163
141	0x3aaaa562	0.0013019259
142	0xbe0eaa8f	-0.1393225
143	0x3e284376	0.16431984
144	0xbe6d4e4c	-0.23174399
145	0x3d8d5377	0.06900685
146	0xbe97f12c	-0.29676187
147	0x3d3e55f9	0.04646871
148	0x3df94726	0.121717736
149	0xbe31f3bb	-0.17378132
150	0xbd3b342b	-0.045704048
151	0xbe22d3a9	-0.15901054
152	0xbe2d40ea	-0.16919294
153	0x3d5734dd	0.05254065
154	0xbd69a6b1	-0.057043735
155	0x3d996eb9	0.07491822
156	0xbde1297b	-0.1099424
157	0x3db8101d	0.08987448
158	0xbe453b68	-0.19260943
159	0xbc53d9ce	-0.012930347
160	0x3d53b431	0.051685516
161	0xbd07fe81	-0.0332017
162	0x3e198a38	0.14994133
163	0xbe3a0e0d	-0.18169422
164	0x3e356f31	0.17718197
165	0xbea07a98	-0.31343532
166	0xbdea79cb	-0.114490114
167	0xbdebddf2	-0.11516942
168	0xbdc87163	-0.09787252
169	0xbb788a76	-0.0037924326
170	0xbe917c71	-0.28415254
171	0x3e9b5189	0.30335644
172	0x3f134052	0.5752002
173	0xbe9c30c0	-0.30505943
174	0x3e08aa43	0.133462
175	0xbea9154f	-0.3302407
176	0xbe171fcf	-0.14758228
177	0x3e04c182	0.12964442
178	0x3d32145a	0.04347644
179	0xbe34a065	-0.1763931
180	0xbed4fe67	-0.41600344
181	0xbdf33410	-0.118751645
182	0xbdf773d6	-0.12082641
183	0xbe2522ee	-0.16126606
184	0x3d828d1f	0.06374573
185	0x3d22a795	0.0397106
186	0xbd8d1c2f	-0.06890141
187	0xbe210a78	-0.1572665
188	0xbef0fd40	-0.47068214
189	0xbec8b1ca	-0.39198142
190	0xbd5f657e	-0.05454015
191	0x3e2084d1	0.15675665
192	0x3e952b1e	0.29134458
193	0xbea1167f	-0.31462476
194	0xbe3ff571	-0.18745972
195	0x3ee44a51	0.4458795
196	0xbe8d691e	-0.2761926
197	0xbee2ce14	-0.4429785
198	0xbee000a7	-0.43750498
199	0xbe7512e4	-0.23932987
200	0x3e722f07	0.23650752
201	0xbdbce34c	-0.09223041
202	0x3cdc6972	0.026905749
203	0x3de0df64	0.109801084
204	0x3e266b57	0.16251884
205	0xbd8e6f1b	-0.069547854
206	0x3e90d870	0.2829013
207	0x3e9a43e3	0.30129918
208	0xbd56e239	-0.052461836
209	0xbe32c2a0	-0.17457056
210	0xbee3e7d8	-0.4451282
211	0x3de452bf	0.11148595
212	0x3a8cd743	0.0010745305
213	0xbc950a6f	-0.018193452
214	0x3ec0e815	0.37677065
215	0x3b5e5ca7	0.0033929737
216	0x3df962fe	0.121770844
217	0xbdd1e334	-0.10248414
218	0xbdd9f9d1	-0.10643352
219	0xbe918c08	-0.28427148
220	0xbda48da9	-0.08034832
221	0xbe39fcce	-0.18162844
222	0xbddfca65	-0.109272756
223	0x3dfc395f	0.1231563
224	0xbe670dfb	-0.22563927
225	0xbe0cd0ca	-0.13751522
226	0xbe002e33	-0.12517624
227	0xbd9b32f6	-0.075780794
228	0x3dc3e9ed	0.09566102
229	0xbd7a7dfe	-0.06115531
230	0xbcaceb8b	-0.02110841
231	0xbe45e353	-0.19324999
232	0xbedff516	-0.43741673
233	0xbe8c2ad0	-0.27376413
234	0x3ef11983	0.47089776
235	0x3e119177	0.14215647
236	0x3e0c1966	0.13681564
237	0xbee904a4	-0.45511353
238	0x3c63d44d	0.013905597
239	0x3e538c65	0.20659025
240	0xbf08fe6f	-0.53513235
241	0xbc4e126f	-0.012577637
242	0x3d6c94af	0.057758983
243	0x3bce9db7	0.006305422
244	0xbd971525	-0.0737708
245	0x3de7809b	0.113038264
246	0xbd6f1a13	-0.058374476
247	0xbd699900	-0.057030678
248	0xbe21c42e	-0.15797493
249	0x3ed9d767	0.4254715
250	0xbe2f9255	-0.17145665
251	0xbe0146c1	-0.12624647
252	0x3e17c767	0.1482216
253	0xbe967bd8	-0.2939136
254	0xbcad0164	-0.021118827
255	0x3e40f368	0.18842852
