baseline/ckpt/MRPC/model-42.pt (torch, 82744 bytes, 1 tensors)

roberta.embeddings.word_embeddings.new_embed.weight f4 [20, 1024]
0	0xbe52af9b	-0.205748
1	0x3bc7c144	0.006096037
2	0xbe11f371	-0.14253022
3	0xbeb7ff57	-0.35936996
4	0xbe843dcf	-0.25828406
5	0xbee34972	-0.44391972
6	0x3e449871	0.19198777
7	0x3c997e0d	0.018736864
8	0xbd49aacd	-0.049235154
9	0xbd9af967	-0.07567101
10	0x3d933864	0.0718849
11	0xbe436291	-0.19080569
12	0xbe8a5633	-0.2701889
13	0x3e17b2f9	0.14814366
14	0xbe96aa52	-0.2942682
15	0x3e39034c	0.18067664
16	0x3c43d412	0.011952417
17	0xbe55ddd4	-0.20885402
18	0xbef7c522	-0.48392588
19	0xbe1c6a63	-0.15274958
20	0xbdbb1d4c	-0.09136447
21	0x3e0df287	0.13862048
22	0x3e09b34e	0.13447306
23	0x3ea4e703	0.32207498
24	0xba59f31f	-0.0008314121
25	0x3e57a3b0	0.21058536
26	0x3e980367	0.29690096
27	0xbe0bad93	-0.13640432
28	0x3daa10a0	0.08303952
29	0xbe140329	-0.1445433
30	0xbe181b16	-0.14854082
31	0xbeb284c6	-0.34866923
32	0xbe25b92b	-0.16183917
33	0x3d9b1aca	0.07573469
34	0x3dd9d352	0.10636009
35	0x3d8d4430	0.06897771
36	0xbe9cf962	-0.30659014
37	0x3e28b99f	0.16477059
38	0xbe5cec69	-0.21574558
39	0x3e787c20	0.242661
40	0x3dc558b1	0.09636057
41	0x3d93fb88	0.0722571
42	0x3d3cfa78	0.046137303
43	0x3ea734a7	0.32657358
44	0xbe44bddc	-0.1921305
45	0xbe9d11a8	-0.30677533
46	0xbe41fba2	-0.18943647
47	0xbee2d9a0	-0.4430666
48	0x3d7957c8	0.06087473
49	0x3c13d1d7	0.009022198
50	0xbde29b37	-0.11064761
51	0x3f107131	0.56422716
52	0xbe2e966d	-0.1704957
53	0x3ddacafc	0.106832474
54	0xbe958c80	-0.29208755
55	0xbde28204	-0.11059955
56	0xbf1ed3dd	-0.6204203
57	0x3d8e7871	0.06956566
58	0x3ce3b463	0.027795976
59	0xbe0cce7d	-0.13750644
60	0x3f0f1d68	0.55904245
61	0x3d1fe6c6	0.039038442
62	0x3d591eac	0.053007767
63	0xbe3c1ba6	-0.18369922
64	0x3e43f4b1	0.19136311
65	0xbe1a18a8	-0.15048468
66	0xbd7e1ed8	-0.062041134
67	0x3e2fb0f3	0.17157345
68	0x3e5ec71c	0.21755642
69	0x3f046290	0.51712894
70	0x3e5a7074	0.2133196
71	0xbc815cee	-0.015791383
72	0xbc1d7bb8	-0.009612016
73	0xbc0053b7	-0.007832459
74	0x3e5631c3	0.2091742
75	0x3d0064c8	0.031346112
76	0xbede4636	-0.43412942
77	0x3d9c2015	0.07623307
78	0xbe399a68	-0.18125308
79	0x3e8ca377	0.27468464
80	0x3d440481	0.047855858
81	0xbe0fd054	-0.14044315
82	0x3e9d9e12	0.3078466
83	0xbe80c9e3	-0.25154027
84	0x3e06753f	0.13130663
85	0xbcb6411f	-0.022247849
86	0xbe8b0aa6	-0.27156562
87	0xbd8e8189	-0.069583006
88	0xbebaa24e	-0.36451954
89	0xbe3c2c87	-0.18376361
90	0xbe83fa7f	-0.2577705
91	0xbe0dc936	-0.13846287
92	0x3d4e3bd3	0.05035002
93	0xbeac53f6	-0.33657807
94	0xbe98e86c	-0.29864824
95	0xbd06f308	-0.032946616
96	0x3eab63f8	0.33474708
97	0xbe42858b	-0.18996255
98	0x3e3f23da	0.1866602
99	0x3af304cf	0.0018540862
100	0xbc75502c	-0.014972728
101	0x3c58954f	0.013219192
102	0x3e904890	0.2818036
103	0x3ec018ed	0.37519017
104	0xbdbc2586	-0.091868445
105	0x3e603368	0.2189461
106	0xbc4c38af	-0.012464686
107	0x3d29a082	0.041412838
108	0xbe08dfbd	-0.133666
109	0xbea26be3	-0.31722936
110	0xbd95a4f2	-0.073068514
111	0xbd30ee34	-0.04319592
112	0x3d3ea24d	0.0465415
113	0xba817d2f	-0.0009879227
114	0xbeac6290	-0.33668947
115	0x3ec94ec8	0.39317918
116	0x3e335028	0.17511046
117	0x3caf79bd	0.021420354
118	0x3e224214	0.1584552
119	0xbdb61aad	-0.08891807
120	0xbd4029ff	-0.04691505
121	0x3d48968d	0.0489717
122	0x3b96afd6	0.004598598
123	0xbd68ac90	-0.056805193
124	0x3e1327eb	0.14370696
125	0x3d15be2a	0.036558308
126	0x3deb7b18	0.11498088
127	0x3e4a05bc	0.1972875
128	0x3e897a10	0.2685094
129	0x3d1dee90	0.03855759
130	0xbe04a87b	-0.12954895
131	0xbe4c5f4b	-0.19958226
132	0xbce2abf9	-0.027669894
133	0xbe4fbea6	-0.2028757
134	0xbdf6f579	-0.12058539
135	0x3de5418e	0.11194144
136	0xbe653293	-0.22382574
137	0x3d66f3c7	0.056384828
138	0x3eb0d44a	0.34536964
139	0xbe8c7089	-0.27429608
140	0x3e6ca19f	0.23108529
141	0x3e744baa	0.23856989
142	0x3e95771e	0.29192442
143	0x3ca33dcc	0.019926928
144	0xbdf6f98e	-0.120593175
145	0xbdb19ce7	-0.08672505
146	0x3db274a3	0.08713653
147	0x3e4dc377	0.20094095
148	0xbd7d9cc5	-0.061917085
149	0xbe7aba7c	-0.244852
150	0x3da4228f	0.08014404
151	0xbe88bfc7	-0.26708815
152	0xbe3c1c3d	-0.18370147
153	0xbeac1320	-0.3360834
154	0xbe42bbd8	-0.19016969
155	0x3ba9cedf	0.0051821317
156	0x3e6551fd	0.22394557
157	0xbe2658cf	-0.16244815
158	0xbe1721f3	-0.14759044
159	0x3e212532	0.15736845
160	0xbead5c72	-0.33859593
161	0xbe99aeb3	-0.30016097
162	0xbe00d45b	-0.12581007
163	0xbe5e2dd8	-0.21697176
164	0x3d823ea1	0.06359602
165	0xbe680dd9	-0.22661532
166	0x3e843106	0.25818652
167	0x3d6b87e6	0.05750265
168	0x3d9cc109	0.07654006
169	0x3ec8e755	0.39238992
170	0xbea7b791	-0.32757238
171	0xbdfa8c96	-0.12233846
172	0x3e5de41d	0.2166905
173	0xbde241e8	-0.11047727
174	0xbcc546fc	-0.0240817
175	0x3e9fb55b	0.3119305
176	0x3c26a0f1	0.010170207
177	0xbe51234a	-0.20423618
178	0xbde0590c	-0.10954484
179	0xbe4cdeb7	-0.20006834
180	0xbdeaba3d	-0.114613034
181	0xbe5270e6	-0.2055088
182	0x3e5c5959	0.21518458
183	0xbe66d1f6	-0.22541031
184	0x3e7aec45	0.24504192
185	0xbe35da60	-0.17759085
186	0x3e6e4ab2	0.23270682
187	0xbe887b78	-0.266567
188	0x3e357935	0.17722018
189	0x3e38eaa5	0.1805826
190	0x3e99e895	0.30060259
191	0xbdc64608	-0.09681326
192	0xbe701f4e	-0.23449442
193	0x3c2e3d3f	0.010634719
194	0x3da29635	0.07938806
195	0x3d7bb6d3	0.06145365
196	0x3e8c610a	0.27417785
197	0xbda5c887	-0.08094888
198	0x3dc44103	0.095827125
199	0xbe056269	-0.13025822
200	0xbe50e10c	-0.20398349
201	0xbea53eb8	-0.32274413
202	0x3e2a6f9f	0.16644143
203	0x3d6e1b05	0.058131237
204	0xbd69e82f	-0.057106193
205	0xbe1393a7	-0.14411794
206	0x3e0e0784	0.13870054
207	0x3e407821	0.18795826
208	0xbd2fa940	-0.04288602
209	0x3e53d931	0.2068832
210	0xbed62ead	-0.41832486
211	0x3e853d62	0.26023394
212	0xbeb479af	-0.35249087
213	0x3e994629	0.2993634
214	0x3ec00498	0.37503505
215	0xbe0325f1	-0.12807442
216	0x3dfde4b0	0.12397134
217	0x3e25112d	0.16119833
218	0xbded18cd	-0.11576996
219	0x3e483399	0.19550933
220	0xbe968cd1	-0.2940431
221	0x3d45d1c6	0.04829576
222	0x3e5419ea	0.2071301
223	0x3c9c699a	0.019093323
224	0x3e7f6157	0.24939476
225	0xbe4b4de4	-0.19853932
226	0x3c396874	0.0113164075
227	0xbac82801	-0.0015270711
228	0x3e0fe28b	0.14051263
229	0xbe592de4	-0.21208912
230	0x3dee7823	0.11644008
231	0xbdda20b9	-0.106507726
232	0xbe55f11a	-0.20892754
233	0xbdeb182d	-0.114792205
234	0xbb858adb	-0.0040753908
235	0x3ec3928e	0.3819775
236	0xbe1675b4	-0.14693338
237	0xbe939484	-0.28824246
238	0xbe07dda4	-0.13268143
239	0x3e2d1abc	0.1690473
240	0xbe67bda6	-0.22630939
241	0x3ca60504	0.020266064
242	0xbd90c31a	-0.07068463
243	0xbe406bff	-0.18791197
244	0xbe73dd42	-0.23814872
245	0xbea7a77c	-0.32744968
246	0x3d98414a	0.07434328
247	0xbe4d5bd8	-0.20054567
248	0xbe6fd305	-0.23420341
249	0x3da1ce94	0.0790073
250	0xbe004bb8	-0.12528884
251	0x3dd2395a	0.10264845
252	0x3cb067ad	0.021533811
253	0xbcf782c2	-0.030213717
254	0xbde5e262	-0.1122482
255	0x3e3e37e7	0.18576013
