baseline/ckpt/MRPC/model-13.pt (torch, 82744 bytes, 1 tensors)

roberta.embeddings.word_embeddings.new_embed.weight f4 [20, 1024]
000000 e9 4b a0 3d f3 46 c7 bc de 18 81 3e b3 e6 f9 3c
       0.07826979 -0.024325823 0.25214285 0.030505514
000010 76 8d 88 be b8 39 03 be 61 1d ed bd 86 a0 31 be
       -0.26670426 -0.12814987 -0.11577869 -0.17346391
000020 de f0 a3 bc c1 8c b6 3e 16 d9 2f 3e d4 7a 8b 3d
       -0.020012315 0.35654262 0.17172655 0.06810537
000030 78 61 ac 3d 66 ad 3f be 51 52 84 bd 2a 39 84 bd
       0.08417028 -0.1871849 -0.06461013 -0.06456216
000040 fb ba 48 bd d9 31 cf be 83 52 8b be 54 82 5a bc
       -0.049006443 -0.40467718 -0.2721139 -0.013336737
000050 75 cb 11 3e 17 cf d9 3b 57 bb 62 3c 8b b7 c8 3e
       0.14237769 0.0066470015 0.013838611 0.39202532
000060 7e 33 a2 3d 04 5b 26 3f c7 f7 e7 3d e4 65 81 be
       0.079199776 0.6498263 0.11326557 -0.2527305
000070 ea 5f ed 3d 1f 13 cd 3d 41 fd 30 bd 57 41 03 be
       0.1159056 0.10013413 -0.04321027 -0.12817894
000080 3e 37 88 3e 18 3d 0b be 06 27 0c be 86 32 86 bd
       0.26604646 -0.13597524 -0.13686761 -0.06552605
000090 28 5e 15 be 3b e8 2e be 55 2c a8 be 2d 6c 4c be
       -0.14586699 -0.17080776 -0.32846323 -0.19963141
0000a0 a2 fd b6 3e 2b 6c 68 be 09 38 29 3e ca e6 e4 3e
       0.3574038 -0.22697513 0.16525282 0.44707328
0000b0 1e c1 12 3e 1e 4a ee be c8 6c 5b bb c9 26 79 bd
       0.14331481 -0.46540922 -0.0033481587 -0.060828004
0000c0 7a 37 dd bc e0 27 27 be 84 59 a7 bd 79 f5 b1 b9
       -0.027003992 -0.16323805 -0.081713706 -0.00033942962
0000d0 a6 1c 70 3e 6b 3a 20 3e db 4c e1 bc 85 a6 85 3c
       0.23448429 0.15647285 -0.027502468 0.016314754
0000e0 23 e8 0e 3d 8f ba 38 bd 88 8a 92 bd da b5 14 be
       0.03488935 -0.04509979 -0.07155329 -0.14522496
0000f0 11 31 31 be 07 da ef bc 80 0c 9e be b2 7a 04 bf
       -0.17303874 -0.029278768 -0.30868912 -0.5174972
000100 f3 03 99 bc 7d b4 b1 be 85 e5 9a be a2 b2 f0 3d
       -0.018678641 -0.34708014 -0.30253235 0.117528215
000110 7a 18 1f 3e 3a 3e f7 3e bd 17 28 bb f5 6a 63 3e
       0.15536681 0.48289663 -0.0025648915 0.2220877
000120 32 be 4b be aa 4a 3d be f5 9b 36 3e 2a 57 54 be
       -0.19896773 -0.18485513 0.1783293 -0.20736375
000130 f5 2b 85 be 70 44 a0 3d f9 e7 d1 3c 4d 6f dc 3d
       -0.260101 0.078255534 0.025623308 0.107634164
000140 d5 72 a0 bc c6 7d 37 be b9 ef 80 3e 3b 3c 4c 3d
       -0.019586006 -0.17919073 0.25182894 0.049862128
000150 17 b4 a9 3d da 73 56 3e cb a7 3e bd a0 f7 cc be
       0.082863025 0.20942631 -0.04654674 -0.40032673
000160 b1 d8 5f 3e 69 4a 29 be 19 f8 db be 5b 9d 2c 3d
       0.21860005 -0.16532291 -0.4296272 0.042142253
000170 32 a0 ae 3d 95 7b 8b be b7 5a f6 3d 86 6c d5 bc
       0.085266486 -0.27242723 0.12029021 -0.026052725
000180 4a 49 8c be 0b 9d dc be 63 0e 77 be 43 6f 25 3c
       -0.27399665 -0.43088564 -0.24126582 0.010097328
000190 02 4a 55 bc c9 40 88 3e 6e bd 84 3e 2e bb 65 be
       -0.013018133 0.26611927 0.25925773 -0.22434685
0001a0 fd 6c 83 be 02 76 6d bd 83 07 c8 3d 2d 14 3f be
       -0.2566909 -0.05797387 0.09767058 -0.1866004
0001b0 b9 a9 b5 be 15 f2 84 ba ce fe 51 3e 5c 2b 13 be
       -0.3548105 -0.0010142947 0.20507357 -0.14372009
0001c0 8d c1 84 bd 49 7b 23 3c 80 ae 26 3d 51 8a 0a 3e
       -0.064822294 0.009978124 0.04069376 0.13529326
0001d0 15 94 6a 3d 6b 1c a0 be b5 aa 5a 3e 14 39 10 3e
       0.05727013 -0.3127168 0.21354182 0.14084274
0001e0 f4 e1 ca 3e e0 43 36 be 5b 38 83 3e 0d 0c 9b bd
       0.39625514 -0.1779933 0.25628933 -0.07570658
0001f0 98 b5 54 3e 0e fb 9f bd 22 7a 44 bd ef da f9 3d
       0.20772398 -0.07811557 -0.047968037 0.121999614
000200 2e 06 75 be e1 10 c7 bd a0 bf 09 be a0 ea e0 bd
       -0.23928139 -0.09720016 -0.13452005 -0.10982251
000210 5c d8 b9 3e 0c 31 3d 3e d9 7a f0 3d 84 40 09 3e
       0.36297882 0.18475741 0.11742181 0.13403517
000220 ec ae 84 be 2d 5c c6 3d 02 b2 af bd 0d 23 e7 3d
       -0.25914705 0.0968555 -0.08578874 0.11285982
000230 2e 81 bb bd 14 98 37 3d a0 5c 02 be 7a be 55 3e
       -0.091554984 0.044822767 -0.12730646 0.20873442
000240 45 2f 00 bf 77 c2 05 3f 09 c6 45 be 8a 15 96 3d
       -0.5007213 0.52249855 -0.19313826 0.07328327
000250 e7 04 be 3d 81 6f 04 be 22 2a c8 3d ee ba 9b 3d
       0.09278279 -0.1293316 0.09773661 0.076040134
000260 de 40 cb be f9 d4 da be dd 55 d2 be 77 2f 82 3d
       -0.39697927 -0.4274061 -0.41081133 0.063567095
000270 14 08 96 be 73 b2 03 be 4a f0 87 3e 5b 85 56 3c
       -0.29303038 -0.12861042 0.26550514 0.013093318
000280 32 77 b4 bd cf fa 64 3e ed ce b3 be 8a 0a 99 bd
       -0.08811797 0.22361301 -0.3511881 -0.07472713
000290 1d e2 46 3c 90 2b 21 be 8e d2 e6 3e ff 62 90 3d
       0.012138871 -0.15739274 0.45082515 0.07050132
0002a0 22 4a 44 be b0 e8 33 3e 49 c3 77 3e 76 70 c5 be
       -0.19168904 0.17569232 0.24195589 -0.38562363
0002b0 7e d8 fc 3d 4a c7 06 be 58 1d 10 bf 4b 16 7e bd
       0.1234598 -0.1316196 -0.56294775 -0.06203298
0002c0 83 c4 85 bd 1b ed 44 3e bf 51 a5 3d 90 a7 bc bd
       -0.06531622 0.19231074 0.080722325 -0.092116475
0002d0 13 db 15 bc fe 7b 42 be 65 e7 10 bd bd a5 fb bd
       -0.00914647 -0.18992612 -0.035376925 -0.122874714
0002e0 77 db 64 be 01 f8 d1 bd e5 cd 81 3d 87 e3 c1 be
       -0.22349344 -0.10252381 0.063380994 -0.37868902
0002f0 13 49 d7 bc da 99 3b 3e 75 47 86 3e c9 13 85 be
       -0.026279962 0.18320408 0.26226392 -0.25991657
000300 86 c5 ce bd b6 87 83 3d bb 6b a3 3c cb 3d 8f 3d
       -0.10096268 0.06422369 0.01994883 0.06994208
000310 c9 86 01 3d 28 3b 1f be a3 f6 8e be 65 77 1f 3e
       0.03162268 -0.1554991 -0.27922544 0.15572889
000320 41 b5 a0 be 8d 1b b3 be 37 c9 fe 3e c6 6f 01 3c
       -0.31388286 -0.34981957 0.4976289 0.007900184
000330 c0 31 b3 3d f1 70 b1 bb e5 3f 7e 3e ef 26 9b 3e
       0.087497234 -0.005415075 0.24829061 0.3030314
000340 18 34 c6 be be 3f d7 ba 57 c2 e3 be e6 5f 86 3e
       -0.3871162 -0.0016422195 -0.44484207 0.2624504
000350 47 68 84 bd 84 f6 22 bd 19 af ca 3c c5 a5 a0 3d
       -0.06465202 -0.039785877 0.024741696 0.07844118
000360 e6 6e d7 be 92 90 51 ba cf d0 2b be 46 18 1d be
       -0.42076796 -0.000799426 -0.16778873 -0.15341291
000370 ee 9f 57 3e e3 e6 95 bd b7 73 13 be a8 5e 27 be
       0.21057102 -0.07319429 -0.1439961 -0.16344702
000380 70 3a 36 be 49 47 ca be 37 50 08 be 2c 81 93 3e
       -0.1779573 -0.3950751 -0.1331185 0.28809488
000390 69 d0 4f 3d 98 0a 83 3d 25 2c 89 3d e1 7b 28 3e
       0.050735865 0.06398505 0.06697873 0.16453506
0003a0 77 49 ab be 2e 61 c2 be ca d3 e3 bc 45 ab 32 3e
       -0.33454487 -0.37964767 -0.02781095 0.17448147
0003b0 17 05 9a 3e 75 9b 6a be 0f 99 2f 3d d0 ec 5a 3e
       0.30082008 -0.22910865 0.042870577 0.213794
0003c0 d7 66 b4 bc dd 91 3d 3d e8 15 29 bc d5 b1 9a be
       -0.022021694 0.046281684 -0.010320164 -0.302138
0003d0 b9 24 f7 bc 68 5f 39 be d3 58 80 3d ea 70 82 be
       -0.030168878 -0.18102801 0.06266942 -0.25476772
0003e0 20 e4 f1 bd ed 09 cf 39 39 76 02 be 86 59 88 3e
       -0.118110895 0.00039489512 -0.12740411 0.266308
0003f0 1c b1 85 be 26 b3 00 be c1 8a 35 3d 5c 0d 8d bd
       -0.26111686 -0.1256834 0.04432178 -0.06887314
