baseline/ckpt/sst-5/model-13.pt (torch, 82744 bytes, 1 tensors)

roberta.embeddings.word_embeddings.new_embed.weight f4 [20, 1024]
-0.17188998 -0.12921908 0.026738925 0.127036 0.055634197 0.44683757 -0.018521922 0.26231238
-0.16246527 0.14930338 0.012820956 -0.015636656 0.38310882 -0.4430278 -0.1533104 -0.031360902
-0.14949663 -0.1875937 -0.19864126 -0.32756215 -0.10900565 0.049649823 -0.18476151 0.16816796
0.116400436 0.05754557 0.14046945 -0.072545744 -0.17824773 -0.10069142 -0.114283994 -0.2909236
0.04883702 0.39425796 -0.06707767 0.16175638 -0.015191911 -0.063908376 0.11588991 0.067020155
0.56235266 -0.31428605 -0.15630345 0.036717407 -0.3637162 -0.29016218 0.19447827 -0.08393041
-0.10422021 -0.23891313 -0.036536112 0.20616561 -0.08857546 0.3406372 -0.2702613 -0.08574215
0.34977278 0.11612325 -0.27656293 0.11798501 -0.11611858 0.25788087 0.11216601 -0.22569008
0.091041245 -0.4313062 0.37034664 -0.3200253 0.2932917 0.08260344 0.012525178 0.37727708
-0.007164036 -0.042921472 -0.1482822 -0.16469994 0.100952916 0.12100658 -0.07779732 0.11404677
0.3099486 -0.113836184 0.13068107 -0.002022441 0.036520615 0.027166659 -0.113074504 -0.053552322
-0.105469964 0.23872556 0.12661941 0.056728594 0.050010342 -0.3879878 -0.2732419 -0.031221857
0.09214171 -0.44173875 -0.025300106 -0.052977845 -0.11323055 0.044955637 -0.05437895 -0.09876842
-0.19092304 -0.3457638 -0.011527769 0.0022708802 -0.2946323 0.1831646 0.0033410303 -0.18126002
0.113484904 0.24695295 0.27054262 -0.031150896 -0.02309533 0.17750536 0.3067696 0.08194549
0.022233302 -0.14950018 -0.091977924 0.06271514 0.2000677 0.11234555 0.029512433 0.3381795
-0.06207941 0.2464482 -0.2862402 0.17506565 0.27620903 0.036515504 -0.048945162 -0.055638988
0.16728742 -0.12016328 -0.42489716 -0.28717312 0.04125542 -0.010860972 0.0447289 0.3469632
-0.072650656 0.22447285 -0.1273702 0.15424928 0.14974663 0.1623983 0.10074673 -0.20013769
-0.14330205 0.052417677 0.3620504 -0.24030934 -0.11912996 -0.026871404 -0.20280853 0.044665262
-0.16439097 -0.09545169 0.34340793 -0.11878738 -0.14149919 -0.3347318 -0.4549356 0.032977108
-0.26774314 -0.18600303 0.18725325 -0.22352579 -0.12617467 0.024621384 -0.035916544 -0.2264222
-0.2392937 -0.098490186 0.029004026 -0.13935524 -0.120875545 -0.15206869 0.12477886 -0.20345235
0.052540265 0.19178967 -0.040376157 0.08421838 -0.26652834 -0.25178152 -0.27976778 0.03228549
0.1436209 0.09179969 -0.111500375 0.031733386 -0.074362546 -0.2282915 -0.24275264 0.01896749
-0.12575637 -0.086837515 0.025443424 -0.1001651 0.05711483 -0.22645727 -0.075399525 -0.2046835
0.116495006 0.4076982 -0.2659744 -0.027922656 0.26116675 0.09744628 -0.027228776 -0.10791159
0.049810685 0.070050135 -0.2791766 0.15046512 -0.074672066 0.18018182 0.06692469 -0.1658354
0.07347818 -0.34297323 -0.025662808 0.059906866 0.19789922 0.09050247 -0.254427 0.3413736
-0.18267015 -0.3072627 -0.13334386 0.2818957 0.20487037 -0.22392607 0.15463012 -0.010644273
0.24212469 -0.12423126 -0.39949313 -0.1380063 -0.2153007 0.055436485 -0.048298247 -0.24306563
-0.23915364 -0.14101395 -0.045232598 0.20309769 0.05244805 0.12989959 -0.054389853 0.14769341
00000000: ed03 30be 0252 04be 970b db3c ba15 023e
00000010: afe0 633d e5c7 e43e 49bb 97bc cf4d 863e
00000020: 4c5d 26be fce2 183e fd0e 523c 7218 80bc
00000030: d726 c43e 8ad4 e2be 67fd 1cbe 4a74 00bd
00000040: a515 19be 9018 40be 9d68 4bbe 3ab6 a7be
00000050: 5b3e dfbd 9d5d 4b3d 1f32 3dbe 3934 2c3e
00000060: 5a63 ee3d e7b4 6b3d 39d7 0f3e dd92 94bd
00000070: 9386 36be 4e37 cebd ba0d eabd f0f3 94be
00000080: 5409 483d 2edc c93e 0460 89bd 77a3 253e
00000090: 7ee7 78bc 65e2 82bd b057 ed3d dd41 893d
000000a0: 58f6 0f3f 1aea a0be 030e 20be fe64 163d
000000b0: 0339 babe 2390 94be 5025 473e b5e3 abbd
000000c0: 6871 d5bd a5a5 74be e4a6 15bd 141d 533e
000000d0: 0d67 b5bd 0068 ae3e b05f 8abe 9599 afbd
000000e0: 6b15 b33e 07d2 ed3d a899 8dbe 20a2 f13d
000000f0: 94cf edbd f608 843e 4bb7 e53d 4d1b 67be
00000100: d573 ba3d 2bd4 dcbe 139e bd3e 5bda a3be
00000110: 542a 963e fe2b a93d 6736 4d3c 762a c13e
00000120: 4ac0 eabb 6dce 2fbd 4ad7 17be 1aa7 28be
00000130: 67c0 ce3d 4cd2 f73d 3454 9fbd 5a91 e93d
00000140: 95b1 9e3e f222 e9bd 42d1 053e ee8a 04bb
00000150: a496 153d 9d8c de3c 9b93 e7bd ae59 5bbd
00000160: a300 d8bd 7974 743e 85a8 013e 3e5c 683d
00000170: a5d7 4c3d 56a6 c6be 5de6 8bbe fbc4 ffbc
00000180: cbb4 bc3d 952b e2be 2b42 cfbc 4cff 58bd
00000190: 6be5 e7bd 6723 383d 76bc 5ebd 1947 cabd
000001a0: 5481 43be f407 b1be f8de 3cbc 0cd3 143b
000001b0: 0bda 96be 808f 3b3e 30f5 5a3b 3a9c 39be
000001c0: c66a e83d 3ce1 7c3e 9084 8a3e 2a30 ffbc
000001d0: 6b32 bdbc f7c3 353e e810 9d3e 09d3 a73d
000001e0: 9d22 b63c 9316 19be ec5e bcbd cc70 803d
000001f0: 8cde 4c3e 6c15 e63d 0fc4 f13c dd25 ad3e
00000200: fb46 7ebd eb5c 7c3e 138e 92be 6944 333e
00000210: 456b 8d3e 4891 153d b97a 48bd b5e5 63bd
00000220: 654d 2b3e 2a18 f6bd 1f8c d9be 5b08 93be
00000230: 71fb 283d 38f2 31bc a735 373d 29a5 b13e
00000240: dec9 94bd 36dc 653e 556d 02be 86f3 1d3e
00000250: 2e57 193e bd4b 263e 4d54 ce3d e5f0 4cbe
00000260: c6bd 12be ebb3 563d ac5e b93e a713 76be
00000270: 69fa f3bd 6b21 dcbc 0aad 4fbe ecf2 363d
00000280: 1b56 28be 2d7c c3bd 2ad3 af3e cc46 f3bd
00000290: 2ae5 10be f761 abbe 52ed e8be 0113 073d
000002a0: a115 89be 9477 3ebe 51bf 3f3e f2e3 64be
000002b0: ef33 01be c9b2 c93c 3a1d 13bd 39db 67be
000002c0: 6809 75be 39b5 c9bd da99 ed3c 24b3 0ebe
000002d0: 998d f7bd e5b7 1bbe 0f8c ff3d d055 50be
000002e0: 7634 573d 8364 443e 7861 25bd b07a ac3d
000002f0: 6776 88be 82e9 80be b93d 8fbe ca3d 043d
00000300: 5b11 133e 7a01 bc3d 4f5a e4bd defa 013d
00000310: 644b 98bd 3fc5 69be 2694 78be b661 9b3c
00000320: 47c6 00be ded7 b1bd ba6e d03c 5c23 cdbd
00000330: 3df1 693d 6ae4 67be 116b 9abd 8d98 51be
00000340: ef94 ee3d d2bd d03e cc2d 88be 0ebe e4bc
00000350: a6b7 853e ea91 c73d e20e dfbc c000 ddbd
00000360: 4a06 4c3d 7276 8f3d 3cf0 8ebe 8713 1a3e
00000370: abed 98bd 9581 383e d00f 893d c1d0 29be
00000380: ba7b 963d 309a afbe cf3a d2bc e760 753d
00000390: 18a6 4a3e 5c59 b93d 4144 82be 85c8 ae3e
000003a0: e20d 3bbe 8951 9dbe 4b8b 08be a254 903e
000003b0: 8ac9 513e e04c 65be 5c57 1e3e 5165 2ebc
000003c0: 89ef 773e f56c febd 5d8a ccbe 8651 0dbe
000003d0: c977 5cbe 5e11 633d 62d4 45bd 32e6 78be
000003e0: b1e4 74be f665 10be d145 39bd d7f8 4f3e
000003f0: c4d3 563d 6604 053e e5c7 5ebd f13c 173e
