baseline/ckpt/sst-5/model-87.pt (torch, 82744 bytes, 1 tensors)

roberta.embeddings.word_embeddings.new_embed.weight f4 [20, 1024]
000000 05 af 75 be 70 ae 47 3d 23 55 84 bd 5c b2 8e bb
       -0.23992546 0.04875034 -0.06461551 -0.004354758
000010 b3 8f d5 bd 4b dc 1c 3d f8 9c 42 3c 6b d7 9f be
       -0.10427799 0.038296025 0.011878245 -0.31219038
000020 21 48 f7 3d be 71 80 3e eb 6c 45 3e 77 2b 94 be
       0.12074304 0.25086778 0.1927983 -0.2893941
000030 c4 d3 7c 3e 6f 73 0b 3e 1b 3c 01 3e 97 97 f5 bd
       0.24690157 0.13618253 0.12620585 -0.11991804
000040 44 8c 06 3d 61 8b d2 bd cc 84 ff bb 92 5e b6 be
       0.03284861 -0.10280491 -0.007797813 -0.35619026
000050 09 b4 d5 bd f5 a8 b6 3b 0c 70 dd bd ee 15 b5 3d
       -0.104347296 0.0055743405 -0.10812387 0.088420734
000060 e6 b4 5a be 05 37 5f 3d 69 6c 5e 3e 05 14 19 bd
       -0.2135807 0.05449583 0.21721043 -0.037372608
000070 cc f6 41 be 9f 60 09 3d 7e 25 3f 3e 5d 9f fe 3d
       -0.18941802 0.03353941 0.18666646 0.1243274
000080 7a dc ed bd dd 8f 3e be 40 63 a2 3c 5c 1e fe bd
       -0.11614318 -0.18609567 0.019822717 -0.12408134
000090 4b 24 80 3d b9 f5 e3 3e 79 3b b8 bd 5a 76 c9 3c
       0.06256922 0.4452341 -0.089957185 0.024592567
0000a0 d1 fe df 3e c4 b0 49 3c d2 fa 37 3e f6 03 83 3e
       0.43749097 0.012310211 0.17966774 0.2558896
0000b0 f8 14 73 be e9 ec 1b bd 9c cc 90 3c 78 ed 4e bc
       -0.23738468 -0.038067732 0.01767569 -0.012629859
0000c0 c5 c8 a6 3e 95 fe 94 bd 60 06 d4 bd a8 26 99 be
       0.3257505 -0.0727512 -0.103527784 -0.29912305
0000d0 85 c9 77 bc e6 59 61 bd a7 b7 f8 bd 45 9f d3 bd
       -0.01512373 -0.055017374 -0.12144404 -0.103331126
0000e0 ee 1b ba bd d9 8a 5a bd a1 78 34 3d 9f f0 d1 bd
       -0.090873584 -0.05335507 0.044060353 -0.10250973
0000f0 b4 b8 0b 3e 10 1c 3c 3d 5e 9c 81 be 54 42 dd 3c
       0.13644677 0.0459252 -0.2531461 0.027009167
000100 06 3d 11 bd cd 55 3c 3e bb a1 2f 3d 5e f5 0b be
       -0.035458587 0.18392105 0.042878848 -0.13667819
000110 70 e1 b6 3e ce ce aa bd 60 fc 06 be db 45 75 3e
       0.3571887 -0.08340226 -0.13182211 0.23952429
000120 93 d2 75 bd 2f 1b 1a be 89 ad 9a 3c 9d c2 59 be
       -0.060015272 -0.15049432 0.018881576 -0.21265645
000130 8c 67 27 3c 40 d5 89 3e a3 1b 0f be 68 59 9c bd
       0.010217559 0.2692051 -0.13975386 -0.076342404
000140 55 20 ae bd d2 6b d9 bc 39 1a 98 3d dd c3 4b bc
       -0.085022606 -0.02654067 0.074268766 -0.012436834
000150 0c 70 c4 3b f4 d4 e7 bd ea d1 a3 be 97 05 a5 bd
       0.0059948023 -0.113199145 -0.3199609 -0.08057707
000160 9c e0 89 3e c5 0b c2 bc 97 2c c5 be f8 38 a4 3c
       0.26929176 -0.023687253 -0.38510582 0.020046696
000170 4c fa 26 bd d1 96 20 be 90 07 80 be a8 2e 84 3d
       -0.040766045 -0.15682532 -0.2500577 0.064542115
000180 7e fb d3 3d 8c 7e 11 3e 03 bb d4 bd 75 7c a6 3c
       0.10350703 0.1420843 -0.10387232 0.020323018
000190 db f1 16 be b1 8c 03 be 6d 0c fa bd d6 c6 3d 3d
       -0.14740698 -0.12846638 -0.12209401 0.046332203
0001a0 4a 87 7a bc a0 86 94 3d 90 b1 be bd b6 9e 09 3e
       -0.0152910445 0.0725224 -0.09311211 0.1343945
0001b0 fa 38 a9 bd c0 2d eb bd 29 29 57 bd f8 5f 99 be
       -0.082628205 -0.114833355 -0.052529488 -0.2995603
0001c0 d0 02 b4 3c c1 c7 0e be 1a dc 08 be 3e d1 66 3c
       0.021973997 -0.13943388 -0.13365212 0.014087973
0001d0 e3 39 85 bb e2 08 81 3e 5e 0a 10 be be 08 a6 3d
       -0.0040657385 0.2520209 -0.14066455 0.08107136
0001e0 52 05 af 3c d5 18 33 be b6 84 b1 be f4 9a 23 be
       0.021364842 -0.17489941 -0.34671563 -0.15977079
0001f0 ec 06 e4 bd 8a 00 d1 3d 4c 8e 4d 3e c3 40 95 3d
       -0.11134133 0.10205181 0.20073813 0.07287743
000200 25 20 1f 3e bd 81 e1 3d 47 ab 84 3c 09 dd 8a 3d
       0.15539606 0.11011074 0.016194953 0.0678044
000210 90 e2 52 3e 8a 9d 4a 3e 50 6d b6 3e 9a ed 26 bd
       0.20594239 0.19786659 0.35630274 -0.04075394
000220 eb 29 aa be 45 b5 6f bd a3 13 b0 bd 9b cd 0d 3e
       -0.33235106 -0.05852248 -0.085974954 0.13847964
000230 48 be 30 be 24 d1 03 bd ac 00 c3 3d 5f 68 25 bd
       -0.17260087 -0.032181874 0.095216125 -0.04038274
000240 33 ee 80 3d 1d 29 ae bd 90 db 94 bd b0 69 51 3e
       0.06295433 -0.085039355 -0.07268441 0.20450473
000250 10 0c 1d 3d 25 60 ce bd 63 f6 f1 3d a6 c6 e0 3d
       0.03834158 -0.10076932 0.11814573 0.10975389
000260 8d d0 5a be d8 9d 16 3d a5 47 27 3b 56 8b 29 3d
       -0.21368618 0.036771625 0.0025524881 0.041392647
000270 05 04 73 3e 5b b6 3e be 86 e9 3c 3e 43 9e 3d 3e
       0.23732002 -0.1862425 0.18448457 0.18517403
000280 b7 89 81 3d f8 6e 4b bd 0a be 83 3d e2 7c 78 be
       0.06325095 -0.049666375 0.064327314 -0.24266389
000290 5b e5 2b 3d 1e 30 f4 bd d0 d0 7e be 88 65 1c be
       0.041966777 -0.1192324 -0.24884343 -0.15273106
0002a0 a7 d0 7f 3e 6a 29 0f be 9d af 20 3e 10 ce b3 3d
       0.24981938 -0.13980642 0.15691991 0.08779538
0002b0 60 c4 a1 3d de ea 39 be 2d 62 32 bd 5b c3 17 bd
       0.07898784 -0.18156001 -0.04355066 -0.03705154
0002c0 de 5b 66 be 5c 92 0d 3d d8 3e db 3d 49 22 df bd
       -0.22495982 0.034563407 0.10705346 -0.10895211
0002d0 bb 5c d6 bb a4 d3 94 be de 66 fe bd 21 be 5a be
       -0.006541816 -0.2906772 -0.12421964 -0.21361591
0002e0 4a de d9 bd 12 15 db 3d d3 61 a4 3c 6a 45 9d be
       -0.106381014 0.10697378 0.020066177 -0.3071702
0002f0 d0 2e 54 bd fd 34 0e be 39 b3 6b be 70 ed 1c bd
       -0.051802456 -0.13887401 -0.23017587 -0.038312376
000300 23 51 db bd ed 02 ea 3d 97 4c f7 bd d7 1d ea 3c
       -0.10708835 0.11426339 -0.12075155 0.028578682
000310 39 2e a1 3c f0 9e 4c be 07 0d d3 bc 8b e2 84 3b
       0.019675361 -0.19982505 -0.025763048 0.0040553263
000320 91 77 8d 3e 00 df 61 bc 04 ec 0d 3e 03 00 dd bd
       0.27630284 -0.0137860775 0.13859564 -0.10791018
000330 76 93 15 3e a5 ff 23 bc 0f c8 8e 3c cc 8b 9b bd
       0.14607033 -0.010009681 0.01742938 -0.075950235
000340 e4 15 8a be 75 88 ec bd f1 65 ff ba 6d 0c 8c 3d
       -0.26969826 -0.115494646 -0.0019485337 0.068383075
000350 1c b4 e9 3d f4 4b 01 be 76 69 ba 3e 22 44 b4 be
       0.11411306 -0.1262663 0.36408585 -0.3520823
000360 fc 35 b1 bd 55 90 9e bc 95 a0 01 3e c7 f1 c0 3d
       -0.08652875 -0.019355932 0.12658913 0.09421115
000370 70 a1 9a be 43 be cf bd 45 1a 2b 3e 37 42 2e be
       -0.30201292 -0.101437114 0.1670924 -0.17017446
000380 b5 41 24 be 82 46 6a 3e 98 4a c1 3e 6e 51 0d be
       -0.1604069 0.22878459 0.37752223 -0.13800594
000390 90 14 79 3e 97 19 27 be f8 3d 1a be c8 5a 9b 3e
       0.2432425 -0.16318356 -0.15062702 0.30342698
0003a0 4f e9 05 be 05 3f 21 be 68 bd 0b be f0 3d 63 3e
       -0.13077281 -0.15746696 -0.13646472 0.22191596
0003b0 df fd 27 bd 14 0c 84 be 68 ed 0e 3e c1 10 22 3e
       -0.041013595 -0.25790465 0.13957751 0.15826704
0003c0 42 4a 89 be 70 b6 38 be 6e 9c 85 be 62 82 05 be
       -0.26814467 -0.18038344 -0.2609591 -0.13038018
0003d0 a1 c3 97 3d 8a 91 65 bd af e1 fb 3d 6d 86 03 3c
       0.0741036 -0.056047 0.12298905 0.008027655
0003e0 25 be 53 bc 08 80 32 be 86 e8 16 be b4 f9 57 3d
       -0.012923752 -0.17431653 -0.14737138 0.05272837
0003f0 36 e3 b4 bd c0 7d cc bd 38 a7 c0 3d cb 66 fb 3d
       -0.088323995 -0.099849224 0.094068944 0.122754656
