baseline/ckpt/sst-5/model-21.pt (torch, 82744 bytes, 1 tensors)

roberta.embeddings.word_embeddings.new_embed.weight f4 [20, 1024]
0	0x3e0e142f	0.13874887
1	0x3e43ca8f	0.19120239
2	0x3e4706d5	0.194362
3	0xbd3685eb	-0.044561308
4	0xbea7ffb5	-0.32812276
5	0x3ed76421	0.4206858
6	0xbe7698e2	-0.24081758
7	0xbe23a83f	-0.1598215
8	0xbe62f137	-0.22162329
9	0x3d1bea4f	0.03806525
10	0x3e987f60	0.2978468
11	0xbe26b506	-0.16279992
12	0xbdcd200a	-0.100158766
13	0xbe361420	-0.17781115
14	0xbdf95a8b	-0.12175473
15	0xbc511a75	-0.0127626555
16	0xbc9d92e7	-0.019235088
17	0xbd6a61a3	-0.05722202
18	0x3d1198d2	0.03554613
19	0x3dbbc5c5	0.09168581
20	0x3c6a6ae8	0.014307715
21	0xbe2871ec	-0.16449708
22	0x3d5e2e48	0.054243356
23	0x3e6519a2	0.2237306
24	0x3b961b8d	0.004580921
25	0xbe1eced9	-0.15508594
26	0x3e472c5e	0.19450518
27	0xbe761374	-0.24030858
28	0x3e877be9	0.26461723
29	0xbd5090f9	-0.050919507
30	0x3e653bf8	0.22386158
31	0x3d5efca0	0.05444014
32	0xbe64b392	-0.22334126
33	0xbde48933	-0.11158981
34	0xbe4c3b40	-0.19944477
35	0xbe81bd1a	-0.25339586
36	0xbdc6258a	-0.09675129
37	0x3e2cc9ec	0.16873902
38	0x3df3f794	0.11912456
39	0x3cc57005	0.024101267
40	0xbe1e2203	-0.15442662
41	0xbd8de5e7	-0.06928616
42	0x3dfbc9f2	0.122943774
43	0xbe155488	-0.14583027
44	0x3db0c2a1	0.086308725
45	0x3b83a24a	0.004017149
46	0x3e147621	0.14498188
47	0xbde07222	-0.10959269
48	0x3e19c264	0.1501556
49	0x3d961355	0.07327906
50	0xbde7a42b	-0.113106094
51	0x3e4e7a3e	0.20163819
52	0x3e3b17f8	0.18270862
53	0x3e00eac9	0.12589563
54	0x3e0ab1c6	0.13544378
55	0x3cfba2b4	0.030717231
56	0xbdf450cb	-0.119294725
57	0x3de8ef47	0.113737635
58	0x3c1593d3	0.009129482
59	0xbe90f11f	-0.2830896
60	0x3dc66346	0.09686904
61	0x3da72ad8	0.08162469
62	0x3d8f9a7b	0.07011887
63	0xbeb2fa66	-0.34956664
64	0xbd49900b	-0.049209636
65	0xbe994376	-0.2993428
66	0x3ce7f152	0.028313313
67	0xbdc88a5f	-0.09792017
68	0x3e37accf	0.17937015
69	0x3d1239a2	0.035699494
70	0xbd998032	-0.074951544
71	0x3ccdb082	0.02510858
72	0x3ea86919	0.32892683
73	0xbeb2823a	-0.3486498
74	0xbe7b5b7a	-0.24546614
75	0xbdadc998	-0.084857166
76	0x3dd87606	0.10569386
77	0xbda3e971	-0.0800351
78	0xbd1cc454	-0.03827317
79	0xbe5b57aa	-0.2142016
80	0xbe389f73	-0.18029575
81	0xbac29f81	-0.0014848561
82	0x3e1a88dc	0.1509127
83	0x3e2bc1db	0.16773169
84	0x3d7bb52b	0.061452072
85	0xbda970cf	-0.0827347
86	0xbd33164a	-0.04372243
87	0xbe546cff	-0.20744704
88	0x3d9b9002	0.07595827
89	0x3cee520d	0.02909186
90	0xbea880c4	-0.3291074
91	0xbcdf9bc1	-0.027295949
92	0x3eb066b2	0.3445335
93	0xbee22383	-0.44167718
94	0xbd83613a	-0.06415029
95	0x3c47c578	0.012193076
96	0xbe099238	-0.13434684
97	0xbf1295ae	-0.57259643
98	0x3e61f918	0.22067678
99	0x3e594875	0.21219046
100	0xbe85ee92	-0.26158577
101	0x3e21ffe1	0.15820266
102	0xbe1ae956	-0.15128073
103	0x3e6ec7c8	0.23318398
104	0xbe132b70	-0.14372039
105	0x3e875413	0.2643133
106	0xbd8c5890	-0.068528295
107	0x3d162d28	0.036664158
108	0x3e0e2d51	0.13884474
109	0xbe34f20c	-0.17670459
110	0x3e4862a9	0.19568886
111	0xbebbd1ac	-0.36683404
112	0x3dda0729	0.10645897
113	0xbd237be5	-0.039913077
114	0xbd1fcd34	-0.039014056
115	0x3e6d8d66	0.2319847
116	0xbdcbec81	-0.09957219
117	0x3d7e65c6	0.062108777
118	0xbe162680	-0.14663124
119	0xbbe97e91	-0.0071256836
120	0xbcd13403	-0.025537496
121	0xbe45bd2d	-0.19310446
122	0x3e06b428	0.13154662
123	0x3e22f602	0.15914157
124	0x3d18f882	0.03734637
125	0xbd0dd2cd	-0.034624863
126	0x3e1ad090	0.15118623
127	0x3e684d62	0.22685769
128	0x3e22d7fb	0.15902703
129	0x3d6c154d	0.0576375
130	0xbe254f82	-0.16143611
131	0x3d5a6c81	0.053326134
132	0x3e8a7117	0.27039406
133	0xbc7056b5	-0.01466911
134	0xb86e7366	-5.6851095e-05
135	0x3d82f1e3	0.063937925
136	0xbde89bc3	-0.11357834
137	0xbde8d784	-0.11369231
138	0xbe2ff42f	-0.17182992
139	0xbd41303d	-0.047165144
140	0x3c66eb22	0.014094146
141	0x3e142770	0.14468169
142	0x3eb4348c	0.3519634
143	0xbe4c9063	-0.19976954
144	0xbd66008c	-0.056152865
145	0xbcc15f2e	-0.023604956
146	0xbe9a06b7	-0.30083248
147	0x3cbeda64	0.023297496
148	0xbdbd8f49	-0.09255845
149	0x3dbd3ac4	0.09239724
150	0x3e917737	0.28411266
151	0xbe326175	-0.1741999
152	0xbe893912	-0.26801354
153	0xbdd82831	-0.10554541
154	0xbeaa27fb	-0.33233628
155	0x3dd7551d	0.10514281
156	0xbe01e8e8	-0.12686503
157	0xbe87e1e1	-0.2653952
158	0xbe125cc6	-0.14293203
159	0x3e216f1c	0.15765041
160	0xbe8cc4ee	-0.27493995
161	0xbcba25df	-0.022723136
162	0xbcc7bc1f	-0.024381695
163	0xbea15f16	-0.31517857
164	0xbd81acb6	-0.0633177
165	0xbde99efb	-0.11407276
166	0x3d8c3c1b	0.06847402
167	0xbe19c228	-0.15015471
168	0x3bab9c52	0.0052371407
169	0x3e342fc4	0.17596346
170	0xbe4cec52	-0.20012024
171	0xbd91a22e	-0.071110114
172	0x3e4aabe6	0.19792137
173	0xbe3994f9	-0.18123235
174	0xbeb42138	-0.35181594
175	0xbe24b15c	-0.16083282
176	0xbe2bd077	-0.16778742
177	0x3e422423	0.18959098
178	0xbdda3202	-0.106540695
179	0xbe5d4128	-0.21606886
180	0xbe2dccca	-0.16972652
181	0xbdd37ab1	-0.10326136
182	0xbe649097	-0.22320782
183	0xbe5ca79b	-0.21548311
184	0x3dc48b8f	0.09596931
185	0xbdc56b94	-0.096396595
186	0x3d693c6b	0.056942385
187	0xbbff75e0	-0.007796034
188	0xbe723eed	-0.23656817
189	0x3d90be59	0.07067556
190	0xbe321bf4	-0.17393476
191	0xbdeea8e9	-0.11653311
192	0xbe7ce0d0	-0.24695134
193	0x3e616152	0.22009781
194	0x3e941cbc	0.28928173
195	0x3e5a257f	0.21303366
196	0x3e8082c3	0.25099763
197	0xbeb4a5e2	-0.3528281
198	0xbea9e6db	-0.3318394
199	0x3e92f8aa	0.2870534
200	0xbe1d385a	-0.15353528
201	0xbde2d491	-0.110757
202	0x3e1db092	0.15399387
203	0x3e4451ff	0.19171904
204	0xbd950e24	-0.07278088
205	0xbd9c9921	-0.076463945
206	0xbc9a081d	-0.018802697
207	0x3e786863	0.2425857
208	0xbdfbbce6	-0.12291889
209	0xbe5f1e89	-0.21788992
210	0xbea8285d	-0.32843295
211	0x3e53d87f	0.20688055
212	0x3e2111ca	0.15729442
213	0x3dbfae61	0.09359432
214	0x3e37a6a6	0.17934665
215	0x3cf86af4	0.030324437
216	0xbe1ec0be	-0.15503213
217	0xbdd204cf	-0.102548234
218	0x3ea6cf33	0.32579955
219	0xbdaabdd3	-0.08336987
220	0xbe8a5cce	-0.2702393
221	0x3d734c4a	0.059398927
222	0x3c3526d8	0.011056624
223	0xbeb4d950	-0.35322046
224	0xbdb3e286	-0.0878344
225	0xbe1682e4	-0.14698368
226	0x3d95bcae	0.073113784
227	0xbe581da1	-0.21105053
228	0x3ea32fec	0.318725
229	0x3ea8609f	0.32886216
230	0xbe356ca8	-0.1771723
231	0x3f078dba	0.5295063
232	0xbe882e7a	-0.2659796
233	0xbd6d6a8d	-0.057962943
234	0x3cf7c60f	0.030245809
235	0x3f012c5e	0.50458324
236	0x3e9d0985	0.30671325
237	0xbda7a285	-0.08185295
238	0x3d886ea2	0.066617265
239	0x3e8176e6	0.25286025
240	0x3ca3c5da	0.019991804
241	0xbdaf07e2	-0.085464254
242	0x3d7f41a0	0.062318444
243	0x3cce18e8	0.02515836
244	0xbe5958d3	-0.2122529
245	0x3d517fad	0.05114715
246	0x3d9b41cf	0.07580911
247	0xbb2c16ba	-0.0026258663
248	0x3d845c03	0.06462862
249	0x3d7d5a26	0.06185355
250	0xbe2d4ce6	-0.16923866
251	0xbc58f76c	-0.013242584
252	0x3cb8c453	0.022554552
253	0xbdb7e789	-0.08979709
254	0xba8c1dbf	-0.0010690017
255	0x3d03be2c	0.032163784
