baseline/ckpt/cr/model-42.pt (torch, 82744 bytes, 1 tensors)

roberta.embeddings.word_embeddings.new_embed.weight f4 [20, 1024]
00000000: aa67 823e 8c71 ad3c 0939 2f3e 680b 2ebe
00000010: b3c3 7ebd c01d 7f3c 59ec 133e d9cd c2be
00000020: e37a 513c 2a3f b73d 5022 02be e0ea 80be
00000030: 61fb 703d 641e 0b3e 195d 89bd ee4b 33be
00000040: 0b72 b8bd 8751 a7be fc20 d9be 9647 99bd
00000050: b222 9abd e4d0 0dbd 0a1f a83e 24af a73d
00000060: cdfd 01be 7384 5d3e 5b0b 86be 1278 2bbe
00000070: 4a74 ecbd 0d99 86be 89c7 48be b59f 85be
00000080: e807 90be 2de8 d3bd a1cd aebc f423 923c
00000090: 21ed 4d3e 498e 2cbe 1e82 633e f9b4 1ebf
000000a0: 6634 bb3d ad51 25be d8f4 593d dfff 84bd
000000b0: 39fe 15bd 117b 58be 96a8 b7bc 1b49 b03a
000000c0: 2330 db3d 992f 853d 5311 b4bd 18a3 c2bd
000000d0: efab a43d a9ed c1bd 3bcc 2abd d6ca 84bd
000000e0: d15c 9dbe 3c0e 8b3d d342 e4be 57fc 07be
000000f0: 0df5 bf3e 9f5d b83d eeaf 343e aa1e 34be
00000100: 7b87 583d 76f3 bfbe a76e ee3e d4e6 15be
00000110: 522e 4abe 7e1a 563e ecb1 5d3e 5871 49be
00000120: dc47 7bbe 6030 413c d13d fcbd c965 cdbd
00000130: d2a6 c2bd 67a9 803d 4959 af3e ea98 d7bb
00000140: dfc2 7bbe d909 b63c 8acd ab3e 80f9 2cbe
00000150: 78ff 7f3d e4e9 d93d b34d 0fbe 41c6 b0b9
00000160: ea49 64be 8f59 80bd e169 b2be 0e5a 85bd
00000170: e1fd 7bbc 2a0a 1bbe ef94 87be d630 9bbe
00000180: dfd9 293e f8d5 d2be 6776 47bd 8f3c 9fbe
00000190: 136e ab3e 2e3e dabd 3c55 5b3d f022 903e
000001a0: ea3f 013c 47ee 7c3e 4ff2 0abe 4f49 5abe
000001b0: bca9 bdbd 9842 74bd 707c b3bd 41a4 2ebe
000001c0: a5dc 2f3e 4e5c ab3e 78b5 d6be aa5c 8f3e
000001d0: c057 66bd e831 943e 029b 833d 1493 de3d
000001e0: badd 79be 99c2 4c3e 06b6 52bd e15f 68be
000001f0: 22f9 0c3d 59a4 b3bc 16a8 3b3e 7140 1e3e
00000200: de19 473e df3c a33d d07a 83be 21a7 74be
00000210: a317 9b3d a4c0 29be 9de6 81be 73d8 7a3e
00000220: 4ca6 2dbe 35f6 b5bd d1ff cc3d 034f 013d
00000230: 1173 25be ef86 ea3d d9e1 b93e 24a9 4eba
00000240: a3b4 32be 77d5 303d da7e 0abe 39d2 ac3d
00000250: f107 0f3e 6529 adbe 2825 7d3e 7bd9 d03d
00000260: 5298 b9be 2a06 12be dbdd cbbd 0e82 fe3d
00000270: fa3b 08bd dd25 eabe c116 043d 2a36 ad3d
00000280: 7f30 b53e a926 b3be a647 b0be 36bf a8be
00000290: db14 89be 8829 9ebe e657 e83a 7a63 df3d
000002a0: 67f6 13be e886 e73e 583e 8bbc f851 6a3e
000002b0: dc02 483d f1c6 363b 2a43 b2bc 3ca2 d83d
000002c0: 5a6e 143e 551f d23e 7e67 c1be 514c 313e
000002d0: 3f37 59be 1040 39be c007 443e 3375 3fbe
000002e0: 40e9 babd a5f8 5dbd 6e4b 083e aec7 00bf
000002f0: 622e 453e 0387 a83d 1376 a1bd 67c0 acbd
00000300: 3747 38be 1d74 c63d 4701 0dbe 8307 2ebe
00000310: d7af 15be 195d ec3b ba71 b0be 1088 dc3d
00000320: 3310 31be a61e dcbd e9e4 983e 2478 e63e
00000330: c7fb 9a3e 01a3 d93d 0776 6c3e 7e98 6e3e
00000340: 740e 9ebe 9c8b 7d3e cb1d 32be 1bc7 653d
00000350: 19c8 23be b4c6 cd3d eb65 8d3e 7a6f 35bd
00000360: bd5a 473e 7214 82be 09a6 f1bb 956f c73e
00000370: c4d1 89be ed5e 893e c7bd 1cbe e6bc 123e
00000380: 3540 8a3e 66c4 0abe 5708 3abe b802 2abe
00000390: 4e48 0a3e 4cb8 52bd 3b25 293d 1af7 233e
000003a0: 7aa8 37be 3c71 3cbd 93d8 3db9 0acb 973e
000003b0: 5658 f43d dac3 adbe 601d 9cbd 0a03 e53e
000003c0: e52d 58be 4fa9 b23d 82e3 0dbe e5d8 b0be
000003d0: 9c64 75be d527 a4bc 3dbb 593e 0712 503d
000003e0: a25e 51be 1991 f73d ff39 563e 6106 fe3d
000003f0: cef2 8a3d fc4e e23d 9d1d 993d 50ab b83e
0.25469714 0.021172307 0.17111601 -0.16996539 -0.062198352 0.015571058 0.14445628 -0.38047674
0.012785646 0.089475945 -0.12708402 -0.25179195 0.058833484 0.13585812 -0.0670721 -0.17509434
-0.09006127 -0.32679388 -0.42407978 -0.07484357 -0.07526149 -0.03462304 0.3283618 0.08187702
-0.12694474 0.21632557 -0.2618054 -0.16745022 -0.11545618 -0.26288643 -0.19607367 -0.2609841
-0.28131032 -0.103470184 -0.021338286 0.01783941 0.20109989 -0.16851152 0.22217605 -0.6199489
0.091408536 -0.16144438 0.053212017 -0.06494116 -0.0366194 -0.21140696 -0.022419255 0.0013449522
0.10702541 0.06503219 -0.08792367 -0.09503764 0.08040606 -0.09469158 -0.041698676 -0.064840004
-0.30734876 0.06789824 -0.44582233 -0.13279854 0.37491646 0.09002232 0.17645237 -0.17589822
0.05286358 -0.37490433 0.46568796 -0.14638835 -0.19744232 0.20908543 0.21649903 -0.19672143
-0.24539131 0.011791319 -0.12316478 -0.100291796 -0.09504475 0.06282311 0.34247807 -0.006579508
-0.24586056 0.022221493 0.3355525 -0.16892052 0.062499493 0.10640314 -0.13994484 -0.00033717047
-0.22293821 -0.06267082 -0.34846404 -0.06511317 -0.015380354 -0.15140596 -0.26480815 -0.30310696
0.16587017 -0.4117887 -0.0486969 -0.3110089 0.33482417 -0.10656391 0.053548083 0.28151655
0.007888773 0.2470027 -0.13568996 -0.21317028 -0.0926089 -0.05963382 -0.08763969 -0.17054845
0.17174013 0.3346886 -0.41935325 0.28000385 -0.05623603 0.28944325 0.0642605 0.10867897
-0.24400988 0.19996108 -0.051443122 -0.22692825 0.03441728 -0.021928953 0.18325838 0.1545427
0.19443461 0.079705946 -0.25679636 -0.2389188 0.07572868 -0.16577393 -0.25371256 0.24496631
-0.16957968 -0.08884851 0.100097306 0.031569492 -0.16157176 0.11451518 0.3630512 -0.000788348
-0.1745172 0.043172326 -0.13524953 0.08438534 0.13967873 -0.33820644 0.24721205 0.10197731
-0.36249024 -0.14260164 -0.09954425 0.1242715 -0.033260323 -0.45732012 0.032248262 0.084575966
0.35388562 -0.34990433 -0.34429663 -0.32958382 -0.26773724 -0.3089106 0.0017726391 0.109076455
-0.14449464 0.45220113 -0.016997501 0.22882831 0.048830852 0.0027889574 -0.021760542 0.10577819
0.14495221 0.4103953 -0.3777427 0.17314269 -0.21212481 -0.18090844 0.19143581 -0.18697052
-0.0912652 -0.054192204 0.13310024 -0.5030469 0.19255975 0.082288764 -0.07883849 -0.08435135
-0.17995916 0.096901156 -0.13770019 -0.16995053 -0.14617859 0.0072132465 -0.34461766 0.10768139
-0.17291336 -0.10748033 0.29862145 0.45013535 0.30270216 0.10626794 0.23091899 0.23300359
-0.30870402 0.24760288 -0.17394178 0.056098085 -0.159943 0.10047665 0.2761682 -0.044295765
0.19468208 -0.25406224 -0.0073745293 0.38952318 -0.2691785 0.26830235 -0.1530677 0.14329872
0.2700211 -0.13551483 -0.18167244 -0.166026 0.13504145 -0.05144529 0.04129527 0.1601223
-0.17935362 -0.046006426 -0.00018105125 0.29647094 0.11930911 -0.33938485 -0.0762279 0.4472888
-0.21111257 0.08723699 -0.13856319 -0.34540477 -0.2396416 -0.020038525 0.21262832 0.050798442
-0.20446256 0.12088222 0.20920561 0.124035604 0.067845926 0.11050221 0.074763514 0.360682
