baseline/ckpt/cr/model-13.pt (torch, 82744 bytes, 1 tensors)

roberta.embeddings.word_embeddings.new_embed.weight f4 [20, 1024]
000000 ad 4b 9a bd 23 4d 6b bb db 6c 96 be db a1 85 be
       -0.07533965 -0.0035904131 -0.29379925 -0.26100048
000010 26 64 44 be 81 d7 09 bd bb d3 e7 bd 9e 13 85 be
       -0.19178829 -0.033652786 -0.11319681 -0.2599153
000020 69 32 6e 3e 66 84 04 3f 30 bd c5 3d 14 ef 29 be
       0.23261417 0.51764524 0.09655225 -0.16595107
000030 b4 3f 29 3e bb a5 99 be 7f 56 a1 be 21 72 09 3e
       0.16528207 -0.30009255 -0.31511304 0.13422443
000040 52 8e 95 be 04 c0 ab 3d ee 45 9c be 04 fc 7d be
       -0.29210144 0.083862334 -0.30522102 -0.24803168
000050 09 16 fd bd 08 cf ef bc 4d bf 9a 3d c6 48 e9 3e
       -0.123577185 -0.029273525 0.07556019 0.45563334
000060 aa 20 63 3e 4d 82 9d 3e 38 74 34 be a4 b7 2a be
       0.22180429 0.30763474 -0.17622459 -0.16671616
000070 d3 e2 2c be 3e b9 02 be 2c 10 25 3d f0 6d 38 bd
       -0.16883402 -0.12765977 0.040298626 -0.04502672
000080 cb a7 13 be 27 0a ec 3c 85 e9 80 3c e1 95 88 be
       -0.14419477 0.028813435 0.01573635 -0.2667685
000090 4f 7a 81 be e1 5d 73 3e c5 69 45 3c 24 b6 85 be
       -0.25288627 0.2376628 0.012049143 -0.26115525
0000a0 c2 a6 b3 3d 9c aa eb bd 33 b2 81 3e 82 bd 89 3e
       0.08772041 -0.115071505 0.25331268 0.26902395
0000b0 15 f1 98 be 6b 07 2e be d2 65 2b 3e 14 65 7d be
       -0.2987143 -0.16995017 0.1673806 -0.2474559
0000c0 2c 2a c2 3d 79 1a 45 bd 36 6c 09 bf 8a 46 b1 bc
       0.094807 -0.04812095 -0.5368074 -0.021640081
0000d0 fd d4 f9 3d c0 c0 42 bd 80 ee 07 be a8 3e 13 be
       0.121988274 -0.047547102 -0.13274574 -0.1437937
0000e0 c7 09 9a 3d d0 d3 03 3d f0 8e cd be b9 97 90 be
       0.07521396 0.032184422 -0.40148115 -0.28240755
0000f0 7b 7f 5a bd 4d 3f 73 3e 76 74 b8 3d 2b b2 57 bd
       -0.05334423 0.23754616 0.09006588 -0.05266015
000100 81 8f 32 3e 2b b0 61 be ea f0 86 3e a6 86 9a bd
       0.17437555 -0.22039859 0.26355678 -0.075452134
000110 c3 ce 7b 3e 69 62 b1 bc f7 23 86 3d 45 ba 25 3e
       0.24590592 -0.021653371 0.065498285 0.16184337
000120 b3 99 62 be 02 bc 5b 3d ab 88 99 3b 37 e6 da bd
       -0.22128944 0.053646095 0.0046854815 -0.10688441
000130 90 e1 23 be c2 88 71 3e 10 77 51 be fc 4d 74 be
       -0.16004014 0.23587325 -0.20455575 -0.23857874
000140 1c 1d 3e 3e 86 34 a1 bd ff e7 c5 3d 25 03 9d 3d
       0.18565792 -0.07871346 0.0966339 0.076666154
000150 68 42 c1 3e 19 c6 1a 3e 19 a4 97 be 94 f4 ea bd
       0.37745976 0.15114631 -0.29617384 -0.11472431
000160 60 71 8f 3d 14 45 b0 3d 5c e5 e1 3d 0c fd ea bc
       0.070040464 0.086069256 0.11030075 -0.028685115
000170 14 1b 3c 3e b1 85 65 be 22 60 ce be bc 1d 73 be
       0.18369704 -0.2241428 -0.4030772 -0.23741812
000180 db 1c d9 3d fe de 28 be 13 2a 84 bd 81 60 49 3e
       0.10601207 -0.16491315 -0.064533375 0.1966572
000190 f3 29 1b 3e 5b 3a d1 3e 0b 88 48 be 19 6d 97 3d
       0.15152721 0.40864834 -0.19583146 0.073938556
0001a0 1d e5 2c 3d 4b d8 34 3e 47 99 ec 3d 36 68 71 3c
       0.042210687 0.17660634 0.11552673 0.0147343185
0001b0 86 e4 99 bc 8c 04 10 3e 0e 4b c6 3e 69 e9 47 be
       -0.018785726 0.14064234 0.38729137 -0.19522633
0001c0 8b 8f 35 3e 50 94 d7 3c da 59 50 be b0 8d 3f 3d
       0.17730539 0.026315838 -0.20346776 0.046765983
0001d0 e5 52 84 be b7 84 7c bb 66 d6 23 3e c6 27 d6 be
       -0.25844494 -0.0038531253 0.15999755 -0.4182722
0001e0 49 9d da 3d 3d 01 d3 be 2d 82 7e be b0 dc 3c bd
       0.10674531 -0.41211882 -0.24854346 -0.0461089
0001f0 3a 7e 69 3e ce 21 31 3e eb a1 32 bd 66 84 9c 3e
       0.22802058 0.17298052 -0.04361145 0.30569762
000200 11 ce d8 bd 27 9e 6e 3c 8f d0 47 be a8 56 0e be
       -0.10586179 0.014564074 -0.19513153 -0.13900244
000210 46 7d 79 3d 93 4b 2f be 6a 8b 7c 3b f6 9c a1 3d
       0.060910486 -0.17118673 0.0038535246 0.07891266
000220 45 51 ce 3e 6d 00 0e 3e 1b f8 f6 bd 85 ac 64 be
       0.4029638 0.1386735 -0.12059041 -0.22331436
000230 3c a5 7b 3d 44 fd d2 3e 57 b5 88 3e ec 88 16 3e
       0.061436877 0.4120885 0.2670085 0.14700669
000240 7e 4c 54 be 1a 37 b3 3d 50 54 5d be eb 1b aa 3c
       -0.20732304 0.08750744 -0.21614194 0.020765265
000250 0b d8 fd bd 02 a4 4c be c9 e6 76 3d 7d 51 8f be
       -0.123947226 -0.19984439 0.060278688 -0.27991858
000260 fe 69 b1 bd 24 bb d3 bd bf 66 07 3d 7e a5 a2 3c
       -0.086627945 -0.103384286 0.03305697 0.019854303
000270 3a 74 2f be 8c 35 61 be 3e 30 91 3e 8f c6 9f bc
       -0.1713418 -0.21993083 0.28357118 -0.01950386
000280 31 87 45 3e 21 88 e2 bd 98 a6 04 3e 8b b3 46 be
       0.19289853 -0.11061121 0.12954175 -0.19404428
000290 58 df 97 3e 31 1c 80 be 1d 3f 26 be 2f 91 1a 3e
       0.29662585 -0.25021508 -0.16235013 0.15094446
0002a0 81 cb 2d be 97 e9 5f 3d 77 eb 88 3d 44 aa 68 bd
       -0.16972162 0.054666128 0.06685536 -0.056803003
0002b0 30 f6 05 3d ff 30 36 3d 52 54 a9 3c 31 9e 8b be
       0.032705486 0.04448032 0.02067009 -0.27269128
0002c0 06 09 35 be 43 dc a3 be 2f 08 be 3e 87 25 7a bd
       -0.17679223 -0.32003984 0.3711562 -0.061070945
0002d0 98 97 29 be 09 b7 a8 be 28 45 5d 3e b3 c9 36 bd
       -0.16561735 -0.32952145 0.21608412 -0.04462595
0002e0 43 1e 25 3e 1e 86 0d 3e 06 7b 0d 3e 40 d4 c0 bd
       0.16124825 0.13820693 0.13816461 -0.094154835
0002f0 ab 53 a1 3e a1 bb af be 0e da 9a 3d b1 52 d6 bd
       0.31509146 -0.34322837 0.07561122 -0.10464991
000300 a9 4e a2 bd 05 6a ed 3b d3 19 6a bd 29 1d 96 3d
       -0.079251595 0.0072453045 -0.057153534 0.073297806
000310 57 dc 27 3e 82 1f da be 86 ed 25 be 16 9e 81 be
       0.16392647 -0.42602164 -0.16203889 -0.25315922
000320 39 16 a0 be 8a 9d ba bd 06 a5 74 bd 1e be 09 3e
       -0.31266955 -0.091120794 -0.05972769 0.1345143
000330 23 a4 4d 3e 37 24 91 be 5d 1a 01 be 33 d4 ce 3d
       0.20082144 -0.28347942 -0.12607713 0.100990675
000340 b8 12 c0 bb 21 30 90 3e bb 01 12 bf 80 67 18 3f
       -0.0058616064 0.2816172 -0.5703389 0.5953293
000350 a9 75 1e 3b 15 74 bd 3d 48 51 42 3e a4 c7 58 3e
       0.0024179018 0.092506565 0.18976319 0.21169907
000360 77 9a e2 3c 03 23 23 bd 5a 1f a2 bc a8 fb 86 3d
       0.027661545 -0.03982831 -0.01979034 0.06590968
000370 23 f3 92 bc 5e ed 03 3f 40 ee de bc b7 74 36 be
       -0.017938202 0.5153407 -0.027213216 -0.1781796
000380 f4 16 1b be 7e c5 b0 be 8b 79 ba bd ff e1 a5 bd
       -0.15145475 -0.34525675 -0.09105214 -0.08099746
000390 a7 be 8e 3e 66 24 1f be dc 56 f1 bd 84 8d 90 3e
       0.2787983 -0.15541229 -0.11784145 0.28232968
0003a0 23 da 9f be a3 c7 05 bd 0c ed a9 3d bb ff 1f 3e
       -0.31221113 -0.03266109 0.08297166 0.15624897
0003b0 d6 10 06 3e db fa ab be 68 2d 11 3e 99 70 80 3d
       0.1309236 -0.33589825 0.14177477 0.06271476
0003c0 4d 13 b3 be 1a ab b7 be 58 45 7e bd 32 21 8d be
       -0.34975663 -0.35872728 -0.06207785 -0.2756439
0003d0 a0 3c ee bd 0d 7b 29 be 62 5f f3 3d bf f3 dc 3c
       -0.11632657 -0.16550846 0.11883427 0.026971696
0003e0 7e 27 69 3d 3d ea 87 3c 8a 84 86 be 9f 59 2a 3e
       0.05692243 0.016591186 -0.26272994 0.1663575
0003f0 fc f3 81 be 70 12 52 be dc ea c2 3c 10 3b 12 3e
       -0.25381458 -0.20514846 0.02379363 0.14280343
