baseline/ckpt/yelp-2/model-87.pt (torch, 82744 bytes, 1 tensors)

roberta.embeddings.word_embeddings.new_embed.weight f4 [20, 1024]
000000 8d a4 90 3e f0 e8 e3 3d e4 8f ce bd 32 4d bd 3a
       0.28250542 0.11128414 -0.10086039 0.0014442562
000010 5d 9c 60 bd 6b 68 78 3e c3 b7 1b be 6a 03 34 3d
       -0.05483662 0.24258582 -0.15206818 0.04394857
000020 6b 2e 87 bd 7a a6 ee 3d 63 ba 8b 3d 7d 4c b0 bd
       -0.066006504 0.11652847 0.0682266 -0.08608339
000030 32 10 52 3d 2d 3f 68 bd 24 fa 59 be 3f 0a 56 bd
       0.051284976 -0.056700874 -0.21286827 -0.052255865
000040 37 62 22 bd 4a 91 a0 be ec 54 04 bd a5 d6 86 be
       -0.039644446 -0.31360847 -0.03230755 -0.26335636
000050 67 2c ce be d7 8a a5 bd 01 78 48 3c 98 cc 74 3e
       -0.4026825 -0.08083122 0.012235642 0.23906171
000060 ed 34 84 bd 27 a4 9b 3d d7 41 96 3b c1 0e 29 bd
       -0.06455407 0.07599669 0.0045854854 -0.041273836
000070 df 2e ab 3d 3f ff c3 3d 32 36 e3 bd 95 4d 95 be
       0.08358549 0.09570169 -0.11094321 -0.29160753
000080 0e 7c 87 be 44 97 2e be 38 9a 6b bd a0 d7 87 be
       -0.26461834 -0.17049891 -0.05752012 -0.26531696
000090 2f 48 87 be 24 47 c6 bc 91 0b 9d be ce 53 1d be
       -0.2642226 -0.024203844 -0.30672887 -0.15364
0000a0 26 31 9f bd 39 a3 9d 3d d6 22 8d 3e 35 6f 4e 3e
       -0.07773046 0.07697148 0.2756564 0.2015961
0000b0 6b a1 d9 be 3d 90 3f be cd 5b eb bd 59 06 98 bd
       -0.42505965 -0.18707366 -0.11492119 -0.07423086
0000c0 ec 51 a5 3d 9d 4b 4a 3e 6c 75 19 be 75 ef 26 be
       0.08072266 0.19755407 -0.14986199 -0.16302283
0000d0 bd 7b 99 3e c1 45 85 3e f4 7d 33 3e 6c e8 31 3d
       0.29977217 0.2602978 0.17528516 0.043434545
0000e0 8d 07 1d be d6 72 c9 3d d9 fc 26 be e9 74 a2 bb
       -0.15334912 0.09836356 -0.16307391 -0.0049577844
0000f0 91 d6 0c 3e 43 4c 87 3e c8 1e e3 3c 75 65 13 be
       0.13753726 0.2642537 0.027724639 -0.14394172
000100 38 fc 82 3e d6 d3 10 3e 50 74 20 3e 32 30 34 be
       0.25583053 0.14143309 0.1566937 -0.1759651
000110 78 83 19 3e 98 49 20 3d 49 ad 51 3e 5c 91 b1 3e
       0.14991558 0.039132684 0.2047626 0.34681213
000120 68 a4 b5 be ec 55 fc bd 97 33 9c bd 55 15 79 bd
       -0.35476995 -0.12321076 -0.076270275 -0.06081136
000130 46 6d 62 be 1b cb a5 be 54 29 da 3d d8 fe 6a bd
       -0.22111997 -0.3238152 0.10652414 -0.057371944
000140 46 55 9c be 37 27 b8 3c 7c f3 0e 3e 06 8b 2b be
       -0.30533808 0.022479637 0.1396007 -0.16752252
000150 5e eb a5 be 6b ed fa 3c f1 a9 77 be b0 83 a3 be
       -0.32406133 0.030630788 -0.24185921 -0.31936407
000160 84 8e 7e 3c ba d0 af 3c 37 ad 2b be 52 0e a3 3d
       0.015536908 0.021461833 -0.16765295 0.07961716
000170 d2 f9 98 3e 00 c2 94 be 0c 0a 9d be d3 ed 8f be
       0.29878098 -0.2905426 -0.30671728 -0.28111133
000180 6f 8c 70 bd e2 7b 0c 3d 85 80 a5 bd 97 09 63 be
       -0.058727678 0.03429783 -0.08081154 -0.22171627
000190 f3 d7 93 bc 71 26 8c be ef 78 4a bd 32 fd 11 be
       -0.018047309 -0.27373078 -0.049431738 -0.14256743
0001a0 28 09 d9 bd 47 48 25 bc b3 2e c4 3d 0c c4 e4 3d
       -0.105974495 -0.010088033 0.0957922 0.111702055
0001b0 9b 65 e2 bd ea 74 48 be e6 f2 01 3e 62 66 43 be
       -0.11054536 -0.19575849 0.12690315 -0.19082025
0001c0 4d 94 2b 3e 65 f7 c5 bd 52 23 9a bd 2b 01 30 3e
       0.16755791 -0.096663274 -0.07526268 0.17187946
0001d0 e7 f4 96 3d 87 55 70 3e eb 32 23 be 69 9d 92 bc
       0.0737093 0.23470126 -0.15937392 -0.017897325
0001e0 be d9 be 3b 3d 03 6d be f4 9e 88 be c0 cb 8b bd
       0.0058242967 -0.23145767 -0.26683772 -0.068259716
0001f0 ae bf 69 bd 4b ca ab 3e a9 f7 63 bd 14 d6 d2 3e
       -0.057067566 0.33552775 -0.05565611 0.41178954
000200 f5 67 94 3d b2 63 41 3d ce 68 16 be a3 5e 97 3d
       0.07246391 0.047214217 -0.14688417 0.073910974
000210 e3 9f 5c 3e 9f be 22 be 0f 28 13 be aa 0f 21 3e
       0.21545367 -0.15893029 -0.1437075 0.15728632
000220 2a 34 c7 bd 0f dd df bc 77 4b 8d bc e4 f6 b2 bc
       -0.097267464 -0.027327089 -0.017247899 -0.021846242
000230 1d e7 b9 be e2 49 fa bd 23 b3 39 be 10 8d f8 3c
       -0.36309138 -0.12221123 -0.18134741 0.030340701
000240 c9 0a f7 3c 40 0b 88 be a1 72 94 be ed 02 6c 3d
       0.03015651 -0.26571083 -0.28993705 0.057619978
000250 35 73 8a bc e7 e0 49 3d 9c 1a 4b 3e b8 d5 97 3e
       -0.016900638 0.04928675 0.1983437 0.29655242
000260 98 fb 8d bd e6 62 80 be d7 0f 4f bd 67 2f df 3c
       -0.06932753 -0.25075454 -0.050552215 0.027244283
000270 5e f0 91 3d b8 0d 77 3d f9 c8 48 3d 7f f5 c2 bd
       0.071259245 0.060315818 0.049019787 -0.09519481
000280 64 7d cc be 1b ce 29 3d 65 0b 84 bd b8 ba 46 be
       -0.39939415 0.041456323 -0.06447486 -0.19407165
000290 2b 58 56 bd ee 3a 4f 3e 14 5b 8c be 45 b5 19 3e
       -0.052330177 0.20237324 -0.27413237 0.15010555
0002a0 c6 b3 98 be b7 9b af be ff c5 39 3e ad bd 08 ba
       -0.29824656 -0.34298488 0.18141936 -0.0005216252
0002b0 c4 6c 42 bd e7 ef 24 3e b3 ad 1b 3e 12 d9 21 be
       -0.04746701 0.1610714 0.1520298 -0.15805462
0002c0 cc 81 ed 3d 45 c0 d5 3c 1d 8a 71 3e f5 44 98 bd
       0.115970224 0.026092658 0.23587842 -0.074350275
0002d0 8f 92 87 bd 53 15 e3 bd f4 3d 81 3e 20 58 33 be
       -0.06619751 -0.11088052 0.2524258 -0.17514086
0002e0 ff 32 40 3e 39 72 f8 bc 6b 29 15 3e c1 03 2e 3d
       0.18769453 -0.030327903 0.14566581 0.04248405
0002f0 e7 96 a9 3e 6f 13 4d bc b9 b5 a6 3d 2d e9 7b bd
       0.33122942 -0.01251684 0.081401296 -0.06150167
000300 83 f1 88 3d 01 6a b0 3d fc ed 04 3e 5a e9 c5 bd
       0.0668669 0.08613969 0.12981409 -0.09663649
000310 fa e0 74 bd 23 56 89 be 63 58 f6 bd 63 98 c6 3d
       -0.059784867 -0.2682353 -0.12028577 0.09697034
000320 30 81 88 bd 90 96 f3 3c 54 18 42 bd cf 43 ae bd
       -0.066652656 0.02973488 -0.047386482 -0.08509027
000330 45 dc b8 3d 82 e2 f1 3d 74 3c c9 bd 0d a2 cf bd
       0.09026388 0.11810781 -0.09825984 -0.101383306
000340 7b b3 ad bd bd 91 d5 3c 86 02 b7 3d 3a b5 c6 3e
       -0.08481499 0.02607047 0.08936028 0.3881014
000350 b1 5d ea bd de 74 0f be 59 5d 6c 3e 97 32 89 bd
       -0.114436515 -0.14009425 0.23082484 -0.06699102
000360 9f 19 a9 bd 7c 19 10 3e dd d9 dc bd 50 b9 26 3e
       -0.0825684 0.14072222 -0.107837416 0.16281629
000370 35 12 8f 3d 92 9c c1 3e ff d4 64 3d 26 14 c6 bd
       0.069858946 0.37814766 0.05586719 -0.09671812
000380 aa 79 b0 3d ba 26 b9 bd f6 20 bb bd ba 05 f0 3d
       0.086169556 -0.0904059 -0.09137146 0.11719842
000390 18 99 87 3e c4 42 21 3e 76 e3 1e be db f2 0e bd
       0.2648399 0.15748125 -0.15516457 -0.034899574
0003a0 e1 16 0b be 46 c9 42 3e fb 6a cc 3c 36 f9 8f 3e
       -0.13582946 0.19022092 0.024953356 0.2811982
0003b0 c0 00 ae 3d 9f aa 1f be 9f f5 0e bc 58 9f 5c 3e
       0.08496237 -0.1559243 -0.008725553 0.2154516
0003c0 c2 5e 5f be 0b 37 43 bd ce 55 5c be f9 5c 22 be
       -0.21813491 -0.047659915 -0.21517107 -0.15855779
0003d0 5c e5 42 bd 40 3e ba 3d 7a ab 01 3d 13 16 c6 bd
       -0.047582015 0.090939045 0.031657673 -0.09672179
0003e0 96 c0 8f 3d ae 62 34 3d 7a d3 af bc d8 bb 59 3d
       0.07019155 0.04403942 -0.021463145 0.053157657
0003f0 bb d2 8e bc 0e 46 12 be 9d 42 cc bc 65 aa b5 bd
       -0.017434468 -0.14284536 -0.024934107 -0.08870391
