baseline/ckpt/yelp-2/model-100.pt (torch, 82744 bytes, 1 tensors)

roberta.embeddings.word_embeddings.new_embed.weight f4 [20, 1024]
0	0xbea6c846	-0.32574672
1	0xbd26b334	-0.040698245
2	0xbded06cb	-0.11573561
3	0x3f176be1	0.59148985
4	0x3dae1db3	0.085017584
5	0x3dd9d1e9	0.1063574
6	0xbd64e873	-0.055885743
7	0xbf03cbb0	-0.5148268
8	0xbf081b15	-0.53166324
9	0x3e78960c	0.24275988
10	0xbd7b20f8	-0.06131074
11	0xbe29a723	-0.16567664
12	0x3dbb0338	0.09131473
13	0x3e8c918a	0.27454787
14	0x3df5e2d0	0.12006152
15	0xbe90cad9	-0.2827976
16	0xbc685924	-0.014181409
17	0x3d61861c	0.055059537
18	0x3d265acf	0.040613946
19	0xbeec2b3d	-0.46126738
20	0xbeeb1f90	-0.45922518
21	0xbe4271b9	-0.18988694
22	0xbe9df2c3	-0.30849275
23	0xbe41158f	-0.1885588
24	0xbd94c426	-0.07263975
25	0xbe0d82e1	-0.13819458
26	0xbe0a21d8	-0.13489473
27	0xbe5a119a	-0.21295777
28	0xbeb43569	-0.35197
29	0xbe86b7c3	-0.26312074
30	0x3ee696cb	0.4503692
31	0x3cf963eb	0.030443152
32	0xbc2f13fb	-0.010685916
33	0x3e826fbd	0.25475875
34	0xbd6b8565	-0.05750026
35	0x3ec0c1dc	0.37647903
36	0x3ee1b08d	0.4408001
37	0x3ea87bbe	0.32906908
38	0x3e9e5ba4	0.3092929
39	0x3da7f39f	0.08200764
40	0x3dd558ad	0.10417304
41	0x3db285a9	0.087169
42	0x3e8781af	0.26466128
43	0x3d9ba8a1	0.07600523
44	0x3ea8caca	0.32967216
45	0xbe9ad4c1	-0.30240443
46	0x3e7436ef	0.2384908
47	0xbef76489	-0.4831889
48	0x3e038d1a	0.12846795
49	0x3e51573b	0.20443432
50	0x3de9c13a	0.11413808
51	0x3e9a135a	0.3009289
52	0xbd8b1685	-0.06791405
53	0x3e9ac1eb	0.30226073
54	0xbec21823	-0.3790904
55	0xbcd286d7	-0.025699062
56	0xbd457a0d	-0.0482121
57	0x3ee24dcf	0.44199988
58	0xbeed1935	-0.46308294
59	0x3e60515b	0.21906035
60	0xbda25c69	-0.07927782
61	0xbef59ee0	-0.47972775
62	0xbe349acc	-0.17637175
63	0xbe33c8e5	-0.17557104
64	0x3e6040b3	0.21899681
65	0x3e8d0c82	0.27548605
66	0x3e81eeb9	0.25377443
67	0xbe3e9d0c	-0.18614596
68	0x3cf7e966	0.03026266
69	0x3da2d0e0	0.07949996
70	0x3dd9ed8a	0.1064101
71	0xbe8e1ca6	-0.27756232
72	0xbe8d0549	-0.27543095
73	0x3e47688a	0.19473472
74	0xbe6a88d5	-0.2290376
75	0x3e4118d6	0.1885713
76	0x3dc4b733	0.09605255
77	0xbcc02124	-0.023453303
78	0xbf1b8e5c	-0.607641
79	0x3dd5bdfe	0.10436629
80	0xbe7fa4ae	-0.24965164
81	0x3dac319c	0.084079
82	0x3ef04da6	0.4693424
83	0x3dc47d57	0.09594219
84	0x3da3ba02	0.079944625
85	0x3cc155a8	0.023600414
86	0x3eaa992e	0.33319992
87	0x3d3e1870	0.046410024
88	0xbbbb8a7b	-0.0057232953
89	0x3d3822aa	0.044954933
90	0x3cf8c2ae	0.030366268
91	0xbe838f3b	-0.25695214
92	0x3e55ac69	0.2086655
93	0xbebe6d41	-0.3719273
94	0xbe186551	-0.14882399
95	0xbe343e2a	-0.17601839
96	0xbe849832	-0.25897366
97	0x3d5b3cca	0.05352477
98	0xbe914f31	-0.2838073
99	0xbe55b8a1	-0.20871212
100	0xbe4e0e0d	-0.20122547
101	0x3e0eb7cb	0.13937299
102	0xbdb3baea	-0.087758854
103	0x3e8be69a	0.27324373
104	0xbd5c60ce	-0.053803258
105	0xbd4abaee	-0.049494676
106	0x3e733fa0	0.2375474
107	0x3d312481	0.043247703
108	0xbed8278f	-0.4221768
109	0xbe8e5558	-0.27799487
110	0xbeb46423	-0.35232648
111	0xbec337b5	-0.3812844
112	0x3e54545c	0.20735306
113	0xbdb2cfb2	-0.08731021
114	0x3da990a1	0.08279539
115	0xbe7fb9cc	-0.2497322
116	0x3ea2320d	0.3167881
117	0x3eae6e86	0.34068698
118	0xbe810ace	-0.25203556
119	0xbe566893	-0.2093833
120	0x3ef4ab8a	0.47787124
121	0x3df1e0ec	0.118104786
122	0x3ed9010f	0.4238362
123	0xbf1a01da	-0.60159075
124	0xbe723241	-0.23651983
125	0x3e6d6f6b	0.23187034
126	0xbeb1d5d4	-0.3473345
127	0x3dbf9345	0.09354261
128	0x3e2481cf	0.16065143
129	0xbd992d16	-0.074793026
130	0x3e193e68	0.14965212
131	0xbf264c00	-0.64959717
132	0x3eb0522e	0.34437698
133	0xbdbafbae	-0.09130035
134	0x3d961684	0.07328513
135	0xbea40848	-0.32037568
136	0xbe4d3cf4	-0.20042783
137	0xbe1f2671	-0.15542008
138	0xbd362188	-0.04446557
139	0x3ee38f65	0.4444534
140	0xbe9d7314	-0.3075186
141	0x3e98a644	0.2981435
142	0xbdabad15	-0.08382622
143	0x3d9cf98b	0.07664784
144	0xbeb708d3	-0.3574892
145	0xbc5dc832	-0.0135365
146	0x3cc2da5a	0.023785759
147	0xbddc0bc1	-0.107444294
148	0x3d2032aa	0.039110817
149	0xbe1eb2b3	-0.15497856
150	0x3dd0b609	0.101909705
151	0x3da9567b	0.08268448
152	0xbe890ee8	-0.26769185
153	0x3e2ab1ae	0.16669342
154	0xbea72274	-0.32643473
155	0xbe886dd5	-0.26646295
156	0xbea98502	-0.3310929
157	0x3e3abf00	0.18236923
158	0x3e69772a	0.22799364
159	0xbdb452b1	-0.08804835
160	0xbe6e53d8	-0.23274171
161	0x3e167420	0.14692736
162	0x3e1edfe3	0.15515094
163	0xbd3393c1	-0.04384208
164	0x3e13f56f	0.14449094
165	0x3e12c7b2	0.1433399
166	0xbefa0bc5	-0.48837104
167	0xbeb4b54b	-0.35294566
168	0x3d87f290	0.06638062
169	0x3ddf9622	0.109173074
170	0x3e399f8b	0.18127267
171	0x3c512ca2	0.012766989
172	0x3ea3744f	0.31924674
173	0xbeb53358	-0.35390735
174	0xbd90e745	-0.07075361
175	0x3e285c33	0.16441421
176	0x3e03a2ee	0.12855121
177	0x3d3fb830	0.046806514
178	0x3e7673a7	0.24067555
179	0xbd3414ae	-0.043965034
180	0x3e885142	0.26624495
181	0xbc5e270f	-0.013559117
182	0xbdfd29cb	-0.12361487
183	0xbe866353	-0.26247653
184	0xbd7fcf51	-0.06245357
185	0xbed2a913	-0.41144618
186	0x3e7178aa	0.23581186
187	0xbe9d44d0	-0.30716562
188	0x3da1dc04	0.07903293
189	0xbddc9aa4	-0.10771683
190	0xbd18b0f6	-0.037278138
191	0xbc8503b9	-0.016237127
192	0xbe1af5fc	-0.15132898
193	0x3ef96562	0.4871016
194	0xbc66f721	-0.014097006
195	0xbe2973da	-0.165481
196	0x3ec6953e	0.38785738
197	0xbf184f36	-0.59495866
198	0xbe96e3d2	-0.29470688
199	0xbece7a28	-0.40327573
200	0xbe76b358	-0.24091852
201	0x3ea3df92	0.32006508
202	0xbe723eac	-0.2365672
203	0x3e6222c1	0.2208357
204	0xbe1ea7ca	-0.15493694
205	0x3eb297d9	0.34881476
206	0x3e61f6ea	0.22066846
207	0xbeac88bd	-0.33698073
208	0x3dbc4daa	0.09194501
209	0x3ebeaa77	0.3723943
210	0x3d01f38b	0.0317264
211	0x3e044697	0.12917553
212	0x3e02dc7d	0.12779422
213	0xbe9c6019	-0.30542067
214	0x3e77498f	0.24149154
215	0xbd6a69ca	-0.057229795
216	0xbe4d00a8	-0.20019782
217	0x3e05341b	0.13008158
218	0xbebb4ef6	-0.3658368
219	0xbe047e2c	-0.12938756
220	0xbede3615	-0.43400636
221	0xbe03543c	-0.12825102
222	0xbe1a996f	-0.15097593
223	0xbd347b93	-0.044063162
224	0x3def65f5	0.11689369
225	0xbe6b0be9	-0.22953762
226	0xbea5ef90	-0.32409334
227	0x3e627fc7	0.22119056
228	0xbc8d2c52	-0.017233048
229	0x3edc9c1a	0.43087846
230	0xbeeb172a	-0.4591611
231	0x3d998872	0.07496728
232	0xbd4c5da6	-0.049893998
233	0xbe835545	-0.25650993
234	0xbe88a400	-0.26687622
235	0x3d92566f	0.07145392
236	0xbdcb8275	-0.09936992
237	0x3e93f1b3	0.2889534
238	0xbdc17821	-0.09446741
239	0x3e628d57	0.2212423
240	0x3e7253b6	0.23664746
241	0xbe8b67ca	-0.27227622
242	0xbcfad7ad	-0.03062042
243	0x3e2eefca	0.1708366
244	0xbdd0ff82	-0.10204984
245	0x3ed72935	0.42023626
246	0x3a85c73b	0.001020647
247	0x3ba16aa5	0.004926043
248	0xbea7c204	-0.3276521
249	0x3e29c007	0.16577159
250	0xbe96e4ab	-0.29471335
251	0x3e48e4e4	0.19618565
252	0xbdce7015	-0.10079972
253	0x3e8dcb4f	0.27694175
254	0xbe8b1f4d	-0.27172318
255	0x3f2b7795	0.6697934
