baseline/ckpt/yelp-2/model-21.pt (torch, 82744 bytes, 1 tensors)

roberta.embeddings.word_embeddings.new_embed.weight f4 [20, 1024]
0	0x3d2197bf	0.039451357
1	0x3e29a2c0	0.1656599
2	0x3e644480	0.22291756
3	0xbebf950b	-0.37418398
4	0x3dce5912	0.100755826
5	0x3ef4772b	0.47747168
6	0xbe9c6104	-0.30542767
7	0xbe88ddc4	-0.26731694
8	0xbe1a7ac6	-0.15085897
9	0xbd9e7a1f	-0.077381365
10	0x3d17d594	0.03706892
11	0xbee0665e	-0.438281
12	0xbd38078c	-0.044929072
13	0x3e21bc36	0.15794453
14	0xbe0ba6dd	-0.13637872
15	0xbe5bceb2	-0.21465567
16	0xbd5d81a4	-0.054078713
17	0xbe4e6f7f	-0.2015972
18	0x3dbbe1f7	0.09173959
19	0x3da7cfe0	0.08193946
20	0xbe816dea	-0.2527917
21	0xbeb4abf1	-0.3528743
22	0xbe8eac61	-0.2786589
23	0x3e8ecb64	0.2788955
24	0xbe90fd70	-0.28318357
25	0x3d8543a7	0.06507044
26	0x3df47ae8	0.11937505
27	0xbecadabd	-0.3962001
28	0x3de4da5a	0.1117446
29	0x3dcfc700	0.10145378
30	0x3e157bbe	0.14597985
31	0xbd3232f3	-0.04350562
32	0x3be65d18	0.0070301406
33	0xbd8ffb7f	-0.07030391
34	0x3ca7a3e7	0.020463897
35	0xbe4b690b	-0.1986429
36	0xbc89379d	-0.016750151
37	0x3e510327	0.20411359
38	0xbe5dd985	-0.21665008
39	0xbeca32e1	-0.39491943
40	0x3e8f298a	0.2796138
41	0x3da8a273	0.0823411
42	0x3e765234	0.24054796
43	0x3da43d68	0.08019525
44	0x3c637a06	0.013884073
45	0x3cfe775a	0.03106277
46	0x3b9b233a	0.004734424
47	0xbeacfd6e	-0.33787102
48	0xbbb25955	-0.005442778
49	0x3d953a01	0.07286454
50	0x3d9210d9	0.0713212
51	0xbc152181	-0.009102226
52	0xbd6973f8	-0.056995362
53	0x3cce9f46	0.025222432
54	0x3e154abc	0.1457929
55	0x3d0e16ac	0.03468959
56	0xbe279acd	-0.16367646
57	0x3c16570c	0.009176027
58	0xbd61b051	-0.05509979
59	0xbd841e6a	-0.064511135
60	0x3e36fc5e	0.17869708
61	0x3e018b87	0.12650882
62	0x3e0ce18c	0.13757914
63	0xbf12b626	-0.57309186
64	0x3e900ca9	0.2813466
65	0x3c9a7347	0.018853797
66	0xbcad065a	-0.021121193
67	0xbe802273	-0.25026283
68	0x3d9f6601	0.077831276
69	0xbcd69ec9	-0.026198762
70	0xbe3643d6	-0.17799315
71	0x3e57d5f6	0.21077713
72	0xbe5487f8	-0.20754993
73	0xbe332636	-0.17495045
74	0xbcfa78e5	-0.030575225
75	0x3e259e57	0.16173683
76	0x3e803f01	0.25048068
77	0xbe4d606a	-0.2005631
78	0x3e3c50cd	0.18390198
79	0x3d2a66a6	0.0416018
80	0x3dd717a7	0.10502558
81	0x3c610c96	0.013735911
82	0x3e4fd8b2	0.20297506
83	0x3e9ff482	0.31241232
84	0xbcc39127	-0.023872925
85	0xbe029075	-0.12750418
86	0xbdb1900d	-0.08670054
87	0x3e10e842	0.141511
88	0xbc8c2193	-0.017105853
89	0xbdfa3088	-0.12216288
90	0xbe2ff65b	-0.17183821
91	0xbe58183b	-0.21102993
92	0xbe310791	-0.17288043
93	0xbeedc76d	-0.46441212
94	0xbe20676b	-0.15664451
95	0x3df7d946	0.121019885
96	0x3e47a61b	0.19496958
97	0xbd7ad22a	-0.061235584
98	0xbdf3e4d8	-0.11908883
99	0x3d95358e	0.07285605
100	0x3e4fd213	0.2029498
101	0xbe35ff76	-0.17773232
102	0xbe61dc4e	-0.22056696
103	0x3e2eb2a5	0.17060335
104	0xbd96c98e	-0.07362662
105	0xbeaca077	-0.33716175
106	0xbd10a42f	-0.035312828
107	0x3e1eb527	0.15498792
108	0xbdcc3a75	-0.09972087
109	0xbdb70f45	-0.08938459
110	0x3ca5d32d	0.020242298
111	0xbe7d1946	-0.24716672
112	0x3dad0ead	0.08450065
113	0xbde6b5ec	-0.112651676
114	0xbe46cf8a	-0.19415107
115	0x3ea74496	0.32669514
116	0xbd887ef5	-0.0666484
117	0xbd95b61d	-0.07310126
118	0xbe61ec07	-0.22062694
119	0x3e267cc8	0.16258538
120	0xbe7d606a	-0.2474381
121	0x3c8de112	0.017319236
122	0x3db7b0c3	0.089692615
123	0x3e7780bd	0.24170204
124	0xbd8aa80a	-0.06770332
125	0xbe33a35a	-0.17542782
126	0x3e4ff9c8	0.20310128
127	0xbdcb1941	-0.09916926
128	0x3e6999f1	0.2281263
129	0xbd3fd7ff	-0.04683685
130	0xbe1c9108	-0.152897
131	0x3d2f406a	0.04278604
132	0x3e9bae15	0.30406252
133	0x3ddab221	0.10678507
134	0xbd4e05df	-0.050298568
135	0xbe3d5e62	-0.18493035
136	0x3df183bc	0.117927045
137	0x3d90ad28	0.07064277
138	0xbb85e5eb	-0.0040862462
139	0xbd037ed7	-0.032103386
140	0x3e0d22e4	0.13782841
141	0x3dd17490	0.10227311
142	0xbd949b90	-0.07256234
143	0xbe80f9c2	-0.2519055
144	0xbe9337d6	-0.28753537
145	0x3ce293eb	0.027658423
146	0xbc9f50a3	-0.01944763
147	0xbd220f02	-0.039565094
148	0xbf00c500	-0.503006
149	0xbd65a092	-0.056061335
150	0xbcf0e512	-0.029406104
151	0xbdd61b79	-0.10454459
152	0xbee0608d	-0.43823662
153	0xbe755498	-0.23958051
154	0xbecf5627	-0.40495417
155	0x3d4fb92e	0.05071371
156	0xbe14724d	-0.14496727
157	0x3b7d8eae	0.003868978
158	0xbe2bd8f7	-0.16781984
159	0x3dd3f454	0.10349336
160	0xbe6203cf	-0.22071765
161	0xbe27c25f	-0.1638274
162	0x3e0ff239	0.14057244
163	0xbd8f31e1	-0.069919355
164	0xbec19f35	-0.37816778
165	0xbede4c75	-0.43417707
166	0x3e661587	0.2246915
167	0xbcef535b	-0.029214552
168	0xbd0e7c12	-0.03478629
169	0xbd0da228	-0.034578472
170	0x3e5b470a	0.21413818
171	0xbd6413aa	-0.055682816
172	0x3d8ba20b	0.068180166
173	0xbe1c706f	-0.15277265
174	0xbeb79ea3	-0.35863218
175	0xbec24e73	-0.37950477
176	0x3e18520f	0.14875053
177	0x3d77ce79	0.060499642
178	0x3e87082d	0.26373425
179	0xbdf74de3	-0.120754026
180	0xbec5803f	-0.38574407
181	0xbe7228d7	-0.23648392
182	0xbe47fc19	-0.19529761
183	0xbba635a4	-0.0050723124
184	0x3d07c761	0.033149127
185	0x3e23abb6	0.15983471
186	0xbc34b7ca	-0.011030147
187	0x3e03227e	0.12806126
188	0xbe996d48	-0.29966187
189	0x3e9c0094	0.3046919
190	0xbe3c13b9	-0.18366899
191	0x3d8686fa	0.065687135
192	0xbe8e4215	-0.27784792
193	0x3e044be2	0.12919572
194	0x3d33253b	0.043736678
195	0x3e029966	0.1275383
196	0xbd844af5	-0.064596094
197	0x3dd352ae	0.10318504
198	0xbdd80622	-0.10548045
199	0xbe18830c	-0.1489374
200	0xbd6cb408	-0.05778888
201	0xbe532856	-0.20620856
202	0x3dcf9fd2	0.10137905
203	0x3e3ebe2a	0.1862723
204	0x3db5b5c0	0.08872557
205	0x3e137f48	0.14404023
206	0x3df378a6	0.11888246
207	0x3c130be4	0.008975003
208	0xbd67f24b	-0.056627553
209	0xbdfac230	-0.122440696
210	0xbe592f8e	-0.21209547
211	0xbd1351fb	-0.035966855
212	0x3e9c2903	0.3050004
213	0x3e074a60	0.13211966
214	0x3f195101	0.5988923
215	0xbe0cfbfd	-0.13768001
216	0xbeac57ea	-0.33660823
217	0x3e1ebaaf	0.15500902
218	0x3deccdb2	0.11562671
219	0x3d182ed9	0.037154052
220	0xbdb012af	-0.085973136
221	0x3df633d8	0.12021607
222	0x3de0292a	0.109453514
223	0xbdaef45f	-0.08542704
224	0x3dc73f80	0.097289085
225	0xbe36e7bc	-0.17861837
226	0x3e18a924	0.14908272
227	0x3e03fea7	0.12890111
228	0x3efa1b1c	0.48848808
229	0x3ef734e9	0.48282555
230	0x3e8a8183	0.27051935
231	0x3e3b5c45	0.18296917
232	0xbecbd8d3	-0.3981386
233	0xbed180d6	-0.40918607
234	0x3f063052	0.5241748
235	0x3e2f2cd3	0.17106943
236	0xbdd784cd	-0.105233766
237	0xbead601c	-0.33862388
238	0x3dec3460	0.11533427
239	0x3e95241d	0.29129115
240	0xbdc75f62	-0.0973499
241	0x3e4b598b	0.19858377
242	0x3dde523b	0.10855528
243	0xbea037c3	-0.31292543
244	0xbda7ba8e	-0.08189879
245	0x3eddb083	0.4329873
246	0xbd3acdb0	-0.045606315
247	0xbcc98649	-0.024600165
248	0xbe236063	-0.15954737
249	0x3e88ec4a	0.26742774
250	0xbe7eeee4	-0.24895817
251	0xbde90edf	-0.113797896
252	0x3e1eebed	0.15519686
253	0x3a0b1901	0.0005306155
254	0x3e88179f	0.2658052
255	0xbb8493fb	-0.004045961
