baseline/ckpt/SST-2/model-87.pt (torch, 82744 bytes, 1 tensors)

roberta.embeddings.word_embeddings.new_embed.weight f4 [20, 1024]
00000000: 6101 b53d d932 24be 072e f8bd 3db9 d53c
00000010: b864 bfbd 4028 c1bc 6c55 393d caf3 0bbe
00000020: 1db0 91bc 3faf ea3d f471 703e 327a a93c
00000030: 8c80 e33e d8ed 993d 42f7 d4bd 789c a13e
00000040: 351c 783e 3ec0 4c3e 6503 27bd 9ff0 bbbe
00000050: 2ab0 e7bd df0d 4ebd 8841 90be fece 2d3e
00000060: ec37 5e3e c2fe 213e aff9 97bd 947f 19be
00000070: a26f 6d3c d3e5 593e 035b 903c 086b 8fbe
00000080: 8b24 17bd a683 68be b6ce 9b3d c2c9 073c
00000090: ae0c b53d 1c85 953e 747a 54be 390a dabc
000000a0: dba4 753d 192a 633e c452 a33e 30d3 18bd
000000b0: ec9f 7a3d 1b20 1bbe 499b 54be 2d4c 473b
000000c0: 5f78 b33d 1314 123e cf85 81bd f7ef 3dbe
000000d0: aeaf b63e 4d82 833e d47b fcbc 1f1a 22be
000000e0: 525e 9bbd 731c 44bb f1ff bebd fd4c 0e3e
000000f0: f142 cd3d 91f1 3d3e 9553 69be 65f9 d5bd
00000100: d9f7 cb3d e44d 7bbd 6bda 11be 176b 49bd
00000110: 3d72 fa3d 514e 19be 9f71 aabe e111 003e
00000120: 158f 98bd cbc9 74be 478c fb3d 8d62 adbe
00000130: 84ee d13c 44a5 f9bd a402 813d b0ed 78be
00000140: 6e24 52be 47db 3d3e a661 353d 36fb c7bc
00000150: a3a7 413d c952 c4bc 2b23 e5bd 6fd0 06bd
00000160: 01b1 75bc fc2b a8be 2cc1 48be 6234 c7bd
00000170: 12f7 65bd 6940 8ebe 2403 67be f3f5 9f3e
00000180: d109 66bd 071e bcbd f64b 723c e93a 5ebd
00000190: 28a9 453e df05 09be 6c40 343e ed67 a0be
000001a0: 165a 7dbe 4c51 353e 0cc2 603e 53b4 76bc
000001b0: 82c4 aebd 4981 b83e c4b9 3dbe 7946 76be
000001c0: bba8 383e a17d 053e 4d0b 98be 49d9 77bd
000001d0: 08bc f33c 440c f73d 86e7 b03d c3d0 433e
000001e0: 1bf5 de3c 8f13 0dbe 427d 4c3d 6ce4 3dbd
000001f0: 0981 dcbd 24b6 823e 16fb 653e e5cd 62bd
00000200: c340 463d abc8 06bd 3db0 d83c 81b1 1a3e
00000210: 1d32 68be e41a 3bbe 3534 f03d 4490 393e
00000220: a3c5 fe3d 2b78 273e 3a3a 9abd c3aa 213d
00000230: 259a 03be 6dc9 1d3e acd9 30be 896f ae3c
00000240: 795e b23e 14cc 573e 91e6 8e3d 4be0 ac3e
00000250: c524 fcbd 96d2 0b3e 7922 f03c 153e 8abe
00000260: c547 68bd eb9d 35bd 8ab9 a1bd c67d b8be
00000270: 280b 913c 7e79 84be dcb7 9a3e 5748 e03c
00000280: 0c4f 963e 3f42 893d 22a4 e4bd d402 8abe
00000290: 84e0 ab3c 3ab4 ebbd 730b b2bd 68cb 713d
000002a0: 6750 ee3d 14c6 7e3d f8ce c53d 28a9 a3bd
000002b0: 9983 a13d 4ad2 b4be 8051 1ebc 6513 213e
000002c0: 48df 48be 677c a7bd d913 f13c 4eaf e13e
000002d0: b1c2 6bbe aaf7 0cbe 7c5b 1cbe 1dca 8ebe
000002e0: 58fe 1e3e a593 a2bc 22e7 8e3d 75b2 11be
000002f0: aa49 503e 92da ebbd c8d9 273d 65ea 14be
00000300: f29b 32bd b922 a93e e2ce c3bc bdd3 32be
00000310: 2470 223e 77e2 1ebe c3e4 d8bd d9df 12bf
00000320: ee61 b93d f18d 1abe b8a4 2bbe 2532 fdbd
00000330: 2d25 2bbe 4a1d f93d 2c1a 14be a913 523e
00000340: ede5 04bd c210 4e3e 6845 2dbe 815c fb3e
00000350: 0f99 0e3e e93b c53d 6dc3 313e 11c4 d9bd
00000360: 47c3 4abe 5dbc 1e3c dfee 55be e6ac d3bd
00000370: 8c89 debe 2e2f 543e 99c8 b0bc 6870 42be
00000380: 2a80 1bbe 159a e3bc 41f1 9b3d 7380 19be
00000390: b05f 473e de9c b23d e7ae 1ebe 17b2 623e
000003a0: 5125 ac3c c368 57bd f314 583e 3668 1f3e
000003b0: 4d2e a3bc 4ebc 1dbe b4dd 123e 9637 ae3e
000003c0: 9a01 2fbd 17a6 a73d d978 b13d 4937 d23b
000003d0: 8e1b bb3d b4a8 a6be 7b6d 983e b484 de3d
000003e0: 750e f0bc 3d5f e33d 7d2d 013e 4f58 b23e
000003f0: 1eb3 f3bd f81a 6ebe 5d43 a53e 358d 59be
0.08838154 -0.16035022 -0.12118154 0.026089305 -0.093453825 -0.023578763 0.04524748 -0.13667217
-0.017784173 0.11459207 0.2348097 0.02068815 0.4443401 0.07516068 -0.10398723 0.3156469
0.2422951 0.1999521 -0.04077472 -0.36707017 -0.113128975 -0.050306197 -0.28174996 0.16973493
0.2170102 0.15819839 -0.0742067 -0.14990073 0.014491947 0.21279077 0.017621523 -0.28011346
-0.036900084 -0.2270647 0.07607786 0.008287849 0.08840309 0.29203117 -0.20749837 -0.026616203
0.05997167 0.22184028 0.31899083 -0.03731078 0.06118767 -0.15148966 -0.20762362 0.0030410395
0.08763193 0.1426547 -0.0632435 -0.1854857 0.35680908 0.2568535 -0.030820765 -0.15830277
-0.075863495 -0.0029924184 -0.09326161 0.13896556 0.10022534 0.18549182 -0.2278579 -0.10447959
0.099593826 -0.06135358 -0.14243476 -0.049174394 0.122288205 -0.14971282 -0.3328981 0.1250682
-0.07449166 -0.23905103 0.12282615 -0.3386425 0.025626428 -0.12189725 0.06299332 -0.2430942
-0.2052171 0.18540679 0.044282578 -0.024411779 0.04727901 -0.023965256 -0.111883484 -0.03291362
-0.014995814 -0.32846057 -0.19604939 -0.09726788 -0.056143828 -0.27783516 -0.22559792 0.31242332
-0.056161705 -0.09185415 0.014788618 -0.0542554 0.19302809 -0.13381146 0.176027 -0.3132929
-0.24741396 0.17706794 0.21949023 -0.015057641 -0.08533575 0.36036137 -0.18527895 -0.2405032
0.18033116 0.13036205 -0.29696122 -0.060509954 0.029752746 0.12062886 0.086379096 0.19122605
0.027216485 -0.13776992 0.049924143 -0.04636042 -0.10766799 0.25529587 0.22459063 -0.055372138
0.048401605 -0.032906216 0.026451224 0.15106775 -0.22675367 -0.18271977 0.11728708 0.18121439
0.1244004 0.16354434 -0.07530637 0.03946949 -0.1285177 0.15408869 -0.17270535 0.021293418
0.34837702 0.21073943 0.06977571 0.33764872 -0.12311701 0.13654551 0.029313313 -0.2700049
-0.05670907 -0.044340055 -0.07896717 -0.36033458 0.017705515 -0.2587394 0.302184 0.027378244
0.29357183 0.067020886 -0.11164118 -0.26955283 0.02098108 -0.11508985 -0.0869359 0.059031874
0.11636429 0.06220062 0.09658617 -0.07991248 0.078864284 -0.35316688 -0.009662986 0.15730055
-0.19616425 -0.08178025 0.02942841 0.4407906 -0.23023488 -0.13766351 -0.15269274 -0.27888575
0.15526712 -0.019845793 0.06977679 -0.14228232 0.203406 -0.11516298 0.040979177 -0.1454254
-0.043605752 0.33034304 -0.02390236 -0.17463584 0.15863091 -0.15516077 -0.10590508 -0.57372814
0.09051882 -0.15093209 -0.16762054 -0.1236308 -0.167134 0.121637896 -0.14463109 0.20515312
-0.032445837 0.2012358 -0.16921008 0.49094012 0.13925575 0.096305676 0.17359705 -0.106331
-0.19801055 0.009688464 -0.20891903 -0.10335712 -0.43464315 0.20721123 -0.021580027 -0.18988192
-0.1518561 -0.027783433 0.07614375 -0.14990406 0.19470096 0.08721326 -0.15496407 0.22138248
0.021013888 -0.052590143 0.21101741 0.15567097 -0.019919539 -0.15403864 0.14342386 0.34026784
-0.042726137 0.08185976 0.08665628 0.006415282 0.09136115 -0.32550585 0.29771027 0.10865155
-0.029303769 0.1110215 0.12615009 0.34833 -0.11899398 -0.23252475 0.32277957 -0.21245272
