baseline/ckpt/SST-2/model-21.pt (torch, 82744 bytes, 1 tensors)

roberta.embeddings.word_embeddings.new_embed.weight f4 [20, 1024]
0	0x3e6f4b4f	0.23368572
1	0x3ea6b70b	0.32561526
2	0x3ba0ba68	0.004905034
3	0xbec43ef1	-0.3832927
4	0x3e1ed2df	0.15510128
5	0xbce6796c	-0.02813407
6	0xbe0cbe2d	-0.13744421
7	0xbe48638c	-0.19569224
8	0xbe802879	-0.25030878
9	0xbdcfad04	-0.10140422
10	0xbe2a11b9	-0.16608323
11	0x3e4e5cf9	0.20152654
12	0xbe84416a	-0.25831157
13	0x3dd136db	0.10215541
14	0xbe04e9e1	-0.12979843
15	0xbe322931	-0.17398526
16	0xbde46a50	-0.1115309
17	0x3edea349	0.43483952
18	0xbecb63d5	-0.39724603
19	0x3d2e4923	0.042550217
20	0xbd04619f	-0.03231966
21	0xbe452152	-0.19250992
22	0xbe249cc7	-0.16075431
23	0x3f1a5d0e	0.6029824
24	0x3d1e71d4	0.038682774
25	0x3d502b63	0.050822627
26	0x3d413f18	0.04717931
27	0xbe72d3f4	-0.23713666
28	0x3e782aed	0.24235125
29	0xbe27ddcb	-0.16393201
30	0xbc03c58a	-0.008042702
31	0x3dd46072	0.10369958
32	0x3ddeaf2f	0.10873257
33	0xbe3937a6	-0.18087634
34	0x3e62a901	0.22134782
35	0x3d5d7a31	0.05407161
36	0x3dd3d3e3	0.103431486
37	0x3e6d4339	0.23170175
38	0xbec6113a	-0.38685018
39	0xbddf6cbf	-0.109094135
40	0x3e653693	0.223841
41	0x3c891077	0.016731484
42	0x3e8be571	0.27323487
43	0x3c92c9d0	0.017918497
44	0xbb713bd0	-0.0036809333
45	0xbe802356	-0.2502696
46	0xbdadc42e	-0.08484684
47	0xbebb0e6b	-0.36534438
48	0x3d84840e	0.064705
49	0xbd4bcc34	-0.04975529
50	0xbe00aee2	-0.12566712
51	0xbdc42657	-0.09577625
52	0x3e468dc8	0.19390023
53	0x3d2233e0	0.039600253
54	0xbe4351a7	-0.19074117
55	0xbdacdce4	-0.08440569
56	0xbede40d1	-0.43408826
57	0xbe5dfbd7	-0.216781
58	0xbdc8fb71	-0.09813584
59	0xbd9fe277	-0.078068666
60	0x3df060e0	0.117372274
61	0xbd854ab1	-0.06508387
62	0x3e65b06a	0.22430578
63	0x3e0220aa	0.12707773
64	0xbd653b14	-0.055964544
65	0xbdabaef9	-0.08382983
66	0x3e4ed1cf	0.20197223
67	0x3dd4e1ef	0.10394656
68	0x3ee373c1	0.4442425
69	0x3c40f1ab	0.011776368
70	0x3d898b7e	0.06716059
71	0xbcb65182	-0.022255663
72	0xbd754d42	-0.059888132
73	0xbc0b7e42	-0.008513989
74	0xbde0665a	-0.10957022
75	0xbe7d796a	-0.24753347
76	0x3e85dd43	0.26145372
77	0x3d725eec	0.059172556
78	0xbd2b7b52	-0.041865654
79	0x3ed995db	0.42497143
80	0x3e61e182	0.2205868
81	0x3e91621c	0.28395164
82	0x3ee25831	0.4420791
83	0x3e107e54	0.1411069
84	0x3dd9f0e8	0.10641652
85	0x3d78ac5c	0.06071125
86	0x3dcb628d	0.099309064
87	0xbdec0b66	-0.115256116
88	0xbe010b84	-0.12602049
89	0xbe751aa1	-0.2393594
90	0xbe97fd45	-0.29685417
91	0xbe4694b9	-0.1939267
92	0xbd47ec82	-0.048809536
93	0xbe4073b1	-0.18794133
94	0xbca94bad	-0.020665968
95	0x3c7d2a4d	0.01545198
96	0xbdbf76bf	-0.09348821
97	0xbd6f5ca7	-0.05843797
98	0x3d10dc75	0.035366494
99	0xbc88e52d	-0.016710842
100	0x3ec231b3	0.37928542
101	0x3e02a5ed	0.12758608
102	0xbb851246	-0.0040610163
103	0x3dfc9251	0.12332595
104	0x3e28d9a4	0.16489273
105	0x3d786f44	0.060652986
106	0x3eac50a8	0.33655286
107	0x3c94f186	0.018181574
108	0xbe63c8b5	-0.22244532
109	0x3e9e0a68	0.30867314
110	0xbc8305a6	-0.015993904
111	0xbd3ce704	-0.04611875
112	0x3e4004bc	0.18751806
113	0xbeb52491	-0.3537946
114	0xbebb8320	-0.36623478
115	0xbdc0b195	-0.09408871
116	0x3e99c55c	0.30033386
117	0xbd3506d2	-0.044195957
118	0x3e342bf8	0.17594898
119	0x3d0e457a	0.034734227
120	0xbe060a26	-0.13089809
121	0xbcffe6c5	-0.03123797
122	0x3db3af8e	0.08773719
123	0xbe91570c	-0.28386724
124	0xbde0415f	-0.109499685
125	0xbdf44dd1	-0.11928905
126	0x3f109ed2	0.5649234
127	0x3dcb5eb3	0.09930172
128	0x3e6347a8	0.22195303
129	0x3e21b900	0.15793228
130	0x3d501f06	0.050810836
131	0x3df994e1	0.121865995
132	0xbda55df8	-0.08074564
133	0xbec059d6	-0.3756854
134	0xbdd816a2	-0.10551192
135	0x3ec813d3	0.39077625
136	0x3e8ca6b8	0.27470946
137	0x3e58ba33	0.2116478
138	0xbe47aa34	-0.19498521
139	0xbda06733	-0.07832184
140	0xbe3d5999	-0.1849121
141	0x3e22a71c	0.1588406
142	0xbe5c2711	-0.21499278
143	0xbe09d07b	-0.13458435
144	0xbe7e623d	-0.24842162
145	0x3e6f7efc	0.23388284
146	0xbcb885ba	-0.022524703
147	0x3e8912cb	0.2677215
148	0xbde7ad73	-0.1131238
149	0x3cc1f8f4	0.02367828
150	0xbe1aecbf	-0.15129374
151	0xbe3c42e3	-0.1838489
152	0xbe2c15fa	-0.16805258
153	0x3e55c164	0.20874554
154	0x3e07c088	0.13257039
155	0xbea2093a	-0.31647664
156	0x3cdfdeb2	0.02732787
157	0xbc8ef04f	-0.017448572
158	0x3e53ce27	0.2068411
159	0xbdd855fb	-0.105632745
160	0xbe4bb5bf	-0.1989355
161	0xbda428ed	-0.080156185
162	0xbe1375f2	-0.14400461
163	0xbe9aeb13	-0.30257472
164	0xbd0ef99e	-0.034906022
165	0xbf0cff9b	-0.55077523
166	0x3db3251a	0.08747311
167	0xbe08b551	-0.13350417
168	0xbd80283a	-0.062576726
169	0x3cd333fe	0.025781628
170	0xbe4c6c20	-0.19963121
171	0xbcddb390	-0.027063161
172	0x3c07747f	0.008267521
173	0x3d2f6ef7	0.042830434
174	0x3de1793a	0.1100945
175	0xbba19bf3	-0.0049319207
176	0xbe73bd9a	-0.23802796
177	0xbd24eedc	-0.040266857
178	0xbe0a56ce	-0.13509676
179	0x3dbde042	0.092712894
180	0xbe01d646	-0.12679395
181	0xbdc9f8e3	-0.098619245
182	0xbd3f1dde	-0.046659343
183	0xbdffff5e	-0.12499879
184	0xbdd19ce9	-0.10235006
185	0xbca9d3ce	-0.02073088
186	0xbe672e46	-0.22576246
187	0xbd0f8c8e	-0.035046153
188	0x3d5178e5	0.051140685
189	0xbe06589a	-0.13119736
190	0xbe4b8476	-0.19874749
191	0xbe487569	-0.19576038
192	0xbead7821	-0.33880714
193	0x3ea84c39	0.32870653
194	0xbe1bfc5b	-0.15232985
195	0x3d84001e	0.06445335
196	0x3e1616ee	0.14657184
197	0x3e176f5a	0.14788571
198	0xbeb867bf	-0.36016652
199	0xbdb43230	-0.08798635
200	0x3db0ca83	0.08632376
201	0xbe344a1d	-0.17606397
202	0x3e2477c8	0.16061318
203	0x3eacf88c	0.33783376
204	0x3dbb0512	0.091318265
205	0x3cef61e7	0.029221488
206	0xbdde8989	-0.108660765
207	0xbd2d587c	-0.042320713
208	0xbd0eaac8	-0.03483084
209	0xbd2a89c6	-0.041635297
210	0xbdb62a33	-0.088947676
211	0xbecc6cfe	-0.39926904
212	0x3de81865	0.11332778
213	0x3e776a54	0.24161655
214	0x3e241189	0.16022314
215	0x3c86ddb6	0.016463142
216	0xbefcd8de	-0.49384207
217	0xbba1d6fb	-0.0049389577
218	0xbd701e92	-0.058622904
219	0xbe56d095	-0.20978005
220	0xbd98bbfb	-0.074577294
221	0x3e1c1a0b	0.1524431
222	0xbdb88978	-0.09010595
223	0xbd53edf6	-0.05174061
224	0x3dddcd28	0.10830146
225	0xbe4799b7	-0.19492231
226	0xbdf5c172	-0.119997874
227	0xbdc78fa5	-0.09744195
228	0x3e516c7c	0.2045154
229	0x3ef27b7f	0.47359845
230	0x3db0cb7f	0.08632564
231	0x3d0f5fa9	0.035003338
232	0xbccb0542	-0.02478278
233	0x3e7eb847	0.24874984
234	0x3ed49171	0.41517213
235	0x3d285f87	0.041106727
236	0xbe6a3f18	-0.22875631
237	0xbf00c4d4	-0.50300336
238	0xbe310b64	-0.17289501
239	0xbcc8ca75	-0.024510602
240	0xbec70be1	-0.3887625
241	0x3df1af47	0.118010096
242	0x3e053fd3	0.13012628
243	0xbda06e70	-0.07833564
244	0x3e524c2e	0.20536873
245	0xbe20c683	-0.15700726
246	0xbe7c6717	-0.246487
247	0xbe99fb20	-0.30074406
248	0xbd8171f9	-0.06320567
249	0x3e974460	0.29544353
250	0xbdff9657	-0.12479847
251	0xbd7626d5	-0.060095627
252	0xbed23ff2	-0.4106441
253	0xbe32f874	-0.1747759
254	0x3baac5e6	0.0052115796
255	0x3cd73f7f	0.026275394
