baseline/ckpt/SST-2/model-42.pt (torch, 82744 bytes, 1 tensors)

roberta.embeddings.word_embeddings.new_embed.weight f4 [20, 1024]
-0.019530537 -0.17071381 -0.2546654 -0.3468531 0.18088613 0.10165971 0.21525407 -0.109699376
0.23940666 -0.16212022 -0.3666771 -0.48182237 -0.07108213 0.46570978 0.0060776067 -0.096951246
-0.14571515 -0.09797302 -0.17299183 0.019602155 -0.07421773 -0.5244956 0.05107014 0.5337381
0.1870775 0.34595785 0.3028992 0.16636202 -0.10531934 -0.20645256 0.1432749 -0.12845296
-0.15402971 0.05951165 0.3011213 0.10277128 -0.01656137 -0.026517296 0.07995179 -0.32603103
0.37681744 -0.49816558 0.027786706 0.04620362 -0.30138454 -0.2063027 -0.090722315 0.10137156
-0.038320124 -0.17478798 -0.053767297 0.18876053 0.143872 0.1942714 -0.1447355 -0.15042607
-0.24608435 0.12606362 -0.16162223 -0.2494605 0.33206767 -0.03261167 0.152815 -0.117217496
0.1320848 -0.2216779 0.18159059 -0.39455438 0.2750888 0.039160836 0.035122786 0.09332178
-0.40161404 -0.07305014 -0.1364787 -0.0007259865 -0.020353217 0.5389465 -0.28721908 0.028870918
-0.4101371 0.18604247 0.16250885 0.11457831 -0.11131194 -0.2319838 -0.19473952 -0.11713831
-0.25958648 0.039621178 -0.26485848 -0.13938177 0.20579094 -0.21658911 -0.2702007 -0.2730306
0.4264958 -0.18053718 -0.00027739166 0.040722802 0.27475533 -0.0061353846 0.013087079 0.17768097
0.20975432 0.28482544 -0.11901605 -0.24082683 -0.27721396 -0.012723409 -0.13891065 -0.22435376
0.41899925 0.48518878 -0.10755967 0.3249801 0.060431805 -0.24127771 0.1467949 0.11515702
-0.15603541 -0.030638795 -0.26589087 -0.053655744 -0.069872364 0.10877582 0.18583725 0.061921716
0.1549321 0.013064887 -0.12880123 -0.27959082 0.28838632 -0.2113635 -0.2236483 0.1504629
0.00070026895 0.06167669 0.24392878 0.21684647 0.2486138 0.2998181 0.23918024 -0.284688
-0.009562485 0.05538166 -0.14558022 0.27196717 -0.12035474 -0.28579363 -0.091652155 0.071138956
-0.46584296 -0.24294421 0.26508382 0.031141972 -0.12649964 -0.2650914 0.04376812 0.25465938
-0.112789914 -0.11497166 0.24681586 -0.35334113 -0.06611951 -0.43701667 -0.19638878 0.23624384
-0.3200182 -0.0060976455 0.026037518 0.34193525 0.054252677 -0.35518414 -0.2890249 -0.21964358
-0.24286532 0.15770003 -0.28142637 -0.20945342 0.0446772 0.04296537 -0.07237947 -0.20495608
-0.1784946 0.13105246 -0.013755244 -0.20270881 0.12836291 -0.14091486 0.06643917 -0.06892482
-0.05979469 0.10284366 0.14728251 -0.13909397 0.07336942 -0.25484982 -0.09246279 -0.06521886
-0.023855064 0.0015701124 0.21250351 0.18104044 0.020146413 0.087997705 0.11052975 -0.09581586
-0.10948078 0.15848754 -0.47351956 0.27847236 0.04209106 -0.10562151 0.60066986 0.0010446648
-0.090863205 -0.10459826 -0.31777364 0.10573401 -0.5257165 0.2753189 -0.21984527 -0.096694246
-0.057316136 -0.37357646 -0.16299744 -0.19910662 0.19778657 0.25521836 -0.13376094 0.34300077
-0.1252715 0.08582272 0.11196501 0.17669855 -0.038373563 -0.288267 -0.033722747 0.29006445
-0.27864966 0.05191422 -0.10081846 -0.13573627 -0.07530417 0.09522607 -0.2297899 0.03970188
-0.51775074 0.27657056 -0.097130075 0.31389904 -0.30976117 0.4326184 -0.1657652 0.043007433
00000000: 81fe 9fbc 9acf 2ebe 8163 82be bb96 b1be
00000010: 373a 393e f732 d03d 906b 5c3e 11aa e0bd
00000020: 0527 753e d802 26be 1abd bbbe 6cb1 f6be
00000030: 8293 91bd 8371 ee3e a926 c73b 608e c6bd
00000040: 5a36 15be 14a6 c8bd c524 31be b394 a03c
00000050: 77ff 97bd 5845 06bf ec2e 513d 0fa3 083f
00000060: 3f91 3f3e 6321 b13e 9b15 9b3e ce5a 2a3e
00000070: abb1 d7bd 4d68 53be a8b6 123e 2c89 03be
00000080: f7b9 1dbe 7dc2 733d 922c 9a3e c079 d23d
00000090: b6ab 87bc cd3a d9bc c4bd a33d 8aed a6be
000000a0: 37ee c03e 8f0f ffbe f2a0 e33c 0240 3d3d
000000b0: 134f 9abe 0441 53be 9fcc b9bd e49b cf3d
000000c0: 90f5 1cbd 9ffb 32be 193b 5cbd 714a 413e
000000d0: 2e53 133e 15ef 463e 8b35 14be 4b09 1abe
000000e0: 89fd 7bbe d216 013e 4c80 25be 9372 7fbe
000000f0: c604 aa3e d193 05bd 897b 1c3e ba0f f0bd
00000100: 3d41 073e 88ff 62be e2f2 393e 0803 cabe
00000110: 70d8 8c3e 1d67 203d e9dc 0f3d 7d1f bf3d
00000120: 5ba0 cdbe 509b 95bd 13c1 0bbe 2150 3eba
00000130: cabb a6bc 66f8 093f 610e 93be b482 ec3c
00000140: 7dfd d1be eb81 3e3e b868 263e 08a8 ea3d
00000150: 84f7 e3bd 298d 6dbe cc69 47be 36e6 efbd
00000160: 85e8 84be d149 223d 889b 87be 18ba 0ebe
00000170: dcba 523e 89c9 5dbe bf57 8abe abca 8bbe
00000180: a85d da3e bdde 38be e16e 91b9 f4cc 263d
00000190: bbac 8c3e 560b c9bb 306b 563c 00f2 353e
000001a0: d6c9 563e a4d4 913e b0be f3bd 4f9b 76be
000001b0: fdee 8dbe d875 50bc 983e 0ebe febc 65be
000001c0: 1287 d63e aa6a f83e 3f48 dcbd cb63 a63e
000001d0: 5787 773d 8111 77be 6751 163e 72d7 eb3d
000001e0: bfc7 1fbe 36fe fabc d922 88be 20c6 5bbd
000001f0: 3e19 8fbd dbc5 de3d 1f4c 3e3e a0a1 7d3d
00000200: 85a6 1e3e 1c0e 563c 78e4 03be 8726 8fbe
00000210: 5fa7 933e ac6f 58be 0f04 65be f212 1a3e
00000220: 4192 373a b2a0 7c3d 77c8 793e 000d 5e3e
00000230: 9e94 7e3e c281 993e aaeb 743e a0c2 91be
00000240: f8ab 1cbc e1d7 623d fb12 15be 483f 8b3e
00000250: 8c7c f6bd 8b53 92be 20b4 bbbd 4db1 913d
00000260: f882 eebe 5ec6 78be 11b9 873e 731d ff3c
00000270: 1f89 01be 0fba 87be 3346 333d b762 823e
00000280: 66fe e6bd 4376 ebbd 4cbd 7c3e 21e9 b4be
00000290: aa69 87bd a6c0 dfbe 241a 49be e8e9 713e
000002a0: 6dd9 a3be c2ce c7bb a24c d53c 2312 af3e
000002b0: 0e38 5e3d b2da b5be 12fb 93be 3fea 60be
000002c0: b0b1 78be 1e7c 213e 1e17 90be f57a 56be
000002d0: 71ff 363d 75fc 2f3d b03b 94bd 02e0 51be
000002e0: 4ac7 36be 9e32 063e ad5d 61bc e692 4fbe
000002f0: 9171 033e fc4b 10be 4211 883d 7528 8dbd
00000300: 47eb 74bd b29f d23d 3ad1 163e a66e 0ebe
00000310: b542 963d ad7b 82be 225d bdbd 7791 85bd
00000320: b26b c3bc 3bcc cd3a 859a 593e aa62 393e
00000330: 170a a53c 2438 b43d 6c5d e23d 1b3b c4bd
00000340: 7637 e0bd 8f4a 223e 2871 f2be ee93 8e3e
00000350: ad67 2c3d 1750 d8bd 80c5 193f 22ed 883a
00000360: 7d16 babd 9d37 d6bd 3ab3 a2be 138b d83d
00000370: 5b95 06bf 99f6 8c3e 1e1f 61be a207 c6bd
00000380: 53c4 6abd 6a45 bfbe cde8 26be 9be2 4bbe
00000390: 9088 4a3e fbab 823e a1f8 08be cc9d af3e
000003a0: 2c47 00be d2c3 af3d e94d e53d 77f0 343e
000003b0: 992d 1dbd bb97 93be dd20 0abd 5483 943e
000003c0: 2bab 8ebe 01a4 543d e979 cebd 73fe 0abe
000003d0: 1339 9abd e305 c33d 0b4e 6bbe 709e 223d
000003e0: 508b 04bf a89a 8d3e 22ec c6bd 60b7 a03e
000003f0: 0499 9ebe 2980 dd3e 5abe 29be 9028 303d
