baseline/ckpt/mr/model-13.pt (torch, 82744 bytes, 1 tensors)

roberta.embeddings.word_embeddings.new_embed.weight f4 [20, 1024]
0	0xbdfa3c16	-0.12218492
1	0xbb7da3a7	-0.003870228
2	0xbe9f0f51	-0.31066373
3	0xbe9ec6f3	-0.3101116
4	0x3d1d4f18	0.038405508
5	0x3dec21cb	0.11529883
6	0xbedc3581	-0.4300957
7	0xbe62bea8	-0.22143042
8	0xbe5e786c	-0.21725625
9	0x3e2f9ad3	0.17148905
10	0xbd4446ab	-0.047918957
11	0x3dcd222c	0.100162834
12	0x3dd362ec	0.10321602
13	0xbe8458b7	-0.25848934
14	0xbe706c5c	-0.23478836
15	0xbe31a8ec	-0.17349595
16	0x3e5031c5	0.20331486
17	0x3e54bf3d	0.20776077
18	0xbe133f93	-0.1437972
19	0xbe03ebd4	-0.1288293
20	0xbeb630a9	-0.35584
21	0xbd56b58b	-0.052419227
22	0x3e9a8392	0.30178505
23	0x3ec03941	0.3754368
24	0xbe28640f	-0.1644442
25	0x3db81633	0.08988609
26	0xbde29468	-0.110634625
27	0xbd36ba78	-0.044611424
28	0xbe0eaee7	-0.13933907
29	0xbd283044	-0.041061655
30	0x3e004b94	0.12528831
31	0xbcc2ee7d	-0.02379536
32	0x3ea10d1b	0.3145531
33	0xbdc2f58e	-0.09519492
34	0x3ccccf10	0.025001079
35	0xbd877da0	-0.06615758
36	0xbe051026	-0.12994441
37	0x3d4c0a97	0.049814787
38	0x3e3b8818	0.18313634
39	0x3d1eb84f	0.03874999
40	0x3e187aa1	0.14890529
41	0xbcff5f11	-0.03117326
42	0x3ba3265a	0.004978937
43	0x3ece07de	0.40240377
44	0xbd8a6566	-0.067576215
45	0xbeb89dc4	-0.36057866
46	0x3e6fe6d7	0.23427902
47	0xbefa3ec9	-0.48876026
48	0x3e276d3f	0.16350268
49	0xbcd7fe14	-0.026366271
50	0x3c831f21	0.016006054
51	0x3e08d814	0.13363677
52	0x3ee86189	0.45386913
53	0xbe383a06	-0.17990884
54	0xbe955682	-0.29167563
55	0xbebbe4c2	-0.36697966
56	0xbd9c9f7a	-0.07647605
57	0x3e93f923	0.28901014
58	0xbe8853f2	-0.26626545
59	0x3e92c34b	0.28664622
60	0x3d5a6545	0.053319234
61	0x3e2be67e	0.16787145
62	0x3ca8087c	0.020511858
63	0xbdb98dcc	-0.09060249
64	0x3e1fd03f	0.15606783
65	0xbdb3cd30	-0.08779371
66	0x3d7692f5	0.060198743
67	0x3da74947	0.081682734
68	0x3e87683d	0.26446715
69	0xb9923bba	-0.0002789179
70	0x3e2c17ca	0.1680595
71	0x3e00fd40	0.12596607
72	0xbe3aeb4a	-0.18253818
73	0x3d88dd52	0.066828385
74	0xbe0df3c8	-0.13862526
75	0x3e2b9ca9	0.1675898
76	0xbe9d723d	-0.3075122
77	0x3e7c3f59	0.2463354
78	0x3e096dcd	0.13420792
79	0xbe67f39a	-0.2265152
80	0x3e81992d	0.25312176
81	0xbde411b7	-0.11136191
82	0x3d012957	0.031533565
83	0xbcd50179	-0.026001679
84	0x3dd602bf	0.104497425
85	0x3df01b02	0.11723901
86	0xbd8e483c	-0.06947371
87	0x3daf8c0e	0.08571635
88	0xbcbad726	-0.022807669
89	0x3c4cf916	0.012510559
90	0xbcd58f59	-0.02606933
91	0xbc92c738	-0.01791726
92	0xbe8cca45	-0.2749807
93	0xbe5119f2	-0.20420054
94	0x3d1de113	0.038544726
95	0xbeda6620	-0.4265604
96	0x3d5e6d14	0.054303244
97	0x3cb77512	0.02239469
98	0x3e3f2d5e	0.1866965
99	0xbe143ff0	-0.14477515
100	0x3e7123af	0.23548768
101	0x3ec1f4ec	0.37882173
102	0xbeee3252	-0.46522766
103	0xbe5c0755	-0.21487172
104	0x3e346a71	0.17618729
105	0xbe2d4ad7	-0.1692308
106	0x3e8ff38a	0.28115493
107	0xbdba4385	-0.090949096
108	0xbe8bf00b	-0.27331576
109	0xbd8ba6c2	-0.06818916
110	0x3ed9767a	0.42473203
111	0xbed6e942	-0.41974837
112	0x3d1c3d12	0.03814418
113	0xbeb3e197	-0.3513305
114	0xbc163705	-0.009168391
115	0xbd678466	-0.05652275
116	0xbd3ae10b	-0.045624774
117	0xbc0a2102	-0.008430721
118	0xba1eb5b9	-0.00060543005
119	0x3e03e3e0	0.12879896
120	0xbc86df48	-0.01646389
121	0xbe786bd9	-0.2425989
122	0xbe87b740	-0.26506996
123	0xbeafcc29	-0.3433545
124	0x3ec341d6	0.38136166
125	0x3e90c4d3	0.28275165
126	0x3dd1b850	0.10240233
127	0x3d9f2560	0.077708006
128	0xbde77265	-0.11301116
129	0xbcf3a784	-0.029742964
130	0x3da75e62	0.08172299
131	0x3e782063	0.24231105
132	0xbe886304	-0.26638043
133	0x3e988996	0.2979247
134	0x3d9c65ab	0.07636579
135	0x3e1e08c9	0.15433039
136	0xbc6fd7e9	-0.014638879
137	0xbc36534a	-0.011128256
138	0x3e5946ff	0.21218489
139	0x3e2dcb3a	0.16972056
140	0xbe923c79	-0.28561762
141	0xbecf7b6f	-0.4052386
142	0xbe2e06f7	-0.16994844
143	0x3d9cef89	0.07662875
144	0xbe4b6094	-0.1986106
145	0x3ebba72f	0.36650988
146	0xbd21c058	-0.039490074
147	0x3e7e292c	0.24820393
148	0xbe391aa7	-0.18076573
149	0x3ddf01ca	0.10889013
150	0xbdd4518a	-0.10367115
151	0xbae5c1b1	-0.0017529038
152	0xbc76cde5	-0.0150637375
153	0x3d2847d8	0.04108414
154	0x3ddaffe5	0.10693339
155	0xbd80f6eb	-0.06297096
156	0xbeefd091	-0.4683881
157	0xbe3f9ad9	-0.18711413
158	0x3e943881	0.2894936
159	0x3c9b3b06	0.018949043
160	0xbda1883d	-0.078873135
161	0xbeb8839b	-0.36037907
162	0x3d62f6b4	0.055411056
163	0xbe15c901	-0.14627458
164	0x3d088418	0.0333291
165	0xbf01bd81	-0.50679785
166	0xbdea7c79	-0.114495225
167	0x3e150781	0.14553644
168	0x3d966c3f	0.07344865
169	0xbe8ab28b	-0.27089342
170	0xbd0f0ec6	-0.0349262
171	0xbd441d36	-0.04787942
172	0xbe1749a0	-0.1477418
173	0x3ddd4884	0.10804847
174	0x3e1e7032	0.15472487
175	0xbe753ff8	-0.23950183
176	0x3cd7152e	0.026255216
177	0xbe9a3946	-0.3012182
178	0x3ec41ba7	0.38302347
179	0x3e6ebaef	0.23313497
180	0x3dedfb28	0.1162017
181	0xbdb8e143	-0.0902734
182	0x3d29ba32	0.041437335
183	0xbdffb59d	-0.12485812
184	0x3c9b3aff	0.01894903
185	0xbdbaf034	-0.09127846
186	0xbda224b9	-0.079171605
187	0x3e446d9d	0.19182439
188	0x3e64a4b8	0.2232846
189	0xbd93060e	-0.07178889
190	0xbd0c8553	-0.034306835
191	0x3e6934fe	0.22774121
192	0x3e0096b9	0.12557496
193	0x3d73e401	0.059543613
194	0xbe0bc963	-0.13651042
195	0x3e44c500	0.19215775
196	0x3e5d616c	0.21619195
197	0xbedd16f6	-0.4318158
198	0x3d2900ec	0.041260645
199	0xbd65c0c7	-0.05609205
200	0xbec6f613	-0.38859615
201	0x3ddd4c2c	0.10805544
202	0xbe832f2f	-0.25621936
203	0x3d1d55c4	0.03841187
204	0x3e968508	0.2939837
205	0xbe965ae4	-0.2936622
206	0xbe0833c2	-0.13300994
207	0xbc5ee093	-0.013603347
208	0x3ea2939a	0.31753236
209	0x3ef56ea2	0.4793597
210	0xbe6fb94d	-0.2341053
211	0x3eb71839	0.35760668
212	0xbe574031	-0.21020581
213	0x3e67aead	0.22625227
214	0x3e8da8f6	0.2766797
215	0xbe13b8c8	-0.14425957
216	0x3e8e85a6	0.2783634
217	0x3ed2dfa3	0.41186246
218	0xbd391bd8	-0.04519257
219	0x3e077575	0.132284
220	0x3ced50db	0.028969219
221	0xbd6493e2	-0.055805095
222	0x3e9a5f0f	0.3015065
223	0x3dc96a12	0.098346844
224	0xbdb52859	-0.08845586
225	0x3c9696a1	0.018382372
226	0xbda5f4c6	-0.081033275
227	0xbea676f2	-0.32512623
228	0x3cacab7a	0.02107786
229	0xbe8d3ce1	-0.2758551
230	0xbebcdab5	-0.3688561
231	0x3e01f54b	0.12691228
232	0x3e5addcd	0.21373673
233	0x3cb3e6d0	0.021960646
234	0xbdb9c454	-0.0907065
235	0x3e85e40a	0.26150542
236	0x3de679e4	0.112537175
237	0xbe393a06	-0.1808854
238	0xbcb87a66	-0.022519302
239	0x3e956276	0.29176682
240	0xbdd42730	-0.10359037
241	0xbeae0dd7	-0.33994934
242	0x3cbeab8c	0.02327516
243	0xbe6842bd	-0.22681709
244	0x3d53d710	0.05171877
245	0xbedb8dad	-0.42881528
246	0xbc35ccbd	-0.011096177
247	0x3d9808dc	0.07423565
248	0xbe98e7ba	-0.29864293
249	0x3e3e8590	0.18605638
250	0xbdbccb00	-0.09218407
251	0xbc388153	-0.011261302
252	0xbd669b71	-0.056300584
253	0x3cfbacfb	0.030722132
254	0x3d55669e	0.052099817
255	0x3d928f2c	0.07156214
