baseline/ckpt/mr/model-21.pt (torch, 82744 bytes, 1 tensors)

roberta.embeddings.word_embeddings.new_embed.weight f4 [20, 1024]
0	0xbe129dbc	-0.14317983
1	0x3eae8778	0.3408773
2	0x3e79ae1f	0.24382828
3	0x3cc5fcea	0.02416845
4	0xbdd58ed5	-0.10427634
5	0x3e124c0f	0.14286827
6	0x3b4d7f8b	0.003135654
7	0xbdb7c2bf	-0.08972692
8	0xbe690e72	-0.22759417
9	0x3affc364	0.0019513187
10	0xbe281b02	-0.16416553
11	0xbe9ccdba	-0.30625707
12	0xbe28610a	-0.16443267
13	0x3dd3c237	0.10339778
14	0x3e244314	0.16041213
15	0xbd7fb50a	-0.06242851
16	0x3e94027b	0.28908142
17	0xbdf05214	-0.11734405
18	0xbdb0c65b	-0.08631583
19	0xbdfe2cb3	-0.124108694
20	0xbe90ee5a	-0.28306848
21	0xbe172bb5	-0.14762767
22	0x3d9c8778	0.07643026
23	0x3ed73232	0.42030483
24	0x3e212de7	0.15740167
25	0x3e113eed	0.1418416
26	0x3ece31a8	0.4027226
27	0xbe548f6a	-0.20757833
28	0x3e87f5d9	0.26554754
29	0xbcf5878b	-0.029971858
30	0x3d241cc7	0.040066507
31	0x3e6fc702	0.23415759
32	0xbe192e90	-0.14959168
33	0xbeb8ac13	-0.36068782
34	0x3e45e585	0.19325836
35	0x3e937eca	0.2880767
36	0x3e8796dc	0.26482284
37	0x3e4ca095	0.19983132
38	0xbdfc8c98	-0.12331504
39	0xbd715fd5	-0.058929283
40	0x3e874ce9	0.26425865
41	0xbd0bb6e5	-0.03410997
42	0x3eb917de	0.36151022
43	0xb9d82e11	-0.00041233053
44	0x3e4d0f45	0.20025356
45	0xbe2f96b8	-0.17147338
46	0x3eb479ed	0.35249272
47	0xbeceefa3	-0.40417203
48	0x3dfea8cd	0.1243454
49	0x3d004de5	0.031324286
50	0xbbbf35b7	-0.0058352607
51	0xbe82438a	-0.25442153
52	0x3e82d779	0.25555018
53	0xbe814d78	-0.25254416
54	0x3cef7bdb	0.029233864
55	0xbda52ece	-0.08065568
56	0xbe6aade1	-0.22917892
57	0xbd8e2754	-0.06941095
58	0xbb48c5ca	-0.003063547
59	0xbe830ff6	-0.25598115
60	0x3e578dd8	0.21050203
61	0x3d298320	0.041384816
62	0xbe36b60c	-0.17842883
63	0x3de11b10	0.1099149
64	0xbcf2a20d	-0.029618287
65	0xbe4221a3	-0.18958144
66	0x3e557d86	0.20848665
67	0xbe667d96	-0.22508845
68	0xbd643425	-0.05571379
69	0x3e7ae532	0.24501494
70	0x3d100121	0.035157327
71	0x3dc3f173	0.09567537
72	0xbe663965	-0.22482832
73	0xbe250cd4	-0.16118175
74	0xbdd6640f	-0.104683034
75	0xbdeb57ed	-0.1149138
76	0x3d8cd4a7	0.06876498
77	0x3d36dd38	0.044644564
78	0xbde5d122	-0.112215295
79	0x3de94092	0.11389269
80	0xbd63b5b3	-0.055593204
81	0x3d5a5f04	0.05331327
82	0x3e1e73e4	0.15473896
83	0x3d3c7bb0	0.046016395
84	0x3d93b8eb	0.07213005
85	0x3dddadb2	0.108241454
86	0xbd4755fb	-0.04866598
87	0xbe4eb3b5	-0.2018574
88	0xbe1e8a88	-0.15482533
89	0xbdf22733	-0.11823883
90	0xbe81bd24	-0.25339615
91	0xbe2c99f9	-0.16855611
92	0x3e4bea7d	0.19913669
93	0xbe1348d1	-0.14383246
94	0x3e3b16ba	0.18270388
95	0x3dc836f3	0.09776106
96	0xbeba757c	-0.36417758
97	0xbb30d4f1	-0.0026982392
98	0x3d45f526	0.048329495
99	0xbbf82934	-0.007573271
100	0x3d9bca21	0.076069124
101	0x3e7e0d52	0.24809769
102	0xbdcc1b90	-0.09966195
103	0x3c496f9a	0.012294674
104	0x3e006f73	0.12542515
105	0x3d2c5a5d	0.042078365
106	0xbb88c589	-0.0041739387
107	0xba54a7f5	-0.0008112186
108	0xbe57ab22	-0.21061376
109	0x3de9e853	0.114212655
110	0xbc0c2e9f	-0.008556037
111	0xbe1ac28f	-0.1511328
112	0x3e022dde	0.1271281
113	0xbda1f38f	-0.07907783
114	0xbe40bebc	-0.1882276
115	0x3e93b73f	0.28850743
116	0x3d0f303a	0.0349581
117	0x3d09d8bb	0.033653956
118	0x3e3d9e8c	0.18517512
119	0x3e508afa	0.20365515
120	0xbeb38912	-0.35065514
121	0x3ddb1d09	0.106988974
122	0xbdc309e0	-0.09523368
123	0xbdd5b7b2	-0.10435428
124	0xbd49079d	-0.049079526
125	0x3dafcaf6	0.085836336
126	0x3e89132d	0.26772442
127	0x3e6fef55	0.23431142
128	0x3dee4121	0.11633516
129	0x3d5d5dbf	0.05404448
130	0x3d11d5ad	0.035604168
131	0x3de86da9	0.11349041
132	0xbcea6379	-0.028611885
133	0xbe07408f	-0.13208221
134	0xbccbe2d7	-0.02488844
135	0x3e04ecb7	0.12980925
136	0x3e342ac4	0.17594439
137	0xbdc2a8f1	-0.09504879
138	0xbda165cf	-0.078807466
139	0x3de2e19d	0.110781886
140	0xbe7c3fe0	-0.24633741
141	0xbda4c4b4	-0.08045331
142	0xbe347b20	-0.17625093
143	0xbe7a3b9b	-0.244368
144	0xbe8eedaf	-0.27915713
145	0x3daccd93	0.08437648
146	0xbeaebff1	-0.34130815
147	0x3d6e8642	0.058233507
148	0xbeae6454	-0.3406092
149	0xbe8494de	-0.25894827
150	0x3d022d81	0.031781677
151	0x3dc3a4cf	0.09552919
152	0xbdb812c2	-0.08987953
153	0xbdd529b3	-0.10408344
154	0xbdedd9fc	-0.11613843
155	0xbde83317	-0.113378696
156	0xbe261f87	-0.16222964
157	0x3e0e7c11	0.13914515
158	0xbdb3f0d1	-0.087861665
159	0x3d7e08a2	0.06201995
160	0xbdd9218e	-0.10602103
161	0xbeb626e7	-0.35576555
162	0xb9d5d383	-0.00040784114
163	0xbee699c1	-0.4503918
164	0x3e9063f9	0.28201273
165	0xbe9f4a66	-0.3111145
166	0xbe669eb9	-0.22521485
167	0xbe86e10c	-0.26343572
168	0xbcc12028	-0.023574904
169	0xbe00fe91	-0.1259711
170	0xbea89e27	-0.3293316
171	0xbe80aae2	-0.25130373
172	0x3cd1bf53	0.025603926
173	0xbe85aea0	-0.2610979
174	0xbed29a70	-0.4113345
175	0xbe8a97cf	-0.27068946
176	0x3cece82d	0.028919304
177	0xbce08a5a	-0.027409721
178	0x3e4737b4	0.19454843
179	0x3ead485d	0.3384427
180	0xbd84cf7d	-0.06484888
181	0xbe1d6f94	-0.15374595
182	0xbea29df9	-0.3176115
183	0xbd469e14	-0.0484906
184	0xbc871690	-0.01649025
185	0x3e0d8c8b	0.13823144
186	0xbe83d681	-0.2574959
187	0x3c608565	0.013703679
188	0xbdd841e6	-0.10559444
189	0x3e0e8c1c	0.13920635
190	0x3d89a190	0.06720269
191	0xbeba0243	-0.3632985
192	0x3ec450d5	0.3834292
193	0xbd6e6d44	-0.058209673
194	0xbce1539c	-0.027505688
195	0x3e45575d	0.19271608
196	0xbe897278	-0.26845145
197	0xbe23afc4	-0.15985018
198	0xbe8dd243	-0.2769948
199	0xbe6bd908	-0.2303201
200	0x3d0fd0c6	0.03511121
201	0xbbac2878	-0.0052538477
202	0x3cd2f821	0.025753083
203	0xbddf61c5	-0.1090732
204	0x3e30be0a	0.17259994
205	0xbc826f2c	-0.015922152
206	0x3e2d7077	0.16937433
207	0xbe017e15	-0.12645753
208	0x3c0c9c16	0.008582136
209	0x3e4eef88	0.20208561
210	0xbec47751	-0.3837228
211	0xbe16f741	-0.14742757
212	0x3e32f583	0.17476468
213	0x3d5122df	0.051058646
214	0x3eadadd3	0.3392168
215	0x3d303191	0.04301602
216	0xbea21354	-0.3165537
217	0x3e8d4ce4	0.27597725
218	0xbdafb49d	-0.08579371
219	0xbc5a9082	-0.013340117
220	0xbed4bbdd	-0.41549578
221	0x3eca538c	0.39516866
222	0xbdc91348	-0.09818131
223	0x3e0fb1cb	0.14032666
224	0xbd8574e5	-0.065164365
225	0x3d3eb51d	0.04655944
226	0x3d9b5bd7	0.075858764
227	0xbeb2aaa7	-0.34895822
228	0x3e9c9486	0.30582064
229	0x3e88d429	0.26724365
230	0xbe354157	-0.17700706
231	0x3ebd3f30	0.3696227
232	0x3c98dd05	0.018660078
233	0xbe522b67	-0.20524369
234	0x3ee9aa96	0.4563796
235	0x3e2dcf18	0.16973531
236	0x3edf3cab	0.43600973
237	0xbecb2429	-0.39676026
238	0xbb1b1e62	-0.0023669233
239	0x3d4c0331	0.04980773
240	0xbdb01381	-0.0859747
241	0x3c005583	0.007832888
242	0xbd9c7b3b	-0.07640692
243	0xbe19e26e	-0.15027782
244	0xbd8c79ab	-0.06859144
245	0xbe2fca02	-0.17166904
246	0x3cd1bcb1	0.02560267
247	0x3c7a2b1f	0.01526907
248	0xbcf8e659	-0.030383276
249	0xbda06e64	-0.07833555
250	0x3c947fff	0.01812744
251	0x3d389da0	0.045072198
252	0x3e17b1ca	0.14813915
253	0xbea4e25f	-0.32203957
254	0x3e982f55	0.2972361
255	0x3e3a3674	0.18184835
