baseline/ckpt/mr/model-42.pt (torch, 82744 bytes, 1 tensors)

roberta.embeddings.word_embeddings.new_embed.weight f4 [20, 1024]
-0.2712686 -0.020269537 0.23036964 -0.30600435 -0.11854891 0.06653487 -0.034570947 -0.47731626
-0.062243205 -0.027877573 0.017960094 -0.500114 -0.01653084 0.31893492 -0.26005572 -0.16122429
-0.047723915 -0.23409995 -0.25750294 0.020067465 -0.061804768 -0.20870388 0.04484245 0.11283792
0.20435062 0.34597984 0.3294164 -0.060926966 -0.1294192 -0.09701757 0.13476825 -0.1888695
-0.025531368 -0.27717733 0.21896422 -0.124904 0.010424827 0.12613943 -0.14151873 -0.16982841
0.23299861 -0.032284856 0.04072743 0.14008608 -0.23036729 -0.24180506 0.22251661 0.07111166
0.047201674 0.03179703 -0.078073874 0.21086848 0.10638402 0.19565937 0.00088339485 -0.17450505
-0.08233587 -0.14042458 0.0594471 -0.3036979 0.17700273 -0.08428563 0.39703265 -0.49501866
-0.0690515 -0.60504574 0.35355377 -0.222793 -0.050896455 0.11499476 0.24820267 0.049889777
-0.24601611 -0.15291578 -0.2104861 -0.043685574 -0.1611763 0.14073585 -0.20080629 0.076849505
-0.12888007 0.16170985 0.05648108 0.008037904 -0.03412723 -0.0988885 0.21159424 0.061906397
-0.1278702 -0.3872749 -0.16207604 0.06437683 0.14549854 -0.27927285 -0.1398295 -0.12465165
0.23527946 -0.07626556 0.0664059 -0.2089965 -0.0035029154 0.16084668 0.17447317 0.20412295
0.24227093 0.10347857 -0.0010213607 -0.17231187 -0.11779108 -0.029459858 -0.17522448 0.10899812
0.25064647 0.263637 -0.2385722 0.33264753 0.1597769 -0.26381636 0.07077761 0.28336808
0.14021453 0.06155949 -0.13423562 0.066297226 -0.31212968 0.11037176 0.2113416 0.31802988
0.07495137 0.27794087 -0.04845439 -0.4471389 0.29184902 -0.3487759 0.030861445 -0.27822778
0.11495799 -0.045373946 -0.056406293 -0.029633766 0.09118882 0.44086263 0.3576446 0.290974
-0.060646698 0.04523037 0.18094711 0.21459767 0.23917527 -0.085827984 0.029682767 0.019907378
-0.33730257 -0.49270067 -0.25162703 0.031962503 -0.095002696 -0.039492916 -0.111622125 0.066172615
-0.03607632 -0.4201779 0.3409102 -0.09198094 0.0012822031 -0.18532076 -0.22120556 0.1501228
-0.21048677 0.2166716 0.07282454 0.09828953 0.06533988 -0.41928992 -0.3720413 -0.012477208
-0.482383 0.18879671 0.03562943 0.082669385 0.08387642 0.2159214 0.021913502 -0.1195451
-0.17584589 0.19493492 -0.41278705 -0.17615592 0.0197542 -0.09384284 0.24012956 -0.13273263
0.22566631 0.42269847 0.048920624 0.3492015 0.028331267 -0.11568061 -0.21547657 -0.017086077
-0.15962948 -0.0892919 0.28322604 -0.21552856 -0.1303123 0.084073246 0.10041907 -0.22126977
-0.3119656 0.16521758 -0.26121014 0.12253027 0.1849684 -0.19921327 0.017942272 0.13253535
-0.12390721 -0.2739631 0.15435678 0.40819025 -0.5082571 -0.06602098 -0.053301107 0.15933171
0.22403862 -0.35668695 -0.058148164 -0.15044248 0.0994406 0.015657233 0.05599994 0.31675515
-0.24350563 0.16981857 -0.009459034 -0.17073277 0.2688027 0.059699703 0.05607282 0.1783589
-0.26315907 0.04882663 -0.38788778 -0.04169262 -0.52590865 0.23490359 -0.0106464345 -0.14605798
-0.2938516 0.104723975 -0.22923042 0.049923807 -0.2906616 0.1441275 0.1938842 0.43028703
00000000: b8e3 8abe 4d0c a6bc 05e6 6b3e 9aac 9cbe
00000010: c5c9 f2bd 6f43 883d 449a 0dbd cc62 f4be
00000020: bbf2 7ebd 825f e4bc 0c21 933c 7907 00bf
00000030: af6b 87bc 704b a33e 0626 85be fb17 25be
00000040: 277a 43bd e6b7 6fbe 6dd7 83be 8664 a43c
00000050: ff26 7dbd 78b6 55be b8ac 373d 9117 e73d
00000060: 4a41 513e 4524 b13e 44a9 a83e 8e8e 79bd
00000070: 7786 04be 26b1 c6bd b000 0a3e 0267 41be
00000080: 2927 d1bc 30ea 8dbe 2838 603e abcd ffbd
00000090: e5cc 2a3c b22a 013e 49ea 10be 80e7 2dbe
000000a0: 3097 6e3e 203d 04bd ced1 263d ba72 0f3e
000000b0: 67e5 6bbe bf9b 77be 65db 633e fda2 913d
000000c0: 8b56 413d 9a3d 023d 32e5 9fbd e8ed 573e
000000d0: dddf d93d ee5a 483e a093 673a 74b1 32be
000000e0: b59f a8bd 76cb 0fbe cd7e 733d 4b7e 9bbe
000000f0: 3440 353e f29d acbd dd47 cb3e 1673 fdbe
00000100: df6a 8dbd 47e4 1abf 0005 b53e d923 64be
00000110: cd78 50bd 5f82 eb3d d728 7e3e 3959 4c3d
00000120: a6eb 7bbe f495 1cbe ab89 57be a5ef 32bd
00000130: 660b 25be 0f1d 103e 2aa0 4dbe 4663 9d3d
00000140: 23f9 03be 4497 253e b458 673d 6ab1 033c
00000150: ffc8 0bbd 0e86 cabd 29ac 583e 9091 7d3d
00000160: 68f0 02be e548 c6be 43f7 25be 00d8 833d
00000170: 92fd 143e dafc 8ebe 772f 0fbe 5d49 ffbd
00000180: 19ed 703e 1e31 9cbd d1ff 873d 2e03 56be
00000190: 2b91 65bb feb4 243e 18a9 323e 9b05 513e
000001a0: df15 783e 93ec d33d 2edf 85ba 8672 30be
000001b0: 733c f1bd cd55 f1bc 0c6e 33be 683a df3d
000001c0: bc54 803e 6efb 863e 454c 74be c750 aa3e
000001d0: 8e9c 233e f012 87be daf3 903d 9f15 913e
000001e0: 6694 0f3e ce25 7c3d 1075 09be d7c6 873d
000001f0: 76cf 9fbe 970a e23d ef69 583e d0d4 a23e
00000200: 1b80 993d 444e 8e3e 1c78 46bd 64ef e4be
00000210: 3c6d 953e c192 b2be 24d1 fc3c df73 8ebe
00000220: 186f eb3d 08da 39bd 490a 67bd 83c2 f2bc
00000230: 34c1 ba3d bfb8 e13e 311d b73e 8bfa 943e
00000240: ac68 78bd 7b43 393d 334a 393e 7ebf 5b3e
00000250: 5dea 743e 95c6 afbd 4629 f33c cc14 a33c
00000260: ecb2 acbe 4343 fcbe 42d5 80be 1deb 023d
00000270: c690 c2bd 53c3 21bd 249a e4bd 8285 873d
00000280: c3c4 13bd 8f21 d7be c88b ae3e 8160 bcbd
00000290: 990f a83a bac4 3dbe b683 62be cbb9 193e
000002a0: d889 57be 29df 5d3e 0825 953d 054c c93d
000002b0: ead0 853d 2bad d6be 337c bebe 346d 4cbc
000002c0: e8fa f6be ed53 413e 2af0 113d 914e a93d
000002d0: 67c7 ab3d 801a 5d3e f283 b33c 10d4 f4bd
000002e0: f210 34be 059d 473e d358 d3be 3862 34be
000002f0: 8fd3 a13c ad30 c0bd 86e4 753e 10eb 07be
00000300: 1215 673e ef6b d83e fe60 483d 8aca b23e
00000310: f916 e83c f5e9 ecbd e4a5 5cbe 1af8 8bbc
00000320: e975 23be acde b6bd 0103 913e 85b3 5cbe
00000330: 9670 05be 982e ac3d 83a8 cd3d 8b94 62be
00000340: f5b9 9fbe cc2e 293e 56bd 85be 26f1 fa3d
00000350: 5b68 3d3e 90fe 4bbe acfb 923c 59b7 073e
00000360: 10c3 fdbd e444 8cbe b40f 1e3e 50fe d03e
00000370: 231d 02bf 0236 87bd 4352 5abd da27 233e
00000380: 616a 653e ac9f b6be c52c 6ebd 980d 1abe
00000390: 83a7 cb3d 9943 803c 3160 653d bb2d a23e
000003a0: 8a59 79be ebe4 2d3e 10fa 1abc 92d4 2ebe
000003b0: 82a0 893e ad87 743d 9dac 653d b7a3 363e
000003c0: c9bc 86be 6ffe 473d 3a99 c6be e1c5 2abd
000003d0: f3a1 06bf 918a 703e 626e 2ebc 3990 15be
000003e0: b873 96be 8679 d63d 61bb 6abe e87c 4c3d
000003f0: 99d1 94be 2996 133e 9489 463e 954e dc3e
